app/src/main/assets/model.tflite (tflite, 508296 bytes, 24 tensors)

arith.constant15 f4 [2, 64]
000000 d5 48 48 36 ac 28 cd b4 73 20 dd b6 13 38 9d 35
       2.9844716e-06 -3.8213818e-07 -6.590091e-06 1.1713731e-06
000010 57 f6 32 36 61 30 8e 36 f7 12 44 b5 33 8a aa b6
       2.6667456e-06 4.237562e-06 -7.304329e-07 -5.0824833e-06
000020 f7 95 93 36 34 93 13 36 73 a1 61 b6 47 48 2f b5
       4.3983996e-06 2.199039e-06 -3.3621588e-06 -6.529776e-07
000030 85 5d 07 b4 0a 48 b5 36 cb 36 64 36 b6 e9 9a b5
       -1.2606877e-07 5.402607e-06 3.4006541e-06 -1.1541913e-06
000040 3c f0 82 36 86 10 3f b6 f3 fc 8b 36 d0 bc 30 b5
       3.902269e-06 -2.8470836e-06 4.17197e-06 -6.583987e-07
000050 e8 9a 76 34 d3 b6 b6 b5 54 fd 8e b6 5a 6b 00 b7
       2.296689e-07 -1.3613266e-06 -4.261421e-06 -7.654389e-06
000060 38 13 11 b6 32 17 0a b6 c3 39 09 b6 12 8c b5 36
       -2.161787e-06 -2.0577104e-06 -2.0448213e-06 5.4105267e-06
000070 6c 12 bb 35 a3 09 8f b6 0a 59 87 36 3b e1 00 36
       1.3937947e-06 -4.262854e-06 4.033679e-06 1.9204588e-06
000080 76 95 bf b6 7e cc 24 36 b8 df 9b b5 e2 07 b3 b5
       -5.709643e-06 2.4556934e-06 -1.1613511e-06 -1.3338833e-06
000090 89 d6 05 36 d3 b2 24 36 50 da fc 33 1c 6f c1 b5
       1.994342e-06 2.4541994e-06 1.1774375e-07 -1.4411958e-06
0000a0 8c 5c 52 b6 5a e2 81 36 b0 45 c5 b5 bc f5 2f 36
       -3.1346308e-06 3.8708504e-06 -1.4697926e-06 2.6220068e-06
0000b0 7a 89 84 b6 5b 7f 90 34 cc 2a 17 b6 be 11 9d b6
       -3.949911e-06 2.6914753e-07 -2.2525664e-06 -4.68103e-06
0000c0 6f 50 1a b7 cc 42 0b 36 9c d8 f1 b2 e6 ab 83 34
       -9.197843e-06 2.0751495e-06 -2.8154595e-08 2.4525724e-07
0000d0 56 b8 30 b6 3f 77 62 36 9b af c7 b6 c8 e1 dd 35
       -2.6333341e-06 3.3746035e-06 -5.9511053e-06 1.6531494e-06
0000e0 13 b7 a8 b5 c5 5a 9a b5 c3 25 46 35 42 18 8f 36
       -1.2570257e-06 -1.1500312e-06 7.38157e-07 4.264556e-06
0000f0 72 16 a1 b4 db ff be 35 97 9d 67 b6 27 3c 89 b6
       -3.0004918e-07 1.4230567e-06 -3.4513412e-06 -4.089921e-06
000100 22 22 83 b6 f6 55 b1 34 f6 51 cb 33 d8 b7 8e 36
       -3.908078e-06 3.3031364e-07 9.467833e-08 4.253332e-06
000110 be 4f 66 36 59 95 ba 35 e8 20 1f 35 24 fa aa 36
       3.4319087e-06 1.3901546e-06 5.928e-07 5.095515e-06
000120 5b 45 c6 35 8d ca 4a 34 a6 21 f4 b4 24 dc 0e 37
       1.4772335e-06 1.8886404e-07 -4.5473024e-07 8.515115e-06
000130 ce 0a 6c 36 12 dd 76 36 e2 b8 c4 b6 2d 71 bf 36
       3.517303e-06 3.6785536e-06 -5.8627784e-06 5.705419e-06
000140 c6 8a e8 b5 ec 69 a1 36 71 0f c2 35 76 68 52 37
       -1.7325735e-06 4.810505e-06 1.445862e-06 1.2541297e-05
000150 84 1b 52 37 89 2b 62 36 7e 28 0a b6 17 6c 95 35
       1.2523382e-05 3.3701965e-06 -2.0587172e-06 1.1132823e-06
000160 cf 12 27 37 11 08 95 b6 45 4f e2 b6 b2 f3 8a 36
       9.958355e-06 -4.441485e-06 -6.744553e-06 4.1410904e-06
000170 94 21 b2 36 39 dd f3 36 ec fc 0e b7 fe 61 ed 36
       5.3087224e-06 7.267718e-06 -8.5227475e-06 7.074558e-06
000180 0f b0 43 37 e4 c2 75 b5 4a 9b d9 b6 c3 f0 a0 b4
       1.1663898e-05 -9.1553215e-07 -6.485182e-06 -2.99775e-07
000190 3f 84 af b5 b4 95 8f 36 dd b0 46 b3 73 40 b6 35
       -1.3077005e-06 4.27916e-06 -4.6261324e-08 1.3578814e-06
0001a0 5e a5 ae 35 a3 02 76 36 15 8f a4 b6 17 3a f7 35
       1.3012138e-06 3.6658391e-06 -4.904238e-06 1.841984e-06
0001b0 b6 90 35 36 20 61 1e 36 6a 4b b4 b5 10 06 54 b5
       2.7055335e-06 2.360037e-06 -1.3432993e-06 -7.8984976e-07
0001c0 48 c2 3d 35 22 7a a3 33 d8 e5 59 36 1b 26 13 b7
       7.0690703e-07 7.612495e-08 3.2469306e-06 -8.770755e-06
0001d0 15 fb 96 36 30 8d ea b6 d2 78 34 36 86 27 f1 b6
       4.499578e-06 -6.99018e-06 2.6892417e-06 -7.186961e-06
0001e0 b4 6b e8 b3 18 7a 33 36 e0 e9 24 36 7b e4 84 b5
       -1.0822933e-07 2.6744146e-06 2.4574038e-06 -9.901263e-07
0001f0 88 27 de 36 15 1f 26 36 98 e9 c4 36 a4 a1 7a b6
       6.6207176e-06 2.475402e-06 5.868449e-06 -3.734699e-06

arith.constant16 f4 [2, 64]
000000 96 47 d2 bd 43 d5 cf 3d 9a f7 e4 bd ab 0d f2 3d
       -0.1026756 0.10148098 -0.11180039 0.11819013
000010 3c 49 92 3d 2a fc cc 3d b5 6a 0b bd b8 8e d8 bd
       0.071428746 0.10009034 -0.03403731 -0.105740964
000020 15 22 98 3d 1e ca d8 bd 44 29 2c bd 4d 6a e5 bd
       0.07428376 -0.10585426 -0.04203154 -0.11201916
000030 66 56 83 3d 1e 84 9a 3d 4c 62 8d 3c b6 f8 df bd
       0.064129636 0.075447306 0.017258786 -0.1093611
000040 58 9f bc bd 1a 49 e5 3d e6 48 72 3c e1 a5 e1 bd
       -0.0921008 0.11195584 0.014787888 -0.11017967
000050 c3 6e e2 bd 7c bd 68 3d 12 85 dc 3d 4d 53 ec bd
       -0.11056282 0.05682133 0.10767569 -0.11539326
000060 bd 3e d6 3d 5b a0 16 bd cd 8d bc bd 4a 14 ec bd
       0.10461185 -0.03677402 -0.09206734 -0.11527307
000070 d9 0e 94 bd 4a 6f e7 3d db 7a e5 3d 24 08 cb 3d
       -0.072293945 0.113005236 0.112050734 0.09913662
000080 32 b4 da bd bb 99 ed 3d b9 f1 03 bc 96 dc bc 3d
       -0.10678901 0.116015874 -0.008053237 0.09221761
000090 95 dd d9 bd 78 b9 a6 3d 39 ae e9 bd 89 dc bf 3d
       -0.106379665 0.08140844 -0.114101835 0.093682356
0000a0 53 e2 ee 3d e8 78 f9 3b 81 e2 c6 bc 7f 45 da bd
       0.11664262 0.00761329 -0.024277927 -0.106577866
0000b0 bd 05 e5 bd 51 9e e0 3d e9 88 ed 3d 5c be de bd
       -0.11182735 0.109676965 0.11598379 -0.10876152
0000c0 23 80 f7 bd 04 75 e3 3d 68 ac aa bd e0 11 fd bd
       -0.12084987 0.11106303 -0.08333665 -0.12356925
0000d0 de 17 9b 3d ec 1a e3 bd 85 6b e2 bd f3 ad d8 bd
       0.07572912 -0.11089119 -0.11055664 -0.10580053
0000e0 ab 20 e6 bd be eb d4 3d b4 52 5f bd 28 7e 8d 3d
       -0.112367 0.10396527 -0.05452223 0.06908828
0000f0 a2 84 d5 3d fd ad f0 3d 8c 85 ec bd 8e a1 f6 3d
       0.10425688 0.11751936 -0.115489095 0.12042533
000100 d1 1c fe bd 75 ba b2 3d 77 41 05 3e 44 9b f3 bd
       -0.1240784 0.0872697 0.13013254 -0.11894849
000110 db e5 ff 3d 90 72 f9 3d 8a 39 fe bd fe 62 fc 3d
       0.12495013 0.12180054 -0.124133185 0.12323569
000120 bb 8a 0e 3e c9 21 01 3e 7b 69 00 be 86 f6 01 3e
       0.13920109 0.12610544 -0.12540238 0.12691697
000130 5b 27 bc bd 7c 1b f6 3d 19 94 38 3d a2 74 fd 3d
       -0.09187194 0.12016961 0.045063112 0.123757616
000140 9d 1e e4 3d 28 d0 f9 3d 3e 95 02 3e f0 df 01 3e
       0.111386515 0.12197906 0.12752244 0.12683082
000150 80 9b f9 3d 4f cd f9 3d 13 a4 c5 bd 5a 96 ff bd
       0.121878624 0.12197363 -0.09650435 -0.12479849
000160 e0 3e 07 3e 30 5f dd 3d 98 25 01 be 86 d4 02 3e
       0.13207579 0.10809171 -0.12611997 0.12776384
000170 30 fb ea 3d a2 06 a3 3d 37 cd ea 3d 07 e4 08 3e
       0.114736915 0.079602495 0.11464923 0.13368236
000180 0b cd 07 be 19 c6 fc bd 42 d3 0a be 21 c3 01 be
       -0.13261811 -0.12342472 -0.13557151 -0.12672092
000190 7c c1 08 3e 98 81 05 be fd 12 00 3e aa c5 00 3e
       0.13355058 -0.13037717 0.12507243 0.12575403
0001a0 bb df cf 3d f4 64 01 3e 03 2d a3 ba a7 48 04 be
       0.10150095 0.12636167 -0.0012449328 -0.1291834
0001b0 94 92 02 3e f7 72 fa bd 74 4b 04 be 2f 28 03 3e
       0.12751228 -0.12228959 -0.12919408 0.12808298
0001c0 c3 a1 f7 bd 47 54 02 be c8 0b 00 3e f3 86 0d be
       -0.120914005 -0.12727462 0.12504494 -0.1382101
0001d0 89 c0 fd 3d 45 bd e3 bd 0e 62 e8 3d 3c e1 00 be
       0.12390239 -0.11120085 0.113468274 -0.1258592
0001e0 60 90 02 3e 4b 80 bc 3d b2 53 0e 3e 8b 55 01 3e
       0.12750387 0.092041574 0.13899115 0.12630288
0001f0 69 23 00 be 46 bb 05 3e 7d 5c f6 3d a9 1f 00 3e
       -0.12513508 0.1305972 0.120293595 0.12512077

arith.constant17 f4 [2, 64]
000000 16 57 52 ba 85 9b 0c bc ff dc 83 3b 18 0e 17 3b
       -0.0008023841 -0.008582001 0.0040241475 0.0023049172
000010 14 97 f5 ba 24 4e d5 ba 25 45 78 3b 77 64 70 bb
       -0.0018737041 -0.0016273898 0.003788301 -0.0036680975
000020 a1 b9 05 3c 69 0d 11 3c e1 e8 db 3b 42 38 ab 3b
       0.008161933 0.008853295 0.006711111 0.0052252123
000030 95 25 05 ba 63 6a b8 ba 73 e3 f4 3a 65 da 84 3a
       -0.00050791475 -0.0014069792 0.0018683508 0.0010135887
000040 8a 52 e6 bb c0 bb fd bb 98 d8 88 3b c7 7c 22 3b
       -0.0070288824 -0.007743329 0.0041762106 0.0024793611
000050 2f c1 22 3a 8b df 9d bb ee 67 97 3b 15 14 8e bb
       0.0006208596 -0.004817908 0.0046205437 -0.00433589
000060 c0 16 65 3a 3e 50 bb 3b 51 6d 98 3b 1f 2d 8a 3b
       0.0008739047 0.0057163527 0.0046517034 0.0042168046
000070 3f cb 27 3c b7 ae a8 bb 02 bf 50 3b 06 e8 04 3a
       0.010241329 -0.0051477808 0.003185213 0.00050699746
000080 b3 64 c1 bb 7a 7e 69 ba 65 25 79 3a cf b4 bb ba
       -0.005901897 -0.0008907091 0.00095041684 -0.0014320853
000090 4d 19 d1 b9 cd 3b b7 3a 3f 16 c5 bb fd e6 15 bb
       -0.00039882437 0.0013979614 -0.006014615 -0.0022873275
0000a0 5a d4 d0 3a 54 82 ab bb f5 32 81 3b b5 6b c1 3b
       0.0015932426 -0.005234042 0.003942842 0.0059027323
0000b0 f8 83 d5 3b df 53 e5 39 f6 57 87 3b 70 ec d1 3b
       0.006515976 0.00043740773 0.004130359 0.0064063594
0000c0 48 de c1 bb 25 5d b5 39 60 cb 6a bb 73 81 bf 3b
       -0.0059163906 0.00034592408 -0.0035826787 0.005844289
0000d0 79 ee fe b9 1b e2 90 bb 6e 20 be 3a 90 21 22 bc
       -0.0004862433 -0.004421485 0.0014505514 -0.009895697
0000e0 ff 4f 75 3a 9a 8d 83 3a e8 82 41 3b 6b 2e 84 3b
       0.00093579286 0.0010036707 0.002952749 0.0040338538
0000f0 c9 a5 61 bb 64 c0 09 3c bd c3 54 3a 46 dd ec 3b
       -0.003443109 0.008407686 0.00081163255 0.0072285263
000100 7c 54 85 b9 70 97 09 3c 64 70 ce 3a 3f 49 8e 3b
       -0.00025430683 0.008397922 0.0015750048 0.0043422277
000110 ca 9c 22 3a 00 07 e9 3a da 5a 76 3a 33 25 53 ba
       0.0006203173 0.0017778575 0.0009397693 -0.00080545543
000120 48 d7 e8 ba 53 a8 14 bb 23 b1 f1 3b 48 9c 2e 3b
       -0.0017764354 -0.0022683337 0.0073758527 0.0026643444
000130 dd 04 d9 3b da 71 72 3b e9 60 88 ba c8 fc e5 bb
       0.006622894 0.003699413 -0.0010404858 -0.0070186593
000140 49 ed a4 bb 47 29 ac bb 14 a0 8f bb 6a 10 e5 3b
       -0.0050331694 -0.005253944 -0.0043830965 0.006990482
000150 20 24 87 bb d9 8f 2d 39 25 f9 3a bb 68 69 c3 3b
       -0.0041241795 0.00016552153 -0.002852985 0.005963493
000160 4c c2 31 3c 28 0f 0c 3a 84 a3 16 3a 37 46 f6 3b
       0.010849547 0.00053428346 0.00057464116 0.0075156945
000170 ff 43 dd 38 69 fe 9a 3b 63 5f 89 bb 3e b7 68 bb
       0.000105507665 0.004730035 -0.004192279 -0.0035509611
000180 be f3 84 bb ca f8 df 3b 9e ec 99 3b e3 f0 8b bb
       -0.0040573766 0.006835078 0.0046973964 -0.0042706593
000190 2e 90 9a bb cd 83 38 3a fe b2 a0 3b 87 87 0d bc
       -0.0047168946 0.0007038683 0.00490415 -0.008638269
0001a0 95 28 10 3b 46 52 8e ba 7d f2 fc 3b a4 9c 9d bb
       0.0021996845 -0.001085826 0.0077193365 -0.004809933
0001b0 e5 b9 61 3b 94 8f 9a bb 6e ca 11 3c 92 5c c5 bb
       0.0034443077 -0.004716823 0.008898361 -0.006022998
0001c0 e4 e9 c0 3b 9c 24 9b b9 d5 b4 26 3c d7 f4 a9 3b
       0.005887257 -0.0002959118 0.01017495 0.005186658
0001d0 95 93 3f ba 30 6a e5 ba b3 ea 72 3c 4e c1 df 3a
       -0.0007308063 -0.001750296 0.0148264645 0.0017071159
0001e0 72 55 c1 39 f8 b8 15 3a 09 93 b3 bb 8e 28 8f 3b
       0.0003687549 0.00057114614 -0.0054801744 0.004368848
0001f0 ba 39 6b bb 14 ee 08 3b f1 a2 e2 3a 7e 4d fe ba
       -0.0035892562 0.0020893859 0.0017290992 -0.0019401757

arith.constant18 f4 [64]
000000 0c 8f b6 41 29 f4 a2 41 c7 58 60 41 a3 9c 8e 41
       22.819847 20.369219 14.021674 17.826483
000010 4d cf 6a 41 94 05 ce 41 3b 3a a4 41 4f 42 6b 41
       14.675611 25.752724 20.528433 14.703689
000020 af 7c 88 41 c6 25 8b 41 6b 63 63 41 98 fb 6b 41
       17.06088 17.393444 14.211772 14.748924
000030 ea 9d 25 41 d1 57 80 41 4d 94 5f 41 33 e3 97 41
       10.351053 16.04288 13.973706 18.985937
000040 a5 f9 a3 41 bb 43 9c 41 2a 41 95 41 f9 86 8b 41
       20.496897 19.533072 18.656818 17.440905
000050 5e c9 91 41 0b bb 81 41 6f 8b 7c 41 c1 8f 8f 41
       18.223324 16.21633 15.784041 17.945192
000060 05 ad 7f 41 e4 72 8d 41 b5 ae f0 41 8a 01 93 41
       15.979741 17.681099 30.085306 18.375751
000070 00 83 cc 41 63 d6 4d 41 f7 24 62 41 e8 f3 98 41
       25.563965 12.8648405 14.134025 19.119095
000080 9b 18 a2 41 a6 6c 28 41 13 25 b2 41 42 45 02 41
       20.262014 10.5265255 22.268103 8.141909
000090 9d 68 a4 41 18 3e 9c 41 60 3a 91 41 08 b2 6b 41
       20.55108 19.53032 18.153503 14.730965
0000a0 8a 86 72 41 f6 5e d5 41 32 6c 2d 41 21 ed 91 41
       15.157846 26.671368 10.838915 18.240786
0000b0 5f ab 9d 41 ed 7c 74 41 5d 09 b8 41 79 82 8a 41
       19.708677 15.280499 23.004572 17.313707
0000c0 30 12 2f 41 e5 67 59 41 14 35 56 41 b5 61 63 41
       10.94194 13.587865 13.387959 14.211354
0000d0 bc 36 4d 41 ad 9e 84 41 f8 09 af 41 86 ce 31 41
       12.825863 16.577478 21.879868 11.112921
0000e0 4f 44 7f 41 09 ad 91 41 18 f6 67 41 b7 e6 96 41
       15.954177 18.20949 14.4975815 18.862654
0000f0 33 44 87 41 25 fc 70 41 64 e7 79 41 88 17 69 41
       16.9083 15.061559 15.618992 14.568245

arith.constant19 f4 [64]
000000 97 72 33 40 84 22 36 bf a5 7f 22 be 0b 59 44 3e
       2.803869 -0.71146417 -0.15869005 0.19174592
000010 8b af 09 bf 27 be 78 40 ec 99 94 3e e3 e0 24 c0
       -0.5378348 3.886606 0.29023683 -2.576226
000020 b5 0e 84 3e 8f a3 91 3e 23 f5 40 c0 05 bb 29 bf
       0.2579247 0.28445098 -3.014962 -0.66300994
000030 64 88 10 c0 fb 3f 39 3e 99 96 f9 bf ba ae 82 bd
       -2.2583246 0.18090813 -1.9499084 -0.06380983
000040 80 36 86 3e 12 cb cb 3e 0c 5f ff 3e df ab 84 bf
       0.26213455 0.39803368 0.49877203 -1.0364951
000050 f5 15 31 3f 9a 94 ae be f7 87 38 bf ef e2 11 bf
       0.6917413 -0.3409775 -0.72082466 -0.569869
000060 30 97 f0 bf 3b 2c 0d 3f 05 67 98 40 e6 2d 4e 3e
       -1.8796139 0.55145615 4.7625756 0.20134696
000070 ac 3c 6d 40 48 fc ea bf da 4b 97 bf 87 49 59 bf
       3.706828 -1.835824 -1.1820023 -0.8487782
000080 27 88 c2 3f 32 46 5d c0 6b 1b 86 3f 58 5f 0c c0
       1.51978 -3.4574094 1.0477117 -2.1933193
000090 64 8f 3d c0 3c 94 e5 3f 45 a1 ec be e9 29 26 c0
       -2.9618769 1.7935863 -0.4621679 -2.596308
0000a0 f3 1f fd bd ea aa 85 40 68 9a 5d bf 62 d3 03 c0
       -0.123596095 4.1771135 -0.8656373 -2.0597768
0000b0 34 0b 45 3f 1a 1d 22 bf 4d 21 1a 40 a9 55 b6 bf
       0.7697022 -0.63325655 2.4082825 -1.4244891
0000c0 e4 08 69 bf 23 9a 09 3f 77 2b e5 be ca 2d 18 be
       -0.9102919 0.5375082 -0.44759724 -0.14861217
0000d0 cb cf 09 c0 37 57 3b 3f 0a b5 46 40 cd 48 5d c0
       -2.1533077 0.73179954 3.1047997 -3.4575684
0000e0 e2 f2 19 bf 81 58 ba 3f 77 a9 0e bf 44 f0 06 40
       -0.60136235 1.4558259 -0.5572733 2.1084146
0000f0 34 24 3d c0 b8 5b a9 bf 79 b7 d9 be 41 18 75 c0
       -2.9553347 -1.3231115 -0.4252279 -3.8296053

arith.constant20 f4 [1, 1, 256]
000000 b7 f0 75 bc 57 62 9f 3b 9e 0a 78 3b 35 53 2a 3b
       -0.015011004 0.004864018 0.0037848125 0.0025989537
000010 42 5a 61 3b f0 4c bb bb 82 22 cd 3b 5c 56 db 3b
       0.0034386073 -0.005715959 0.006260217 0.0066936444
000020 c4 01 1c 3b 63 b2 47 bc 8c e4 96 3b 87 41 cf bb
       0.0023804763 -0.012188527 0.0046048816 -0.00632495
000030 9d 53 55 3c 71 97 55 3c 1e 34 4f bc 7b 69 d1 38
       0.013020423 0.013036595 -0.012646703 9.985544e-05
000040 7d 1c 79 3c e0 64 52 3b 9c 45 62 3a 32 d1 c6 39
       0.015204546 0.0032103583 0.00086315884 0.00037921366
000050 53 57 08 bc df 67 6b bc 78 76 a3 3a cc 13 34 bc
       -0.008321601 -0.0143680265 0.001247122 -0.010991048
000060 5e 26 c4 bb 03 41 ab 3a 5a 5c 3d bc 3d fa 96 ba
       -0.005986019 0.001306564 -0.011557663 -0.0011518669
000070 45 e4 c2 bb dc d2 a1 ba 46 c5 0e bb 1e 61 58 bb
       -0.005947622 -0.0012346166 -0.0021785065 -0.003301687
000080 94 18 06 3c a5 e1 38 ba 59 9e 95 3b c7 39 14 bb
       0.008184571 -0.00070526666 0.0045659957 -0.0022617446
000090 73 95 6a bb e3 7d 25 bb 80 f4 c1 3b 15 9f 68 bc
       -0.0035794645 -0.0025252036 0.0059190392 -0.014198084
0000a0 1e f0 9c 3b 34 b7 00 ba 1e e4 6c bb c6 7b 8d bb
       0.0047893664 -0.0004910112 -0.003614671 -0.0043177335
0000b0 da 0c 55 bb 9c 88 ee 3b 54 c5 99 bb 1b 05 fd bb
       -0.003250888 0.0072794687 -0.004692713 -0.007721556
0000c0 67 ae ae 3b 93 6d 85 3c 3a 94 13 bc d8 9b 38 3c
       0.005330849 0.0162876 -0.009007508 0.011267625
0000d0 64 d2 53 bc cf 66 4b bb 78 13 d4 3b 59 88 61 bc
       -0.012928579 -0.003103662 0.0064720474 -0.013765418
0000e0 d7 03 f0 39 af 99 2c 3c df aa 71 bb 4e de c3 3a
       0.00045779228 0.010534688 -0.0036875529 0.0014943571
0000f0 62 cc 1c 3b 47 23 c2 3b 8e d6 8e ba a9 f1 e2 3b
       0.0023925533 0.0059246155 -0.0010897683 0.006925781
000100 f4 d5 e3 39 01 f7 74 3b c7 25 b3 3b dd b8 78 3b
       0.00043456221 0.003737867 0.00546715 0.0037951984
000110 74 ba 28 bb 0f 6e 1d 3c 74 0f 1d 3b b6 50 5b bb
       -0.00257459 0.00960876 0.002396551 -0.0033464856
000120 b0 bf 6f bc 48 46 0d 3c 9a 59 1a bc f6 c2 ae bb
       -0.014633104 0.008622713 -0.009420777 -0.0053332997
000130 be cd f7 39 15 01 20 3c a9 0b a8 3a 01 cb 7d 3b
       0.000472648 0.009765883 0.0012820858 0.0038725736
000140 c3 b7 79 3b f4 9e 7b 3c 71 9d fc 3b c4 15 e1 3a
       0.0038103915 0.015357722 0.007709198 0.0017172624
000150 a1 92 e5 3a 6d 61 e9 bb a3 09 f4 3b 22 d3 4c 3c
       0.0017515012 -0.0071222098 0.007447438 0.01250151
000160 61 4c de 3a c6 21 84 3b 40 4d 19 bc f2 b9 d6 3b
       0.0016960019 0.0040323464 -0.009356797 0.006552928
000170 32 f0 05 3c 11 e5 70 3b df 6c 29 3b 22 d9 43 3b
       0.008174943 0.0036757628 0.0025852246 0.002988406
000180 e1 00 2e bb 8c 58 e7 bb a6 af cd ba 3e 0e e6 bb
       -0.0026550817 -0.007060116 -0.0015692606 -0.007020741
000190 a8 d3 bc 3a 88 3c 16 3b b8 6e 5e 3b c2 f7 97 ba
       0.001440634 0.0022924263 0.0033940505 -0.0011594223
0001a0 94 09 99 ba 0c 55 e8 bb ab ed 1e bc c4 06 d1 bb
       -0.0011675828 -0.0070902165 -0.009700219 -0.0063789804
0001b0 f2 6a be bb 8d da 0a 3c 1f 1d c4 bb 50 7e 9e 3a
       -0.0058110887 0.008474958 -0.005984917 0.0012092087
0001c0 61 a8 a7 3b af 82 c1 39 a6 26 a0 bb 27 82 10 bc
       0.005116508 0.00036909195 -0.0048874198 -0.008820093
0001d0 62 5d 91 bb 33 b6 95 3b 8c 94 4d bc 95 3b 86 3b
       -0.004436181 0.004568839 -0.012547623 0.004096458
0001e0 15 2c c6 39 38 da 36 bb 79 9f b9 ba 7b 94 02 3c
       0.00037798347 -0.0027901065 -0.0014161906 0.007969971
0001f0 d7 5e fb b9 6d 9f da ba e9 fe 37 3b f4 56 91 3a
       -0.00047945112 -0.0016679593 0.0028075522 0.0011088536
000200 53 48 54 3c 54 19 16 3b 3e 44 a7 ba 6d 27 2c bc
       0.012956697 0.002290328 -0.0012761427 -0.010507447
000210 db e9 8c bb 0c f0 1d 3c 6f 6d f9 3b 86 9a 69 bb
       -0.0043003387 0.009639751 0.0076119225 -0.0035645082
000220 3e 7b c9 ba 5b 96 99 bc 66 65 b7 3a ac 26 ff bb
       -0.0015371812 -0.018748453 0.0013992011 -0.0077865925
000230 ac 70 84 bb 67 cc db bb 66 08 50 3c c7 43 82 bc
       -0.004041752 -0.0067077163 0.012697315 -0.01590146
000240 09 37 8a bb 3e 4b 06 bc 18 bb b2 bb 6a 90 8a 3c
       -0.0042179865 -0.00819665 -0.005454432 0.016914565
000250 56 5a 91 3b 0f 9d ea 3b b2 17 40 bc c2 8d c1 bb
       0.0044358177 0.007159836 -0.011724399 -0.0059067914
000260 44 5a 06 bc 25 67 b1 bc d4 95 88 bb e5 ac 7c 3c
       -0.008200232 -0.021655628 -0.0041682515 0.015422081
000270 a6 e7 1f 3c 8d 2f 33 3c 08 35 1a 3b 6f 6e 1b 3b
       0.009759819 0.01093663 0.0023530144 0.0023716947
000280 58 2b 32 3b cb 8f 98 bb ef 64 06 bc 2c 54 9f bc
       0.002718648 -0.0046558133 -0.008202775 -0.019449316
000290 26 d5 95 bb 4f 9b 55 bc 1f a1 4b bb 18 50 81 bc
       -0.0045725284 -0.013037517 -0.0031071377 -0.015785262
0002a0 7f 39 35 bc 70 d9 97 3a 97 7e 0a bc fa 3e 59 3b
       -0.011061071 0.0011585187 -0.008453033 0.003314911
0002b0 31 6e 6b bc 84 6d 2e bc ce 15 83 b9 eb fc c5 bb
       -0.014369533 -0.010646228 -0.00025002513 -0.006042113
0002c0 76 58 16 bc 1d 39 ff bb 1d 55 ae 3b e8 af a5 3b
       -0.009176364 -0.007788791 0.005320205 0.00505637
0002d0 de 40 9b 3b d8 5f 9f b9 8e 44 97 bb 3c 0e 28 3c
       0.0047379574 -0.00030398252 -0.0046163267 0.0102573
0002e0 ef 7b 8b 3c ee 06 84 39 12 8e 4a bb 76 de 5c 3a
       0.01702687 0.00025182165 -0.0030907434 0.0008425483
0002f0 db f6 e3 bb 3a 5f 26 3c 6c e5 f4 3b a4 50 18 3a
       -0.0069569177 0.01015454 0.0074736383 0.0005810356
000300 86 70 b0 3b e1 d7 15 bc f9 52 fd bb 0b ae 2c 3c
       0.0053845076 -0.009145708 -0.0077308384 0.010539542
000310 9a 93 28 bc da 41 a1 bb b0 46 df bb b6 38 07 3c
       -0.010289097 -0.00492118 -0.0068138465 0.008253267
000320 2e 81 89 3b f5 2b 1f ba f3 a8 67 3a e0 05 be 38
       0.0041963076 -0.0006071919 0.0008837126 9.061e-05
000330 d2 6e c3 3b be 2b 01 bc 9e 7f a5 3a 28 df 02 ba
       0.0059641385 -0.007883964 0.0012626534 -0.00049923593
000340 ab 10 77 bb ea 09 10 b9 5e 0b 52 3c f0 90 25 3c
       -0.0037699144 -0.00013736603 0.012820093 0.010105357
000350 50 02 28 bc ee 44 7b bb 5a a9 be 3b 32 5d e3 3a
       -0.010254458 -0.0038340646 0.005818528 0.00173465
000360 7c 8c a8 ba 1b 55 17 3b 2c f0 de 3b c2 2c 0d 3c
       -0.001285925 0.0023091498 0.006803533 0.008616628
000370 82 9f 08 bc 98 26 03 3c e0 58 2c bb 2b 6c ea 3b
       -0.008338811 0.008004807 -0.002629809 0.007154008
000380 34 e1 47 38 c9 16 3f bc 78 ac ce 3b 47 d0 5f bb
       4.7655034e-05 -0.011663147 0.006307181 -0.0034151243
000390 c6 7d 95 3a 42 34 17 ba fa 96 47 3c 84 14 93 bb
       0.0011405281 -0.000576798 0.012181992 -0.0044885296
0003a0 36 03 a6 bb 79 ab 3d 3b ae 54 b9 3a 3f a8 8d ba
       -0.0050663007 0.0028941317 0.0014139616 -0.0010807588
0003b0 f3 2a 7c 3b 61 7f 27 bc 0a 35 15 3c 70 94 f7 3a
       0.0038477748 -0.010223241 0.009106884 0.0018888842
0003c0 c2 29 80 3c c3 5e 25 3c 7a a0 ee bb 51 e3 58 bb
       0.015644912 0.010093394 -0.007282314 -0.0033094476
0003d0 25 2e c1 ba 4b 41 e5 bb fd a4 2c bc dd 6b 33 bc
       -0.0014738484 -0.006996309 -0.010537383 -0.01095101
0003e0 cf f9 87 3b 9d b2 17 3b cf fd e1 bb 14 e6 95 ba
       0.0041496526 0.0023147233 -0.0068967114 -0.0011436366
0003f0 0a e3 42 3c 66 ec 9b bc 2e a1 02 bc 27 de ee 3a
       0.011894951 -0.019033622 -0.007972999 0.0018224166

arith.constant21 f4 [1, 1, 256]
000000 3b f5 83 3f 64 67 82 3f 97 3c 85 3f 7c 94 84 3f
       1.0309213 1.0187802 1.0409116 1.0357814
000010 d3 b1 81 3f 74 f2 83 3f 17 98 82 3f e9 43 87 3f
       1.0132393 1.0308366 1.0202664 1.05676
000020 e1 ee 83 3f c9 fc 80 3f 6a e9 84 3f 2a 20 84 3f
       1.0307275 1.0077144 1.0383732 1.0322316
000030 a5 37 85 3f 07 96 87 3f 84 c3 82 3f f6 fb 83 3f
       1.0407606 1.059266 1.0215917 1.0311267
000040 85 e4 84 3f df 94 82 3f 7a 61 86 3f ee 6b 85 3f
       1.0382239 1.0201682 1.0498497 1.0423563
000050 b2 04 86 3f 99 08 82 3f 3b 5e 85 3f 43 64 84 3f
       1.0470183 1.0158874 1.0419382 1.0343097
000060 19 5f 86 3f 9e 64 82 3f 4f 75 8a 3f 21 3c 85 3f
       1.0497772 1.0186956 1.081705 1.0408975
000070 cc 72 83 3f 2b e5 86 3f db f9 83 3f 57 b9 82 3f
       1.0269408 1.0538687 1.0310625 1.0212811
000080 8d 78 84 3f d6 0b 82 3f 3c cb 84 3f c4 8c 85 3f
       1.0349289 1.0159862 1.0374522 1.0433583
000090 15 da 86 3f 33 22 8a 3f 50 1f 85 3f d3 5d 83 3f
       1.0535303 1.0791687 1.0400181 1.0263008
0000a0 07 a1 82 3f 40 e6 81 3f e1 83 84 3f 51 98 85 3f
       1.0205392 1.0148392 1.0352746 1.0437108
0000b0 de ca 83 3f 04 56 84 3f d1 24 85 3f cb 10 84 3f
       1.0296285 1.033875 1.040186 1.0317625
0000c0 ed 60 81 3f 46 0a 85 3f 66 d7 81 3f 62 67 85 3f
       1.0107704 1.039376 1.0143859 1.0422175
0000d0 f5 0f 87 3f ac 76 85 3f bf 58 86 3f 42 a7 89 3f
       1.0551745 1.0426841 1.0495833 1.0754168
0000e0 2d bb 82 3f ae 6a 83 3f 40 17 85 3f bc c1 85 3f
       1.0213372 1.0266931 1.039772 1.0449748
0000f0 64 fe 82 3f fe 51 85 3f 54 6d 85 3f 70 d3 83 3f
       1.0233884 1.0415647 1.0423989 1.0298901
000100 66 67 81 3f b5 98 86 3f fb 78 85 3f 45 1a 82 3f
       1.010968 1.0515352 1.0427545 1.0164267
000110 ad 6f 86 3f 0b e4 82 3f 48 d4 85 3f 6c 05 86 3f
       1.0502831 1.0225843 1.0455408 1.0470405
000120 60 35 82 3f ae e1 82 3f 2b 78 82 3f 36 71 84 3f
       1.0172539 1.0225122 1.0192922 1.0347049
000130 f2 3c 83 3f d8 50 86 3f 33 b6 84 3f 48 39 86 3f
       1.0252974 1.0493422 1.0368103 1.0486231
000140 aa f1 85 3f 74 2a 84 3f 72 25 84 3f bc f1 85 3f
       1.0464375 1.0325456 1.0323927 1.0464396
000150 78 74 84 3f c1 7d 85 3f 65 8f 84 3f 75 37 86 3f
       1.0348043 1.0429002 1.035626 1.0485674
000160 3d 12 88 3f f0 f7 83 3f a9 c2 86 3f 49 ed 82 3f
       1.0630566 1.031004 1.0528156 1.0228664
000170 6d 61 85 3f 1c 32 83 3f 47 d5 83 3f 3d a2 83 3f
       1.0420357 1.0249667 1.0299462 1.0283886
000180 02 c0 83 3f 7f 4d 82 3f 29 a9 82 3f 4d 6d 85 3f
       1.0292971 1.01799 1.0207874 1.0423981
000190 f1 57 84 3f e0 82 85 3f 8c c8 85 3f 1a 9f 85 3f
       1.0339338 1.0430565 1.0451827 1.0439179
0001a0 a1 7c 83 3f 31 cb 83 3f 12 6c 86 3f 84 51 87 3f
       1.0272409 1.0296384 1.050173 1.0571752
0001b0 50 b2 85 3f ef 61 84 3f 76 04 86 3f ca ba 86 3f
       1.0445042 1.0342387 1.0470111 1.0525753
0001c0 1a 0d 84 3f 96 4d 88 3f 9f 3b 86 3f be 47 87 3f
       1.0316498 1.0648677 1.0486945 1.0568769
0001d0 d7 34 85 3f 5c aa 86 3f 95 49 83 3f 68 cd 85 3f
       1.040675 1.052074 1.025683 1.045331
0001e0 d3 e9 82 3f ff 7a 82 3f c7 2e 84 3f c4 4c 84 3f
       1.0227607 1.0193785 1.0326775 1.0335927
0001f0 cd 0c 89 3f 0b 3d 85 3f 67 45 83 3f 90 51 82 3f
       1.0707031 1.0409254 1.0255555 1.0181141
000200 75 fd 83 3f 73 45 83 3f e4 04 87 3f 25 af 86 3f
       1.0311724 1.0255569 1.0548368 1.05222
000210 b8 d6 85 3f 13 76 85 3f a8 b7 82 3f 5b 73 83 3f
       1.0456152 1.0426658 1.0212297 1.0269579
000220 64 d4 85 3f 3d 77 87 3f 49 5d 86 3f a7 81 86 3f
       1.0455441 1.0583264 1.0497218 1.0508317
000230 a2 38 86 3f 47 2f 83 3f 0a bf 83 3f 58 93 85 3f
       1.0486033 1.0248803 1.0292675 1.0435591
000240 d6 37 83 3f 7b c3 85 3f f1 d9 83 3f 88 28 87 3f
       1.0251415 1.0450281 1.0300885 1.0559244
000250 ed ad 83 3f 81 81 83 3f bf 0a 83 3f 61 56 87 3f
       1.0287453 1.0273896 1.0237654 1.0573236
000260 47 51 87 3f d1 46 85 3f 45 d8 84 3f 44 71 82 3f
       1.0571679 1.0412236 1.03785 1.0190816
000270 2f 8f 86 3f a0 08 82 3f 00 45 87 3f 5b b2 87 3f
       1.0512446 1.0158882 1.0567932 1.0601305
000280 66 2c 84 3f 68 51 85 3f c7 14 84 3f b9 7d 85 3f
       1.0326049 1.0415468 1.0318841 1.0428993
000290 be 57 83 3f 30 e5 81 3f 76 10 8a 3f be 40 85 3f
       1.0261152 1.0148067 1.0786273 1.0410383
0002a0 f8 be 85 3f f3 49 82 3f d9 81 87 3f 21 b7 84 3f
       1.0448904 1.0178818 1.0586501 1.0368387
0002b0 2c be 83 3f b6 b1 81 3f c5 bd 83 3f 0a 07 84 3f
       1.0292411 1.0132358 1.0292288 1.0314648
0002c0 9f 34 86 3f d9 67 83 3f 8c d3 82 3f c9 e1 88 3f
       1.0484809 1.0266067 1.0220809 1.0693904
0002d0 79 ba 83 3f 70 f0 84 3f 95 e2 83 3f a4 22 84 3f
       1.0291282 1.0385876 1.0303522 1.0323071
0002e0 8c f2 84 3f 2c 75 83 3f 97 cb 82 3f 2a b9 83 3f
       1.038652 1.0270133 1.0218381 1.0290883
0002f0 68 b8 85 3f 10 0b 85 3f 29 7b 84 3f 79 d1 84 3f
       1.0446901 1.0394001 1.0350085 1.0376426
000300 4b e9 88 3f 6a e1 83 3f 93 1f 82 3f ad 36 86 3f
       1.0696195 1.0303166 1.0165886 1.0485436
000310 4a 15 85 3f 50 cc 87 3f 5d 6c 85 3f 1f e9 85 3f
       1.0397122 1.0609226 1.0423695 1.0461768
000320 95 ca 82 3f ff 9b 85 3f a3 df 86 3f f9 94 82 3f
       1.0218073 1.0438231 1.0536999 1.0201713
000330 2a 01 83 3f 2d b4 84 3f 67 7c 86 3f db 7e 87 3f
       1.023473 1.0367485 1.0506715 1.0585588
000340 62 58 84 3f 53 32 84 3f 58 4a 84 3f 35 af 81 3f
       1.0339472 1.0327858 1.0335188 1.0131594
000350 b4 ac 84 3f 08 db 85 3f 88 7c 86 3f f1 e8 84 3f
       1.0365205 1.0457468 1.0506754 1.0383588
000360 ac 1a 83 3f 40 3b 82 3f e9 48 81 3f 85 77 84 3f
       1.0242515 1.0174332 1.0100375 1.0348974
000370 30 ba 82 3f 8f be 84 3f 0b 6b 84 3f e3 bd 85 3f
       1.021307 1.0370654 1.0345167 1.0448574
000380 fc a3 85 3f 23 58 84 3f ea 4e 86 3f 34 aa 84 3f
       1.0440669 1.0339397 1.0492833 1.0364442
000390 bd fd 84 3f ec 56 82 3f 83 a3 86 3f d6 b9 82 3f
       1.0389935 1.0182776 1.051865 1.0212963
0003a0 1f bc 84 3f 09 6f 81 3f af 49 85 3f a2 58 83 3f
       1.036991 1.011201 1.0413111 1.0261424
0003b0 45 b8 84 3f 84 f9 81 3f 54 2f 82 3f ca 76 84 3f
       1.0368735 1.0154271 1.0170693 1.0348752
0003c0 b1 c6 83 3f 72 1d 81 3f 8d 43 84 3f 7f bc 80 3f
       1.0295011 1.0087111 1.0333115 1.0057524
0003d0 8f 27 8a 3f d0 4b 8a 3f 24 a6 82 3f b3 e1 81 3f
       1.0793322 1.0804386 1.0206952 1.0147003
0003e0 16 fd 84 3f 72 2f 83 3f 0d 6e 81 3f e0 6a 81 3f
       1.0389736 1.0248854 1.011171 1.0110741
0003f0 7f 26 88 3f 16 c5 84 3f 79 0d 83 3f b2 f2 81 3f
       1.0636748 1.0372646 1.0238487 1.015219

arith.constant26 f4 [64]
000000 0b 97 b8 ba 31 b7 dd 3c 17 fb 10 3c 0b 62 20 3c
       -0.00140831 0.027064892 0.008848927 0.009789
000010 73 c9 76 3c 7f e5 30 3b 21 5e 33 3c e7 03 89 3c
       0.015062678 0.002699226 0.010947735 0.016725494
000020 e0 a1 c4 3c 51 bd 73 3c 01 4d 4b 3d b3 f7 4e 3c
       0.02400297 0.0148766795 0.049633984 0.012632298
000030 f1 3e 74 3c df 2c 02 3c 9a e1 de 3c 45 37 24 3c
       0.0149075845 0.007945268 0.027207185 0.010022943
000040 aa e1 7e 3c 7d 09 3b 3c 39 08 f2 ba df f0 09 3d
       0.015556732 0.011415836 -0.0018465585 0.03367698
000050 c5 a1 42 3c d2 90 7a 3c 8e 0f f8 3c 1d 83 51 3b
       0.011879389 0.015293317 0.030280855 0.0031969019
000060 68 1a 06 3d 90 83 3c 3c 3e 8c 63 3b d1 15 83 3c
       0.032740027 0.011505976 0.0034721042 0.016001614
000070 b9 80 77 bb 0f b7 a4 3c ba 13 b5 3c 58 f8 9f 3c
       -0.0037765934 0.02010682 0.022104133 0.0195276
000080 5a 1f c7 3a c3 66 d8 b9 1c fa 67 bb bf 4d 5c 3b
       0.0015191839 -0.00041275294 -0.003539688 0.0033615676
000090 97 f7 5b 3d c9 b6 ab b9 04 d0 2e 3c 8e ff 8f 3c
       0.053702917 -0.00032751847 0.010669712 0.017577913
0000a0 1a eb 22 3c 32 5a d5 bb 2b 56 71 3c 5a 6e e8 3c
       0.009943748 -0.0065109963 0.014730017 0.028372932
0000b0 f0 da 85 3c df 0c 05 bb 07 89 84 3b 10 42 df 3c
       0.01633975 -0.0020301861 0.0040446552 0.02725318
0000c0 b4 8e 19 3b dd c3 0a bd d1 9c 66 bb e8 f2 ad 39
       0.0023431005 -0.033878196 -0.0035188685 0.0003317811
0000d0 08 4d fd 3c ec 05 7d 3c 9d 4b 0c bb 27 60 4d 3c
       0.03092052 0.015443306 -0.0021407374 0.012535132
0000e0 85 d5 30 3d 83 1a 7e ba 3f 50 b0 3c ad dd d7 bb
       0.043172378 -0.00096932816 0.02152264 -0.006587705
0000f0 b8 60 1e 3d f0 44 18 3d 39 f8 02 3d af 65 c3 3c
       0.038666457 0.03717512 0.031975005 0.023852197

arith.constant27 f4 [15]
000000 40 28 01 bc 2f 78 19 3c 1b 4c 92 3a 1a d0 61 bc
       -0.0078831315 0.009367033 0.0011161597 -0.013782525
000010 fd 2e 57 bb b7 50 7b bc 1d 83 46 bb 16 ef 08 bc
       -0.0032834404 -0.015339068 -0.0030290552 -0.008357784
000020 37 93 40 3b 2e 53 d3 3b 29 17 7d 3b 79 d6 5a 3b
       0.0029384622 0.006449125 0.003861854 0.0033391996
000030 fd 7a a8 bb 1b 2c c7 3b 6a 5f b9 3a
       -0.0051416145 0.006078256 0.0014142815

arith.constant28 f4 [256]
000000 d3 89 16 3c c7 5c 30 3c 88 b2 0a 3c f3 3d 39 3c
       0.009188133 0.010764307 0.008465417 0.011306274
000010 a4 06 ba bb 56 f2 60 3c d5 4d c0 3b 62 f1 05 3b
       -0.005677061 0.013729652 0.0058686533 0.0020438065
000020 aa 28 6f 3b 01 ba 15 3c 34 09 36 3c 05 77 3d 3c
       0.0036492744 0.009138585 0.011110593 0.011564021
000030 b5 2a a0 3c aa 46 41 bb 93 2f 2b bc df 36 c1 3b
       0.019551614 -0.0029491582 -0.010448354 0.0058964337
000040 87 00 bb 3c 33 97 ab 3c 01 29 d7 3b 75 c9 bc 3b
       0.0228274 0.02094612 0.0065661673 0.0057613202
000050 3e 06 0e 3c 75 ca c3 3c d4 8d 10 3c bd 6a 27 3b
       0.00866848 0.02390025 0.008822877 0.0025545799
000060 21 e2 9c 3c 61 d9 a0 3c 58 04 e9 3c c9 3b 89 3a
       0.019150795 0.019634904 0.028444454 0.0010470088
000070 cb bd eb 3c 35 a5 4b 3c 13 23 75 3c 3e e7 29 3c
       0.028777024 0.012429525 0.014961976 0.010370074
000080 2c 49 82 3c c8 8b b8 ba 23 2a 14 3b fd 9c db 3b
       0.015904032 -0.0014079744 0.0022608123 0.006702064
000090 6a 5b b9 b9 ae 67 3f 3b a2 5e 1d 3c 7e 26 91 3c
       -0.00035354058 0.0029206085 0.009605082 0.01771855
0000a0 6e db 25 bb 07 d0 b8 3b d2 7a 7f 3b cb 13 08 3c
       -0.0025307792 0.005640033 0.0038983119 0.0083055
0000b0 d1 15 16 3c 9e 2d 85 3c 56 3d 0c 3c 23 7d f0 3b
       0.009160475 0.016257104 0.0085595455 0.007339136
0000c0 5a 95 4b 3c cb fa 29 3c 12 1b 93 3c 40 38 1f bb
       0.012425745 0.010374735 0.017957244 -0.0024295002
0000d0 4e f4 9b 3c b5 58 2e 3c 9a 18 be 3b 7f 50 5e 3b
       0.019037392 0.010641267 0.0058012726 0.003392249
0000e0 1b 6a a3 3b 9f de d3 38 c1 2b 21 3c 12 2b 73 bb
       0.004987014 0.000101027304 0.009837092 -0.003710453
0000f0 e8 80 4f 3c 56 82 c2 ba 83 da fd 3b df cd f8 ba
       0.012665011 -0.0014839869 0.007746996 -0.0018982253
000100 d2 ae 02 3c 52 ff e9 3a 01 f9 03 3c 83 86 f6 3b
       0.007976251 0.0017852581 0.008054973 0.0075233593
000110 cd c2 eb ba f2 2e 82 3c fc ac ab bb 0f 92 64 3c
       -0.0017987132 0.015891526 -0.005239127 0.013950839
000120 39 c0 61 3a 80 49 1d 3c f4 99 10 3c 76 c2 bc 3c
       0.0008611712 0.009600043 0.008825768 0.023041945
000130 08 38 f8 3b 98 c0 73 3c d3 1f 66 3c 6c f0 50 3c
       0.007575039 0.014877461 0.014045673 0.012752634
000140 b2 db 1c 3b 01 b7 a4 3b 0a 76 37 3c 5c 01 20 bb
       0.002393466 0.0050266986 0.011197576 -0.0024414873
000150 4b 9f 8f 3c 9f 43 8c 3b 94 3c 91 3b d9 4f 91 3c
       0.017532011 0.004280522 0.0044322703 0.01773827
000160 3f 97 42 3c 2a 87 91 3c 60 28 31 3c 38 38 c8 3b
       0.01187688 0.017764647 0.010812849 0.0061102174
000170 ed 26 53 3c 43 4c b3 3a 03 4d 8f 39 d7 5c 78 ba
       0.012887699 0.0013679344 0.00027332464 -0.00094742834
000180 d9 ab 2b 3c 60 6a 0b 3c f7 7f d1 3b 86 e1 9a 3a
       0.010477983 0.0085092485 0.0063934284 0.0011816479
000190 26 0a 4a 3a f8 3d f1 3b c1 fe 25 ba ef 40 13 3b
       0.0007707201 0.0073621236 -0.0006332212 0.0022469123
0001a0 d7 28 7a 3b d0 8f f7 3b 28 ac 3c 3c 48 dd 43 3c
       0.0038171315 0.0075549856 0.011515655 0.011954613
0001b0 eb 6a 5a 3c 88 64 81 3c 4c 8b bc 3b 8f 72 68 3b
       0.013331155 0.015795007 0.00575391 0.0035468673
0001c0 30 39 08 3b 64 d0 94 3c 2d e7 90 3b 38 ff 0f 3b
       0.002078604 0.018165775 0.0044220896 0.002197219
0001d0 80 97 19 bc f2 b8 34 3c d8 ce 04 bc 1d 1e fb 3b
       -0.009374499 0.0110304225 -0.008105956 0.007663502
0001e0 49 9a ed 3c 90 5a e1 3b 1d 72 1f 3c d8 14 01 3c
       0.029004233 0.006877251 0.009731797 0.007878505
0001f0 8f 7f 80 3c 51 3c 9f 3c e4 00 27 3c 80 0b e0 3a
       0.015685825 0.01943794 0.010193083 0.0017093271
000200 e8 31 48 3c b4 4c 1d 3c 2f a4 1b 3c ae fa ae bb
       0.01221893 0.009600807 0.009499594 -0.005339942
000210 99 00 3e 3c dc ba 18 bb b3 e0 4e bb 53 45 92 3b
       0.011596822 -0.0023304736 -0.0031567037 0.0044638305
000220 9b 6f a8 3b 92 6e 80 3c b1 4f a5 3c 4b 9b dc 3b
       0.0051402575 0.015677724 0.020179601 0.0067323796
000230 7e c1 b2 3b 77 d9 e1 bb 4a b1 48 3c 62 4f c2 b9
       0.005455195 -0.006892379 0.0122493 -0.00037061708
000240 e5 41 14 3c 7c 8f 36 3b da 7b 1d 3c 0e 4f c6 39
       0.009048914 0.002785652 0.009612048 0.00037824403
000250 d1 9e e0 bb 78 0f 3d bb 4c f8 38 3b 42 f0 1e 3b
       -0.00685487 -0.0028848331 0.0028224168 0.0024252092
000260 59 a1 5e 3c 41 c3 5d 3c f4 0d 31 3c 07 a6 68 3c
       0.013588273 0.013535322 0.010806549 0.01419974
000270 68 13 db ba e3 8f ee 3b 43 14 df 3b ef f7 3e 3c
       -0.0016714158 0.007280336 0.0068078353 0.011655792
000280 6e 62 ed b9 b1 56 24 b9 e2 cb dc 3c 0c c1 41 3c
       -0.00045277498 -0.00015672554 0.026952688 0.011825811
000290 48 33 91 3c 1b 40 a0 3b 85 9f ef 3b d6 1d ed 3b
       0.017724648 0.0048904545 0.0073127174 0.0072362227
0002a0 f0 9a 6f 3b 30 ea ab 3c fe c5 86 39 6c c0 cd 3b
       0.0036560856 0.020985693 0.00025705987 0.006279042
0002b0 9c e8 c3 ba e2 94 84 3c 15 96 f2 3b 38 f2 51 3c
       -0.0014946642 0.016184274 0.007403145 0.012814097
0002c0 d9 b3 df bb 23 c5 2e 3a 86 8b 3c 3c a7 3c c8 3c
       -0.0068268594 0.0006666949 0.011507874 0.024442984
0002d0 19 da 8f 3c 34 4a 0b 3b a0 6a 71 3c c1 f8 6b 3c
       0.017560052 0.0021253945 0.014734894 0.014402569
0002e0 a7 e2 7a 3c c9 ac 3e bc 0d b1 02 3c 66 99 b2 bb
       0.015312827 -0.011637875 0.0079767825 -0.0054504154
0002f0 ec 88 a9 3b 4f 7f 58 3c 5e 3d 10 3c 65 40 12 3c
       0.005173793 0.0132139465 0.008803694 0.008926486
000300 cb 7c c1 3a df 08 88 3c a7 c9 07 3c fe 6c 19 3c
       0.0014761923 0.016605793 0.008287824 0.009364365
000310 1b 88 35 3c a3 0a 6d 3b 76 0b e0 3b d0 d3 0c 3c
       0.011079813 0.003616967 0.0068373038 0.008595422
000320 cb 7a 21 3b c1 1e fa 3c a3 c2 0f bb b0 8a 2f bb
       0.002463984 0.030532243 -0.002193608 -0.0026785545
000330 2a b4 7d 3c 95 3d 06 3b 4e 88 a5 3c b6 50 14 3c
       0.015484849 0.0020483483 0.020206597 0.009052446
000340 95 fd 57 3c 9e 1a e4 3a 28 f5 97 3c b8 1e d7 ba
       0.013183017 0.0017402952 0.018549517 -0.0016412353
000350 0d cc 80 3b 3b 72 7d 3c 11 d6 68 3b e7 c1 1b bb
       0.0039305747 0.015469129 0.0035527984 -0.0023766698
000360 84 e6 4b 3c 68 6f 28 3b 91 5a d4 3c a6 f7 07 3b
       0.012445096 0.002570117 0.025922092 0.0020746975
000370 e1 44 66 3b 10 52 40 3c 2b f0 18 3c 12 0f df 3b
       0.003513627 0.011738315 0.009334604 0.0068072164
000380 76 e4 4a 3c 74 d7 35 bc 83 f7 44 3b 71 8f d8 3b
       0.012383571 -0.011098731 0.0030054755 0.0066088964
000390 d9 79 9e 3b d6 d2 53 3b 71 44 85 3c ef a7 8b 3b
       0.0048363027 0.0032321713 0.016267987 0.0042619626
0003a0 35 24 05 3b 66 31 aa 3b 4b 9a 4b 3c 1e a5 82 3b
       0.002031577 0.005193877 0.012426923 0.0039869687
0003b0 5a eb 8b 3c 7f c0 f1 3b 39 a7 30 3a c3 02 01 3c
       0.017079998 0.0073776837 0.00067387853 0.007874194
0003c0 b9 6a 6e 3c 62 2c 3b 3b 1c 1d 0f 3c a1 34 2f 3c
       0.014551812 0.002856039 0.008734968 0.0106937
0003d0 35 4a 0f 3b 26 a1 61 3a c3 59 ed 3b cf 56 8e 3c
       0.00218643 0.0008607082 0.0072433664 0.017375378
0003e0 5c a4 97 3b 0b 49 87 b6 7d 59 70 bb a8 d0 75 3c
       0.0046277475 -4.031817e-06 -0.0036674433 0.015003361
0003f0 2e ae 1c 3c 76 b4 2b 3c 45 cb 37 bc 04 97 93 3a
       0.009563012 0.010480037 -0.011217897 0.0011260216

arith.constant29 f4 [256]
000000 34 4f 69 bb a4 5b 24 b8 99 c2 33 3b 46 86 7b ba
       -0.0035600187 -3.9185994e-05 0.0027429222 -0.00095948984
000010 78 56 ef 39 f1 40 e8 bb 0b 60 72 3b 3f c2 0d 3c
       0.00045650057 -0.0070878197 0.0036983516 0.008652269
000020 ff 3a 77 ba f4 1c cf bb d7 40 a9 3b ed 6b a3 bb
       -0.00094310933 -0.00632059 0.0051652 -0.004987231
000030 64 0d de 3b 7c 98 29 3c af 15 96 bb 27 bc 96 ba
       0.0067764986 0.0103512965 -0.0045802216 -0.0011500166
000040 49 e4 03 3c 50 63 11 3b ef a5 93 39 12 0b 6e ba
       0.008050033 0.002218444 0.00028161655 -0.0009080629
000050 4a 73 19 bb c6 ee fc bb 70 79 01 3b f5 e8 72 ba
       -0.0023414665 -0.0077188937 0.001975622 -0.00092662807
000060 40 7f 8b bb e1 ef 73 bb 7d cd 9b bb f5 b4 03 3a
       -0.0042571127 -0.0037221836 -0.0047547207 0.0005024218
000070 52 01 f3 ba da 4a 92 ba 8a 23 d6 b9 ed c0 0e bb
       -0.0018539822 -0.0011161224 -0.0004084374 -0.0021782473
000080 ff b3 cf 3b 34 f7 15 ba 04 e5 64 3b 56 e6 d1 ba
       0.006338596 -0.0005720735 0.0034926543 -0.001601408
000090 e5 10 8f bb b2 4f e9 bb 80 ee 55 3b 5e 9b aa bb
       -0.0043660277 -0.007120096 0.0032643378 -0.0052065095
0000a0 fd 2e 29 3b fa 03 45 ba 85 a1 33 bb 4c b1 61 ba
       0.002581536 -0.0007515546 -0.0027409506 -0.0008609488
0000b0 7c 28 99 ba 16 ed 2d bb 4b 8b a9 bb d4 1b 1b bb
       -0.0011685039 -0.002653902 -0.0051740757 -0.002366771
0000c0 74 48 f4 3b 2f 20 f2 3b 16 33 90 bb e7 13 0c 3c
       0.007454926 0.0073890905 -0.004400621 0.008549667
0000d0 b8 c6 00 bc 51 da c0 3a 0b 63 57 b9 e9 80 6b b8
       -0.007859878 0.0014713501 -0.00020540894 -5.6148423e-05
0000e0 a7 24 ee ba c1 10 f2 3b cb 69 4e bb ca 91 ec 3b
       -0.0018168882 0.007387251 -0.0031496163 0.007219528
0000f0 71 5a c3 39 94 d4 6c 3b a6 e3 91 ba 30 4b a3 3b
       0.00037260682 0.0036137449 -0.0011130467 0.0049833283
000100 a8 f7 13 ba 6a d2 48 39 ce 1f 40 3a 82 6b 02 3a
       -0.00056445086 0.00019151872 0.0007328958 0.00049751264
000110 ff 63 29 3a 7d 0d 2f 3b 44 2b b8 3b ea ef bc bb
       0.0006461739 0.002671092 0.005620392 -0.0057659047
000120 e5 94 d7 bb 5c 3d 88 3b 72 53 03 bb cb 56 f1 ba
       -0.006579029 0.004157705 -0.002003875 -0.0018412707
000130 ec ec 45 3b 07 37 d2 3a bb 31 1c ba 5a 13 8b 3b
       0.003020103 0.0016038128 -0.0005958338 0.0042442502
000140 7c 72 a8 3a ee ac 04 3c 5c 31 d8 3b bc 6c 76 39
       0.0012851502 0.00809787 0.006597681 0.00023500895
000150 ff 2c 1e bb 0f 4f c9 bb 89 96 8a 3b 36 5b f1 3b
       -0.0024135706 -0.0061434577 0.004229371 0.0073656095
000160 6a b9 3b ba 42 3f c6 3a 6c 2a 01 bc 0d 73 2d ba
       -0.0007161113 0.0015125053 -0.007883649 -0.000661657
000170 07 16 ad 3b 22 be e4 3b ba a6 a9 3b 2f 76 3c 3b
       0.005282167 0.0069806734 0.005177346 0.0028756966
000180 86 e3 7b ba 53 b0 bd bb e9 f0 30 b9 ac 2c 3d ba
       -0.0009608794 -0.0057888418 -0.00016874414 -0.00072164345
000190 e3 b2 4e ba 56 46 fd 3a 2d 16 80 3b eb dc 8e 3a
       -0.00078849326 0.001932333 0.0039088936 0.0010899579
0001a0 1e b5 3d ba bf 1b 56 bb db 93 d9 bb f0 e4 b2 b9
       -0.00072367664 -0.0032670347 -0.00663994 -0.00034121377
0001b0 93 dc ca bb da 09 c8 3b 66 f6 e2 3a 77 e0 13 3b
       -0.0061908453 0.00610469 0.0017315864 0.0022564211
0001c0 7e 8f 52 3b 9e 6d 2d ba 1d 29 53 bb 04 43 03 bb
       0.0032128985 -0.00066157605 -0.003222055 -0.0020028958
0001d0 f2 b3 d6 bb dd 09 3c 3a d9 30 be bb 45 0b 51 3a
       -0.006552213 0.00071731006 -0.005804163 0.00079743966
0001e0 cf 7d 7e ba 46 41 c8 ba 42 9b 31 bb aa be 05 3b
       -0.0009708078 -0.0015278242 -0.0027100598 0.0020407834
0001f0 3d 55 a0 3b a6 56 13 bb d1 39 87 b9 f7 bd 33 3a
       0.0048929737 -0.0022482066 -0.00025792283 0.0006856615
000200 af 99 e5 3b 89 e6 87 3a 7c 69 6b bb 54 91 11 bb
       0.007006846 0.0010368387 -0.0035921028 -0.0022211866
000210 6e 34 db ba 01 e3 a7 3b 9a 98 9c 3b 93 ce 10 3a
       -0.0016723999 0.0051234965 0.0047789337 0.0005523946
000220 23 7e d5 ba c2 3b 2f bc f7 62 11 3b e5 c5 9a ba
       -0.0016288202 -0.0106954 0.0022184232 -0.0011808245
000230 e8 fc 4c bb 32 29 da 3a 12 d3 05 3c 2d 9f 10 bc
       -0.0031278674 0.0016644357 0.008167999 -0.008827013
000240 84 0b 9d bb cf 2f b2 bb 31 06 84 ba 03 e7 eb 3b
       -0.0047926325 -0.005437828 -0.0010072646 0.0071991696
000250 01 9f a7 3b 53 f4 ea 3b a5 f9 cf bb 5e 51 86 bb
       0.0051153903 0.007170239 -0.0063468986 -0.004099055
000260 c7 04 3f bb 01 c7 1d bc d1 f7 67 bb e8 be e0 3b
       -0.0029147135 -0.009629966 -0.0035395513 0.0068586953
000270 67 b0 7b 3b 80 fd 8e 3b ac c7 35 39 ea fa 9b 3b
       0.0038404705 0.0043637156 0.00017335889 0.004760136
000280 73 f3 e8 3b 10 be 5d ba 80 43 0b bb 87 26 2e bc
       0.0071090995 -0.00084588025 -0.002124995 -0.010629303
000290 ad 2a 96 3a 28 88 e6 bb 18 9e 0d bc a7 b4 0b bc
       0.001145681 -0.007035274 -0.0086436495 -0.008526958
0002a0 c0 a7 f4 bb 13 d9 f6 ba 70 23 d8 ba eb 62 14 bb
       -0.0074662864 -0.0018833004 -0.0016490053 -0.0022641968
0002b0 70 f7 c7 bb 98 51 eb 38 e4 46 8c ba db d3 05 bb
       -0.006102495 0.00011220871 -0.0010702279 -0.0020420465
0002c0 c5 c0 4d bb 46 00 16 bb 32 e1 94 b9 3f 72 f7 b9
       -0.0031395417 -0.0022888347 -0.00028396543 -0.0004719663
0002d0 fb 3b 6a 3b 9e 4a 5f 3b 37 b1 ab ba 97 dd 89 3b
       0.0035741318 0.0034071575 -0.0013099079 0.004207324
0002e0 2d fe 11 3c 44 03 3f 3b 71 7a 69 ba 95 32 27 3b
       0.008910698 0.0029146234 -0.000890649 0.0025512327
0002f0 11 fb 2b bb 89 ea 71 3b 9d a6 aa 3b c8 92 98 bb
       -0.0026242177 0.0036913475 0.00520785 -0.0046561696
000300 2a 1b c8 3a 22 6b bc bb 45 a6 72 bb 19 77 08 3c
       0.0015266885 -0.005750076 -0.0037025374 0.008329176
000310 02 c0 8a bb e5 b2 fe b9 02 0f 65 b9 41 8c 5b 3b
       -0.004234315 -0.00048579942 -0.00021844733 0.0033500346
000320 5b 08 63 b9 2a 9e 06 3b a7 e5 87 bb 75 3b 09 3b
       -0.0002165152 0.002054105 -0.0041472497 0.002093998
000330 72 00 10 3a f4 8a 4c 3a 68 3e df 3a 2f b2 63 3b
       0.00054932304 0.0007802688 0.0017032148 0.0034743657
000340 f4 1a 93 bb 06 e7 8d 3a 58 42 af 3b e3 6e 65 3b
       -0.004489297 0.0010826297 0.005348485 0.003500872
000350 66 e5 d7 bb 48 db 05 bb 6f 56 14 3b 46 71 3e 3b
       -0.0065886257 -0.0020424891 0.0022634526 0.0029059215
000360 55 44 94 3a bd 4c c5 39 3d d4 97 3b 4f 6a 5b 3b
       0.0011311868 0.00037631943 0.004633455 0.0033480113
000370 72 00 d2 bb 2a 53 dc 3b 6a 45 f8 3a b3 cb cd 3a
       -0.0064087445 0.006723781 0.0018941585 0.0015700966
000380 88 61 4e 3a 2c 64 84 bb 49 2b e5 38 c6 f8 98 ba
       0.00078728097 -0.0040402617 0.000109276334 -0.001167082
000390 9c 01 20 3b ac f4 02 bb 89 2e 10 3c ec 82 a4 bb
       0.0024415022 -0.0019982262 0.008800157 -0.00502049
0003a0 13 7d 59 bb b3 8f 45 ba 61 14 b1 39 7e 83 7e 3b
       -0.0033186122 -0.00075363665 0.00033775254 0.00388357
0003b0 d2 6c 04 3b 93 c0 61 ba 11 50 96 3b cd a3 ea 3a
       0.0020206464 -0.00086117646 0.0045871814 0.00179016
0003c0 2e 72 f9 3b 27 ab bc 3b 9d 66 0d bc a5 54 34 bb
       0.007612488 0.0057577076 -0.008630422 -0.0027516272
0003d0 80 15 36 bb 3f ec c3 bb 4c aa 96 bb 35 b9 48 bb
       -0.002778381 -0.0059790905 -0.0045979377 -0.003062797
0003e0 e5 aa 03 3a 0e 27 90 3a f9 a0 1e ba d0 ef ac 39
       0.00050227187 0.0010997967 -0.00060512085 0.0003298507
0003f0 6b 7e 90 3b 0a 51 6f bc 7d 76 75 bb c2 7b 44 39
       0.0044096014 -0.014606724 -0.0037454658 0.0001873812

tfl.pseudo_qconst i1 [256, 128]
000000 2f ef 43 d3 8f 94 e8 c8 5b 2a 60 88 b6 cd 96 f7
       47 -17 67 -45 -113 -108 -24 -56 91 42 96 -120 -74 -51 -106 -9
000010 02 46 23 d3 90 2f e0 ea 26 50 23 6a de 0a 5e 69
       2 70 35 -45 -112 47 -32 -22 38 80 35 106 -34 10 94 105
000020 cd 0b 36 b5 57 ca cc 08 92 ca fc 95 89 ee 0f b4
       -51 11 54 -75 87 -54 -52 8 -110 -54 -4 -107 -119 -18 15 -76
000030 20 b1 fd c6 3c e1 64 2f 0b 51 c1 e0 8f c0 93 16
       32 -79 -3 -58 60 -31 100 47 11 81 -63 -32 -113 -64 -109 22
000040 c6 3c ef f5 c1 29 aa 98 8e 94 ba 45 f0 b8 05 d8
       -58 60 -17 -11 -63 41 -86 -104 -114 -108 -70 69 -16 -72 5 -40
000050 31 28 fa 29 10 2b fb 3b fc 4f d5 ed 0e d3 56 39
       49 40 -6 41 16 43 -5 59 -4 79 -43 -19 14 -45 86 57
000060 74 b2 c5 9f f3 e8 8b ca 48 3e 69 71 81 24 3c 02
       116 -78 -59 -97 -13 -24 -117 -54 72 62 105 113 -127 36 60 2
000070 f4 98 77 64 0d 69 c4 52 dc bf ae 08 35 46 45 1d
       -12 -104 119 100 13 105 -60 82 -36 -65 -82 8 53 70 69 29
000080 fe 40 a6 d9 f9 b4 59 f2 ea ae a6 37 a2 e2 50 24
       -2 64 -90 -39 -7 -76 89 -14 -22 -82 -90 55 -94 -30 80 36
000090 13 81 9c 2e ef 5b f2 ce 3c f6 37 b5 0a f5 09 bd
       19 -127 -100 46 -17 91 -14 -50 60 -10 55 -75 10 -11 9 -67
0000a0 bd d5 ef 65 f3 ff ae a8 a2 e4 d7 c7 b7 9d 3e 16
       -67 -43 -17 101 -13 -1 -82 -88 -94 -28 -41 -57 -73 -99 62 22
0000b0 3b a2 d1 4a ac c3 2f f6 59 3e 10 77 a5 bd 5d dd
       59 -94 -47 74 -84 -61 47 -10 89 62 16 119 -91 -67 93 -35
0000c0 9f 58 c6 ab 2e 15 74 d5 3e 4a 03 30 a6 2c ef aa
       -97 88 -58 -85 46 21 116 -43 62 74 3 48 -90 44 -17 -86
0000d0 1d 22 23 a4 ac 2b d2 09 6f 68 5b b2 ef 17 13 07
       29 34 35 -92 -84 43 -46 9 111 104 91 -78 -17 23 19 7
0000e0 48 f6 4a b1 33 f0 2d 96 d6 19 c5 86 4e f6 a3 f6
       72 -10 74 -79 51 -16 45 -106 -42 25 -59 -122 78 -10 -93 -10
0000f0 a9 fa 13 0f 07 ad fe 9a 3a 19 f8 41 37 06 4f c1
       -87 -6 19 15 7 -83 -2 -102 58 25 -8 65 55 6 79 -63

tfl.pseudo_qconst1 i1 [128, 256]
000000 fe 4d cf 12 ce 26 38 3f e8 13 19 0b 0e ef 15 bf
       -2 77 -49 18 -50 38 56 63 -24 19 25 11 14 -17 21 -65
000010 5c 38 02 f6 1c ff ea 32 1d 18 e2 cd ef ed 22 43
       92 56 2 -10 28 -1 -22 50 29 24 -30 -51 -17 -19 34 67
000020 30 1d af 19 1c fb e2 2d e3 d1 ef 1f 1c 32 de ec
       48 29 -81 25 28 -5 -30 45 -29 -47 -17 31 28 50 -34 -20
000030 be e4 d9 52 35 1c c8 c6 1d 3b da f4 bb d4 11 49
       -66 -28 -39 82 53 28 -56 -58 29 59 -38 -12 -69 -44 17 73
000040 28 34 46 34 ce 11 32 15 f7 fa b3 23 15 d6 ef d9
       40 52 70 52 -50 17 50 21 -9 -6 -77 35 21 -42 -17 -39
000050 11 1f 28 03 18 cf 28 ed 33 d1 1f fd 0a 2b 24 b0
       17 31 40 3 24 -49 40 -19 51 -47 31 -3 10 43 36 -80
000060 0e ff ff 5d 19 0b d6 f7 24 ff 52 df eb c8 34 ee
       14 -1 -1 93 25 11 -42 -9 36 -1 82 -33 -21 -56 52 -18
000070 e3 e9 00 31 d2 06 ca e5 12 de 25 e5 65 25 ca ca
       -29 -23 0 49 -46 6 -54 -27 18 -34 37 -27 101 37 -54 -54
000080 36 06 28 78 d3 fd d9 23 18 dd 12 c7 fd ff 33 dc
       54 6 40 120 -45 -3 -39 35 24 -35 18 -57 -3 -1 51 -36
000090 d5 d0 18 36 e8 59 e5 50 fa bd d3 0f 9f f3 18 d8
       -43 -48 24 54 -24 89 -27 80 -6 -67 -45 15 -97 -13 24 -40
0000a0 e4 cf a9 f1 0d fc d1 e9 2b 25 16 d4 e6 53 c2 f0
       -28 -49 -87 -15 13 -4 -47 -23 43 37 22 -44 -26 83 -62 -16
0000b0 fd bb 12 4c c5 2d ef d8 c4 c7 c5 44 09 67 02 21
       -3 -69 18 76 -59 45 -17 -40 -60 -57 -59 68 9 103 2 33
0000c0 cb e3 be 2e 3e 9b ed 06 23 38 2e 15 d1 0b b4 17
       -53 -29 -66 46 62 -101 -19 6 35 56 46 21 -47 11 -76 23
0000d0 f7 c7 d2 2d 42 e8 41 21 04 e3 f8 3f 13 bd 0e 18
       -9 -57 -46 45 66 -24 65 33 4 -29 -8 63 19 -67 14 24
0000e0 f3 ad 49 dc c8 dc f6 d3 fc 1a ef b8 1c 1b 81 12
       -13 -83 73 -36 -56 -36 -10 -45 -4 26 -17 -72 28 27 -127 18
0000f0 b8 11 2c 19 c8 e5 ef f2 02 26 29 f8 84 24 c6 45
       -72 17 44 25 -56 -27 -17 -14 2 38 41 -8 -124 36 -58 69
