app/src/main/assets/sign_language_model1.tflite (tflite, 509880 bytes, 25 tensors)

arith.constant18 f4 [22]
0	0xbbbe4100	-0.0058060884
1	0x3ba73278	0.005102452
2	0x3abba9a6	0.0014317527
3	0x3b0ed6e2	0.002179556
4	0xbb82a850	-0.0039873496
5	0x3b22a3fb	0.0024816978
6	0xbb3a2cf5	-0.0028408144
7	0xbc20c69e	-0.009812979
8	0x3bd4669a	0.0064819576
9	0xbbff8b38	-0.0077985786
10	0xbba5c3d1	-0.0050587435
11	0xbc1dc5e4	-0.0096297
12	0xbb8018b3	-0.0039091944
13	0x3c72d917	0.014822266
14	0x3be79f34	0.007068539
15	0x39f7c885	0.0004726091
16	0x3b03c8dd	0.0020108738
17	0x3aa6aad2	0.0012715703
18	0x3a48aed6	0.0007655447
19	0xbc7806b3	-0.015138316
20	0xbb51aa5c	-0.0031992411
21	0xbbcda4e7	-0.0062757614

arith.constant19 f4 [256]
0	0x3c33e9e5	0.010981058
1	0xbb46dc78	-0.0030343812
2	0xbb8ff846	-0.00439361
3	0xbbd9569c	-0.006632639
4	0x3bad5739	0.0052899388
5	0xbb41200c	-0.0029468564
6	0xbb0341b9	-0.0020028187
7	0x3cbd5233	0.023110485
8	0x3bdec96d	0.006798914
9	0xbb5591a8	-0.0032588039
10	0x3adcd660	0.0016848557
11	0xbb180417	-0.0023195797
12	0x3ca18206	0.01971532
13	0x3c058c12	0.008151071
14	0xbaa3a9c3	-0.0012486506
15	0x3bf0af5f	0.0073451246
16	0xbc08ca2a	-0.008348981
17	0x3c5d0811	0.013490693
18	0x3bcbf47d	0.0062242136
19	0x3b3f7dd5	0.002921929
20	0xbadb602d	-0.0016737037
21	0xb9e85de1	-0.00044320434
22	0x3bab7e6c	0.0052335765
23	0xbb162174	-0.0022908123
24	0xbbe8ba01	-0.0071022515
25	0x3c93b2af	0.018029539
26	0x3b8d275c	0.0043076705
27	0x3b97ab15	0.004628549
28	0x3b1d3273	0.002398637
29	0x3ac47685	0.0014988935
30	0x3a1407e3	0.0005646927
31	0x3c01a7a7	0.007913507
32	0xbbf71870	-0.007540755
33	0x37145e80	8.84349e-06
34	0x3c050ed7	0.008121214
35	0x3c6fdb9a	0.014639759
36	0x3c25a4e0	0.01011011
37	0x3b236322	0.0024930914
38	0x3aee58a6	0.0018184378
39	0x3baf51f3	0.0053503453
40	0x3bd414a6	0.006472188
41	0x3bf1ea45	0.0073826634
42	0xbb85d8fc	-0.0040847044
43	0xbbc0de68	-0.005885888
44	0x3c034852	0.008012848
45	0x3c56e0cb	0.013115118
46	0x3aceddc7	0.0015782648
47	0xbbbf93bd	-0.005846469
48	0x3c653bca	0.013991306
49	0xbaa52225	-0.0012598677
50	0xbb3cb1e7	-0.0028792561
51	0x3c26fe22	0.010192426
52	0xbb982937	-0.004643585
53	0xb9a8e7d2	-0.00032216177
54	0xbb840dc8	-0.004029963
55	0x3be6331c	0.0070251357
56	0x3b935f1f	0.0044974233
57	0xbb9b88ba	-0.0047465237
58	0x3b9341ff	0.0044939513
59	0x3c0e7916	0.008695861
60	0x3badac3c	0.005300073
61	0x3c85f66f	0.01635286
62	0x3c5530a4	0.013012085
63	0x3c39c953	0.011339503
64	0x3c303b9f	0.010756402
65	0x3c1f8746	0.009736842
66	0x3c717db9	0.014739447
67	0x3a583652	0.00082478405
68	0x3b84ea06	0.004056218
69	0x39c066e0	0.00036697742
70	0x3b900619	0.004395258
71	0x3bfe506e	0.007761053
72	0x39440d76	0.00018697031
73	0xbaccd48c	-0.0015627309
74	0x3c715216	0.0147290435
75	0x3a048320	0.00050549395
76	0x3b82b5cf	0.0039889584
77	0xbc51534b	-0.012776206
78	0xbbb7a81a	-0.005604756
79	0x3bd8910f	0.006609089
80	0xbbf7005a	-0.0075378837
81	0x3bd5a0f5	0.0065194317
82	0x3b3c18e7	0.0028701366
83	0x3b4d7bbd	0.0031354271
84	0x3942dba8	0.0001858311
85	0x398a0385	0.00026324033
86	0x3bc22bfa	0.0059256526
87	0x3bcfcd40	0.0063416064
88	0x3c19886f	0.009370907
89	0x3bd8a754	0.006611744
90	0x3abc20a3	0.0014352988
91	0x3a948e2e	0.0011333877
92	0x3c559d7d	0.013038036
93	0x3c39498e	0.011309041
94	0x3bf5d5e0	0.0075023025
95	0x3bb72267	0.005588818
96	0x3c222191	0.009895698
97	0xbbd93cfe	-0.0066295853
98	0x39c93d5d	0.00038383427
99	0x3c54e8dd	0.012994972
100	0x3c8b95c3	0.017039185
101	0xbb0e80e4	-0.0021744305
102	0x3bccb2a4	0.0062468816
103	0xbbb8577a	-0.0056256624
104	0x3c49987d	0.012304422
105	0x3c3c0b41	0.0114772925
106	0x3c88ce1a	0.01669984
107	0x3adf34cb	0.0017029283
108	0xbb89944e	-0.0041985875
109	0x3c0a261a	0.008431936
110	0xbba3cca4	-0.0049987603
111	0x3b7acfea	0.00382709
112	0x3c63bdf3	0.013900268
113	0x3c7382b7	0.014862708
114	0x3c6d22f2	0.014473664
115	0x3b923357	0.0044616866
116	0x3b40f3c1	0.0029442164
117	0x3a3160c1	0.00067664316
118	0xbb83a002	-0.004016877
119	0x3c81731e	0.015801962
120	0xbc09951c	-0.008397367
121	0xbb34e10a	-0.0027599954
122	0x3c2abe8e	0.010421408
123	0xbc403c3a	-0.011733109
124	0xb9857b89	-0.00025459778
125	0x3c0b0843	0.0084858565
126	0x3c2eef21	0.01067713
127	0x3b23f29f	0.002501644
128	0xbb7a14da	-0.00381594
129	0x3ba0b81e	0.004904761
130	0xbacddadd	-0.0015705485
131	0xbbac6012	-0.005260476
132	0x3bd55965	0.006510901
133	0xbbb333d7	-0.0054688263
134	0xbb9392a9	-0.0045035672
135	0xbaaa4cff	-0.0012992917
136	0x3c7631ae	0.015026493
137	0x3cd56b30	0.026052088
138	0x3baa0f2c	0.005189797
139	0xbbd2f035	-0.0064373263
140	0x3c96543a	0.01835071
141	0x3bcf144b	0.006319558
142	0xbbfd3d5e	-0.007728263
143	0x3bf0f47b	0.007353363
144	0x3b8e3d53	0.0043408065
145	0xbc33d37d	-0.010975716
146	0x3bb5afbe	0.0055446317
147	0x3b1c1841	0.0023818167
148	0x3b8c0694	0.004273245
149	0x3c1696ac	0.009191196
150	0x3c2a969c	0.010411885
151	0xbc09f44b	-0.00842006
152	0xbb923d9d	-0.0044629113
153	0xbac44db9	-0.0014976776
154	0xbac49272	-0.0014997257
155	0xba18e55a	-0.0005832516
156	0x3b8dc86c	0.0043268707
157	0xba21952e	-0.0006163892
158	0x3c83c345	0.016084323
159	0x3bc37cf3	0.005965823
160	0x3b0c631d	0.002142138
161	0xbb832e18	-0.0040032975
162	0xbc31b848	-0.010847159
163	0xbc8172f1	-0.015801879
164	0x3a42922d	0.00074222946
165	0x3c7bf5e0	0.015378445
166	0x3a84519c	0.0010095122
167	0x3c2f3952	0.010694819
168	0x3b5b5c0f	0.003347162
169	0x3a661db2	0.00087782287
170	0xbb91f9c6	-0.004454824
171	0xbac4fca1	-0.0015028903
172	0x3c32a639	0.010903888
173	0xbc241871	-0.010015593
174	0x3bf217bf	0.0073880847
175	0x3c2f0fe8	0.010684945
176	0xbbf3228a	-0.007419889
177	0x3c06186f	0.008184536
178	0x3c0d3fbc	0.0086211525
179	0x3c423b5d	0.011854974
180	0xbab37be1	-0.0013693535
181	0x3c6cdc6b	0.014456849
182	0xbae16894	-0.0017197304
183	0x3cb2ab86	0.021810304
184	0xbb967344	-0.0045913775
185	0xbc40a977	-0.011759154
186	0x3bc65046	0.00605205
187	0xbb320127	-0.0027161331
188	0xbb8ed370	-0.0043587014
189	0x3c567fe6	0.013092017
190	0x3b069405	0.0020535004
191	0x3c11fa4c	0.008909773
192	0x3b9fd316	0.0048774583
193	0x3b3cf486	0.002883227
194	0x3b81b77f	0.003958642
195	0x3c75c520	0.015000612
196	0x3c2d941f	0.010594397
197	0xbc80df9e	-0.015731629
198	0x3c0a65b9	0.008447104
199	0x3baa427a	0.005195913
200	0x3bde923e	0.006792336
201	0x3caa5c52	0.020795975
202	0x3b0bf623	0.0021356426
203	0xba005342	-0.0004895219
204	0x3b758e70	0.0037468933
205	0x3c0cd9fd	0.008596894
206	0x3bbfc2db	0.005852086
207	0x3c0168f6	0.00789856
208	0x3c157bca	0.009123752
209	0x3c322d64	0.01087508
210	0x3b66d2d5	0.003522088
211	0x3c38b057	0.011272511
212	0xbb4cc0d0	-0.0031242855
213	0xbba1728a	-0.004926984
214	0x3b55f03d	0.0032644414
215	0x3bce8d60	0.0063034743
216	0x3bf86f55	0.007581631
217	0x3c144b2b	0.009051125
218	0xba8c90e5	-0.0010724334
219	0xbac53626	-0.0015046045
220	0x3a4798d5	0.00076140213
221	0x3ccf398f	0.025296
222	0x3ca6b200	0.020348549
223	0x3ae542fa	0.0017491274
224	0x3c9876bb	0.018611303
225	0x3b921222	0.004457728
226	0x3b905fcf	0.0044059525
227	0x3b924ebe	0.004464953
228	0x3c0913ff	0.008366584
229	0xbbd418d7	-0.0064726877
230	0x3c93b7ae	0.018031921
231	0xb9149fb4	-0.00014173874
232	0x3b324921	0.0027204233
233	0xba3cc804	-0.00072014355
234	0x3bad7f46	0.005294713
235	0x3c03c80c	0.0080433
236	0x3b2c0734	0.002624941
237	0x3bd288b4	0.0064249877
238	0xbc4332cc	-0.011913966
239	0xbc01b7fc	-0.0079174
240	0x3b7880fe	0.0037918682
241	0x3c788f94	0.01517095
242	0x39c8fd37	0.00038335632
243	0x3c465dd4	0.012107331
244	0xbc395081	-0.0113106975
245	0x3c66fb58	0.014098011
246	0xbb41abbe	-0.002955183
247	0x3bc95a14	0.0061447714
248	0x3bcf1251	0.006319322
249	0x3c091f40	0.008369267
250	0x3b038da8	0.0020073447
251	0x3bc01add	0.0058625774
252	0x3a8359b6	0.0010021243
253	0x3b53d70d	0.0032324225
254	0xbb1dfb53	-0.00241061
255	0x3b845648	0.004038606

arith.constant20 f4 [256]
0	0x3bcae610	0.0061919764
1	0x3b4237e9	0.0029635376
2	0xbb6de9ba	-0.0036302642
3	0x39a51d2f	0.00031492996
4	0x3b785d5b	0.003789744
5	0x3adb3bfe	0.0016726253
6	0x3ba6692a	0.0050784545
7	0x3a091d78	0.00052305264
8	0x3ba5ccf2	0.005059832
9	0xbb5db725	-0.0033831086
10	0xbada8dd7	-0.0016674352
11	0x3ad19e89	0.0015992682
12	0xbb7e3ddd	-0.0038794198
13	0xbae7ee9a	-0.001769501
14	0x3b0fbc03	0.0021932132
15	0x3b81e206	0.0039637117
16	0x3b18323a	0.0023223297
17	0xbb077b80	-0.0020672977
18	0xbc304bc7	-0.010760254
19	0xb60ae658	-2.069768e-06
20	0x3b821512	0.003969797
21	0x3b88e4dd	0.0041776733
22	0x3c3b4bae	0.011431618
23	0xbb2b2057	-0.0026111805
24	0x3bc2a58d	0.0059401453
25	0x3c19b052	0.009380417
26	0xbb7e0891	-0.003876243
27	0x3abe88ca	0.0014536616
28	0x3b4bec7c	0.0031116297
29	0x39918556	0.00027755898
30	0xba740562	-0.00093086634
31	0x3b6bb28e	0.0035964581
32	0x396fc2c0	0.00022865366
33	0xbb29fba2	-0.0025937338
34	0xbc046499	-0.008080625
35	0x3be4ab2b	0.0069784126
36	0xbbb69858	-0.00557236
37	0xbc1b4a32	-0.009478139
38	0x3b03e8e0	0.0020127818
39	0xba87141d	-0.0010305677
40	0x3bc2d773	0.0059460937
41	0x3aef57f6	0.0018260467
42	0x3b53bd3a	0.0032308833
43	0x3b53d67f	0.0032323895
44	0x3a510f15	0.00079749647
45	0x3b4148eb	0.0029492925
46	0xbb7c69fc	-0.003851532
47	0xba5af587	-0.00083526265
48	0x3ad20857	0.0016024214
49	0x3b91a599	0.0044447896
50	0x3b197714	0.0023416923
51	0x3c1b601c	0.0094833635
52	0xb91aaeca	-0.00014751698
53	0xbaf53511	-0.0018707832
54	0xbc4516db	-0.012029375
55	0xbb80c3fb	-0.0039296127
56	0xbb6bc9e5	-0.0035978493
57	0x3b043d31	0.0020178074
58	0xbbcdc911	-0.0062800725
59	0x3b325513	0.0027211353
60	0xba427781	-0.000741832
61	0xba18b44b	-0.00058252056
62	0x3b4d8d99	0.0031364916
63	0x3ae591f3	0.001751481
64	0x3ba8bebb	0.00514969
65	0xbbfa9dd3	-0.0076482086
66	0x3bbb0033	0.005706811
67	0xbb8073f5	-0.003920073
68	0x3bfc0108	0.0076905526
69	0x3bcf4aa5	0.006326037
70	0xbbb57248	-0.005537305
71	0xbb0b4581	-0.0021251144
72	0x3ad7e1a2	0.0016470442
73	0x3b24510d	0.0025072724
74	0xbb825236	-0.0039770855
75	0x3b95ce06	0.004571679
76	0xbb6ab698	-0.00358144
77	0xbc1c981b	-0.009557749
78	0xbaeff03f	-0.0018305852
79	0xbc1507b8	-0.009096079
80	0xbb27aa87	-0.002558382
81	0xbb5f2475	-0.003404883
82	0x3b9e9d95	0.0048405626
83	0x3a85c274	0.0010205046
84	0xb9d9c90a	-0.0004153925
85	0xbbcc9186	-0.0062429337
86	0xbb19ff9a	-0.0023498298
87	0xbb1389ff	-0.0022512672
88	0x3a89f661	0.0010525697
89	0x3bfd6256	0.00773267
90	0x3ba48603	0.0050208583
91	0x3afe9d84	0.0019425605
92	0xba9b628f	-0.0011854934
93	0xbb0369d5	-0.0020052094
94	0x398e2b31	0.0002711653
95	0x3b0060e5	0.0019589004
96	0xbaded0ac	-0.0016999445
97	0xbba030ff	-0.0048886533
98	0x3b95bf65	0.004569935
99	0x3b163fc2	0.0022926186
100	0x3bafabf2	0.0053610737
101	0x3bf07840	0.0073385537
102	0xbb3a7cf5	-0.0028455828
103	0x3bffd1a0	0.0078069717
104	0xbaa287d1	-0.0012400096
105	0xbb82e27f	-0.0039942856
106	0x39e34ac2	0.00043352513
107	0xb9aaa4a1	-0.00032547585
108	0xbc225f39	-0.009910398
109	0x3bbb8cdd	0.0057235793
110	0x3a82a975	0.0009968715
111	0xbb0266cd	-0.00198977
112	0xbbf74faf	-0.007547341
113	0xbbc045f1	-0.0058677127
114	0x3a1ca918	0.00059761247
115	0xbb81057a	-0.0039374204
116	0xbc29b21b	-0.010357405
117	0xbb2d4367	-0.002643788
118	0xbb640995	-0.003479575
119	0xbb5de4ce	-0.0033858302
120	0xbaf2def9	-0.0018529586
121	0x3b877c41	0.0041346853
122	0x3ba62ce3	0.005071269
123	0x3adacd1d	0.0016693209
124	0xbadb2668	-0.001671982
125	0x3b0eaf6d	0.0021772042
126	0x3abd238d	0.0014430151
127	0x3bd597fe	0.006518363
128	0xbaa834c5	-0.0012833109
129	0x3b1df92c	0.0024104817
130	0xbbe5323c	-0.006994514
131	0x39852fe6	0.00025403424
132	0xbb6d513c	-0.003621175
133	0x3b78593c	0.0037894985
134	0xbc6a2cc2	-0.014292898
135	0x3b875148	0.0041295625
136	0xbb82b92b	-0.003989359
137	0x3a97de7d	0.0011586692
138	0x3b83c317	0.0040210593
139	0x3c1f2dcd	0.00971551
140	0x3b3981b6	0.0028306074
141	0xbbe3f859	-0.0069570956
142	0x3a9a91c1	0.0011792706
143	0xbba252e6	-0.00495373
144	0xbc164350	-0.009171322
145	0x3b154da1	0.0022781866
146	0xbbe18083	-0.006881775
147	0x3b834323	0.004005806
148	0xb97d0e8d	-0.00024133381
149	0xbbb655f0	-0.0055644438
150	0xba80f010	-0.0009837169
151	0x3bf89066	0.007585573
152	0x3a1f0111	0.00060655276
153	0x3a117a18	0.00055495044
154	0xb948fe7b	-0.00019168288
155	0x39bcf28a	0.0003603886
156	0xbb257379	-0.002524583
157	0x3bd9e1c4	0.006649228
158	0xbb3a1c26	-0.0028398125
159	0x3b2e2397	0.0026571506
160	0x3a789bbf	0.0009483657
161	0x3b024d65	0.0019882557
162	0xbb278480	-0.0025561154
163	0x3b8b51a7	0.004251677
164	0xbbaddb14	-0.005305657
165	0xbaa4eede	-0.0012583395
166	0x3ba3c4f8	0.0049978457
167	0x3ba5c014	0.005058298
168	0xb98eb011	-0.0002721553
169	0xbaabe07d	-0.0013113167
170	0x3bd51e3a	0.0065038474
171	0xb992fac3	-0.00028034122
172	0xbbebb7cf	-0.0071935426
173	0xbb28aec2	-0.002573893
174	0x39b020ab	0.00033593675
175	0x3b08f6ce	0.002089906
176	0x3abd2b62	0.0014432485
177	0xbc6a61a0	-0.014305502
178	0x3b2f26db	0.002672604
179	0x3bc856e2	0.006113873
180	0xb974d7c5	-0.00023350034
181	0xbc0d99d4	-0.0086426325
182	0x3c55e3ea	0.013054827
183	0x3b8fe2cb	0.0043910495
184	0x3b13b815	0.0022540141
185	0x3ba121c6	0.004917356
186	0x3b5166f2	0.003195223
187	0xbbacdfe4	-0.0052757133
188	0xbbeccfef	-0.007226936
189	0xbb55ad23	-0.0032604418
190	0x3a5b0c46	0.0008356016
191	0x3ae4effd	0.0017466542
192	0x38a6799d	7.938149e-05
193	0xbba61764	-0.0050687063
194	0xbabe1982	-0.0014503452
195	0x3ba5022f	0.0050356607
196	0x3c33b139	0.010967546
197	0xbbfbf5dc	-0.007689221
198	0x3b29924d	0.0025874556
199	0xbb477f50	-0.0030440874
200	0x3c368a96	0.01114144
201	0xbb094ab5	-0.002094907
202	0x3b27bd83	0.0025595136
203	0x3b8c3d47	0.0042797658
204	0xbb717e06	-0.0036848797
205	0x3b098bfb	0.0020987976
206	0xbc3e31f7	-0.011608592
207	0xbb9796ae	-0.0046261167
208	0xbbda016f	-0.006653003
209	0xbba411f1	-0.0050070216
210	0xbb857b0e	-0.004073507
211	0x3bfd8f74	0.007738048
212	0x3bbab232	0.005697512
213	0xba1a3a7e	-0.000588335
214	0xbb2c39b2	-0.0026279506
215	0x3b631682	0.0034650867
216	0x3b846d7d	0.0040413723
217	0x3ba01e9b	0.004886461
218	0xba91ff85	-0.0011138773
219	0x3c2b956c	0.010472637
220	0x3bed3e1b	0.0072400696
221	0x3bb1ef30	0.0054301247
222	0x3a3a3491	0.000710317
223	0xbb2845a6	-0.002567628
224	0xbbc66252	-0.006054201
225	0x3a9820cd	0.0011606455
226	0xb7786bc8	-1.4807047e-05
227	0x3a8c04d4	0.0010682591
228	0xbaa3a24e	-0.0012484284
229	0x3861641c	5.3737414e-05
230	0x3be5b3a0	0.0070099384
231	0xbb8f5132	-0.004373693
232	0xb996d58c	-0.00028769334
233	0xbc16744a	-0.009182999
234	0xbc0369fc	-0.008020874
235	0xbc1648b4	-0.009172607
236	0xbba75e08	-0.005107645
237	0xbbf7a33f	-0.0075573022
238	0xbb438154	-0.0029831724
239	0xbbc8251f	-0.006107941
240	0x3baebde3	0.005332695
241	0xbadc3efe	-0.0016803441
242	0xbae00cca	-0.0017093655
243	0xbbcdc2bd	-0.006279318
244	0x3a8ddf17	0.0010823932
245	0xbb97e994	-0.004635999
246	0x3b2db85f	0.0026507599
247	0x3b868878	0.004105624
248	0x3abeb42e	0.0014549547
249	0x3bc8df34	0.0061301235
250	0xbb6d258f	-0.0036185717
251	0x3bdc6ed4	0.006727079
252	0xbb874322	-0.004127876
253	0x3b628e9a	0.003456986
254	0xbbbda9ff	-0.0057880874
255	0x3b29f32d	0.0025932298

arith.constant21 f4 [2, 64]
0	0x3676481e	3.6698834e-06
1	0x37436868	1.1647215e-05
2	0x3691aa4f	4.3411633e-06
3	0xb7513e24	-1.2471839e-05
4	0xb36eb71b	-5.5580227e-08
5	0xb6ad0e6f	-5.157482e-06
6	0x360703f1	2.0118862e-06
7	0x36e023e1	6.679897e-06
8	0xb765b7f4	-1.3692294e-05
9	0xb764399a	-1.360327e-05
10	0x36c06739	5.7340626e-06
11	0x367040a3	3.580041e-06
12	0xb71353fa	-8.781435e-06
13	0x368a9622	4.1301982e-06
14	0xb6d08f96	-6.2155987e-06
15	0x360d29a6	2.103488e-06
16	0xb726483e	-9.911191e-06
17	0x36704083	3.5800338e-06
18	0xb6b93818	-5.51996e-06
19	0x3668979c	3.4658942e-06
20	0x36f92c14	7.4259096e-06
21	0xb66cd9a4	-3.5293424e-06
22	0xb723afb8	-9.75647e-06
23	0x369306f3	4.3817504e-06
24	0xb46ce5a0	-2.206275e-07
25	0xb584c6ba	-9.892603e-07
26	0x36f74024	7.3686406e-06
27	0x378d9e44	1.6882208e-05
28	0xb65362bf	-3.1498928e-06
29	0xb5bd00ae	-1.4081795e-06
30	0xb54205e9	-7.227923e-07
31	0xb5ed0ec1	-1.766217e-06
32	0x369581a7	4.4556396e-06
33	0xb7028ec1	-7.781841e-06
34	0x3508abfc	5.091422e-07
35	0xb5b4ee8e	-1.3480474e-06
36	0x36768638	3.6734982e-06
37	0x3681d7b6	3.8696116e-06
38	0xb756204f	-1.2762916e-05
39	0x35e9cf24	1.7420139e-06
40	0x3482e630	2.438187e-07
41	0xb582f7c6	-9.757866e-07
42	0x3705ed37	7.982649e-06
43	0xb566027e	-8.5685303e-07
44	0xb7402611	-1.1452955e-05
45	0xb60783f7	-2.0193381e-06
46	0x366c7cd4	3.52394e-06
47	0x35983cd0	1.1342581e-06
48	0xb5fbafd0	-1.8752125e-06
49	0x370d4ebb	8.422586e-06
50	0x368fe4e1	4.288377e-06
51	0x34f8188b	4.6211457e-07
52	0x36c885ef	5.9760564e-06
53	0x36c057a0	5.732247e-06
54	0x366351c3	3.3873227e-06
55	0x34f50983	4.5641727e-07
56	0xb7244e2f	-9.793365e-06
57	0x37072217	8.054564e-06
58	0x375259af	1.25378565e-05
59	0xb6bf8634	-5.707867e-06
60	0xb75876e5	-1.2902286e-05
61	0xb614f360	-2.2195381e-06
62	0x363f96ea	2.8549061e-06
63	0x361a1f37	2.2965958e-06
64	0xb736a861	-1.0887249e-05
65	0x360b0cda	2.0720095e-06
66	0xb5963364	-1.1190828e-06
67	0x34b83a30	3.4315008e-07
68	0xb6bba01b	-5.591673e-06
69	0x35d6b2a2	1.5996231e-06
70	0xb63d4081	-2.820074e-06
71	0x37723ba2	1.4438208e-05
72	0xb56177da	-8.399344e-07
73	0x3641de4d	2.8888637e-06
74	0x368779e7	4.037505e-06
75	0x365ce9a3	3.291855e-06
76	0xb6b717be	-5.456589e-06
77	0xb514bbe7	-5.540773e-07
78	0xb51cacfd	-5.836626e-07
79	0x374edacc	1.2329499e-05
80	0x36917db4	4.3359705e-06
81	0x36062680	1.9989966e-06
82	0xb4b43e9b	-3.3573164e-07
83	0xb6b9a9f3	-5.5332143e-06
84	0x3693b661	4.402173e-06
85	0xb4eb0cc3	-4.3781446e-07
86	0xb731b8ca	-1.0593047e-05
87	0xb6ec32a8	-7.0392452e-06
88	0xb71700c5	-9.0004805e-06
89	0x36222cb5	2.4165904e-06
90	0xb6280404	-2.5036288e-06
91	0x361f441c	2.3732491e-06
92	0x36a41221	4.8896914e-06
93	0x35163cd0	5.596785e-07
94	0xb745b711	-1.17847385e-05
95	0x366608c4	3.4277773e-06
96	0xb6b37b52	-5.348972e-06
97	0xb65fa28a	-3.33242e-06
98	0xb71ca3c4	-9.336454e-06
99	0xb5ca0e26	-1.505429e-06
100	0xb77c2a94	-1.5030284e-05
101	0xb52430af	-6.1165605e-07
102	0xb78a969e	-1.6521019e-05
103	0x36414256	2.8797854e-06
104	0xb6595021	-3.238216e-06
105	0xb6d66f78	-6.3906737e-06
106	0x36122510	2.1777269e-06
107	0xb747a2c3	-1.189922e-05
108	0x36b0bcf7	5.267207e-06
109	0xb6319019	-2.6458931e-06
110	0xb626c583	-2.4850895e-06
111	0xb6badb97	-5.5687956e-06
112	0x35fb44c6	1.8720973e-06
113	0x37594f1c	1.2952627e-05
114	0xb5d86b80	-1.6124541e-06
115	0x35fc2907	1.8787404e-06
116	0x35ae11df	1.2969211e-06
117	0xb477a974	-2.3065314e-07
118	0x371cd789	9.348508e-06
119	0xb6547000	-3.1655654e-06
120	0x3464dd3a	2.1314636e-07
121	0xb7a03d7a	-1.9102114e-05
122	0x3690c694	4.314652e-06
123	0x372d56bc	1.0331798e-05
124	0x35f2f7a3	1.8102477e-06
125	0x35708785	8.9604174e-07
126	0x355556f3	7.947521e-07
127	0xb6f13bb3	-7.1893096e-06

arith.constant22 f4 [2, 64]
0	0x3c833350	0.016015679
1	0x3d05ca57	0.03266367
2	0x3d2494e1	0.040181044
3	0xbd173f26	-0.036925457
4	0xbd05ec8b	-0.032696288
5	0x3d2c9391	0.042132918
6	0xbce945d4	-0.02847568
7	0x3d2a2e37	0.04154798
8	0x3c946e4c	0.018119
9	0xbd397663	-0.045278918
10	0x3cd8db8f	0.026471881
11	0x3bad15fe	0.0052821627
12	0x3c759c5e	0.014990894
13	0x3cda71b5	0.026665548
14	0x3cbc964e	0.02302089
15	0x3cf0d626	0.029398989
16	0xbd28383b	-0.04106925
17	0x3d0fde5b	0.035124164
18	0x3d27282e	0.040809803
19	0x3d1a4909	0.037667308
20	0x3c78d92a	0.015188495
21	0x3d304854	0.043037727
22	0xbcbde751	-0.02318159
23	0xbd1abc7a	-0.0377774
24	0xbcbccf96	-0.023048203
25	0x3d035b05	0.032069225
26	0x3d1ec257	0.038759556
27	0xbd3ecb3b	-0.046580534
28	0xbd02f8d3	-0.03197558
29	0x3d177064	0.03697242
30	0x3d1e1b96	0.038600527
31	0xbd14b29d	-0.03630315
32	0xbbfeba68	-0.007773686
33	0xbce06ec7	-0.027396573
34	0x3c844081	0.01614404
35	0xbd1adb62	-0.037806876
36	0xbc339230	-0.010960147
37	0x3cfd4df0	0.030920953
38	0x3c863b7b	0.016385784
39	0x3d0c97f7	0.034324612
40	0x3cfcc044	0.030853398
41	0xbb2819ed	-0.0025650219
42	0xbabc686e	-0.0014374384
43	0x3d3e0ee8	0.046400934
44	0xbd3af01f	-0.045639154
45	0xbcfaa9cb	-0.030598542
46	0x3cd75773	0.026286816
47	0x3bb4fc8c	0.00552327
48	0xbc8c7944	-0.017147668
49	0x3d13fbe1	0.036128882
50	0x3ce41d52	0.027846012
51	0xbd1252b3	-0.0357234
52	0x3cf5187a	0.029918898
53	0xbbf34e70	-0.007425122
54	0x39d18493	0.00039962362
55	0x3b9a6110	0.004711278
56	0x3c88dcfa	0.016706932
57	0x3ce785c8	0.028262034
58	0xbd2354d5	-0.039875824
59	0xbd274df2	-0.04084582
60	0xbd316618	-0.043310255
61	0x3cfa5e48	0.030562535
62	0x3d239dcb	0.039945405
63	0xbcb01dc0	-0.02149856
64	0x3d2ca4d4	0.04214938
65	0xbcf81f06	-0.03028823
66	0xbcbf2187	-0.023331417
67	0xbcd1ade6	-0.025595617
68	0xbced24aa	-0.028948147
69	0xbd033252	-0.03203041
70	0x3cd6721f	0.026177464
71	0xbcee9a08	-0.029126182
72	0x3ccd66a0	0.02507335
73	0xbcf21860	-0.029552639
74	0x3d02e21a	0.03195391
75	0xbce7e03a	-0.028305162
76	0x3d068667	0.03284302
77	0x3ce7cb17	0.028295083
78	0xbaa062e6	-0.0012236505
79	0xbc171acc	-0.0092226975
80	0x3c6ba99a	0.014383698
81	0x3ce6b53c	0.028162591
82	0xbcb9d71c	-0.02268558
83	0x3d08bcb7	0.033383097
84	0x3cfb5f88	0.030685201
85	0x3ccd5c9b	0.025068572
86	0x3cb7335b	0.022363355
87	0x3d05ffcf	0.03271466
88	0x3cf3fb45	0.0297829
89	0xbcf91b47	-0.030408515
90	0x3ce49710	0.027904063
91	0x3c90d9dc	0.017682008
92	0xbcdac4ca	-0.026705164
93	0xbcd9a0d2	-0.026565943
94	0x3af5978a	0.0018737179
95	0x3d0eeca7	0.034893658
96	0x3d05671d	0.03256904
97	0xbcb7ccfa	-0.022436608
98	0xbd053ab2	-0.03252668
99	0xbcab3e51	-0.020903738
100	0x3d00e3d3	0.03146727
101	0x3cea6028	0.028610304
102	0x3cf8a873	0.03035376
103	0xbd010664	-0.031500235
104	0x3cd83a92	0.026395116
105	0x3ca0874a	0.01959576
106	0xbce93db9	-0.028471814
107	0xbcd9b7c9	-0.026576893
108	0x3cf6a8d6	0.030109804
109	0xbc96f748	-0.01842846
110	0x3ce08d77	0.027411206
111	0x3d05dfb1	0.032684032
112	0xbc4f19ed	-0.0126404585
113	0xbd00fb65	-0.03148975
114	0xbce69a42	-0.028149728
115	0x3cf7085b	0.030155351
116	0xbcd12601	-0.025530817
117	0xbce9d124	-0.028542109
118	0xbb61fc2b	-0.003448258
119	0xbcd9bac6	-0.026578318
120	0x3ce5ff67	0.028075887
121	0x3ce5d7c3	0.028056985
122	0xbc8575b7	-0.016291482
123	0xbccd4318	-0.025056407
124	0xbc47f9c4	-0.012205545
125	0x3cf34024	0.02969367
126	0x3b82ac4f	0.003987826
127	0x3cff12de	0.031136926

arith.constant23 f4 [2, 64]
0	0xb9adfea4	-0.00033186853
1	0xbb2c3fb9	-0.00262831
2	0x3aae8255	0.0013313988
3	0xbc03f335	-0.008053591
4	0xbabf73a1	-0.0014606604
5	0xbc001049	-0.007816383
6	0x3b17301e	0.0023069452
7	0xbbfe6a11	-0.007764109
8	0x3ba8604a	0.0051384317
9	0xbac884b7	-0.0015298341
10	0xbb50002b	-0.0031738381
11	0xbbfe5f6b	-0.0077628396
12	0xba5fa6d4	-0.0008531634
13	0xbaf1ce52	-0.0018448329
14	0xbb35c352	-0.0027734828
15	0x3bb4c77e	0.0055169454
16	0xbb2372ed	-0.0024940327
17	0x3aeb31f7	0.0017943968
18	0xbb5c3666	-0.003360176
19	0x3a98e4b5	0.001166484
20	0xbbb6e8ec	-0.0055819657
21	0xbb3c36de	-0.0028719227
22	0xbaff199a	-0.0019462586
23	0x3bb71428	0.0055871196
24	0xba182f42	-0.0005805382
25	0xbb7cdc07	-0.0038583295
26	0x3b56841e	0.0032732557
27	0x3bb606c1	0.0055550043
28	0xbb36d353	-0.0027896955
29	0x3b837eca	0.004012917
30	0x3acedd92	0.0015782586
31	0x3ba53cc6	0.005042645
32	0xbb8aa869	-0.004231502
33	0xbb2cbf26	-0.002635905
34	0xbba0a0f7	-0.004902001
35	0x3bb6d6f6	0.0055798246
36	0x3b595fa2	0.0033168574
37	0x3b2846e4	0.002567702
38	0xba129e6b	-0.0005593064
39	0x3bcc7f93	0.006240794
40	0x3b62d7f5	0.0034613584
41	0xbaf84370	-0.0018940996
42	0x3b5f279b	0.0034050706
43	0x3c14af3b	0.009074981
44	0x3bc3430d	0.005958921
45	0x3bbe5e35	0.00580957
46	0x3bad45d2	0.0052878642
47	0xbb9f5a4c	-0.004863059
48	0x3b3b0e88	0.0028542597
49	0x3b719ba4	0.003686645
50	0x3b99d847	0.0046949717
51	0xbc045d1f	-0.008078842
52	0x3b7f2b50	0.0038935728
53	0xbba7594f	-0.005107082
54	0xbb59d55a	-0.003323874
55	0xbc228705	-0.0099198865
56	0x3b7d1bae	0.0038621235
57	0xbb9b5ed3	-0.0047415285
58	0xba4f2425	-0.00079018093
59	0x3bca2048	0.006168399
60	0xbb6ae7df	-0.0035843772
61	0x3b98781a	0.004652989
62	0x3b40381d	0.002933032
63	0x3af83cae	0.0018938982
64	0xbba7635a	-0.005108279
65	0xba6d2a4b	-0.00090471347
66	0x3b96a5ae	0.0045973873
67	0x3ad676e4	0.0016362336
68	0xbb757c0a	-0.0037457966
69	0x3c2a641e	0.010399846
70	0xbb5b06de	-0.0033420841
71	0xbac28818	-0.0014841584
72	0xbb8def25	-0.0043314868
73	0x3b509164	0.003182494
74	0x39abbdd7	0.00032757103
75	0xbab1d6ce	-0.0013568045
76	0xbb50e0ae	-0.00318722
77	0xbb93009a	-0.0044861557
78	0x3b0409fa	0.0020147548
79	0xb9ca0c37	-0.00038537543
80	0x3c2374bd	0.009976563
81	0xbb8cd076	-0.0042973114
82	0xbbbc0d29	-0.0057388735
83	0x3b86acb7	0.0041099447
84	0xb892ab1e	-6.9936956e-05
85	0x3a61cc34	0.00086134975
86	0xbb2ee6bf	-0.0026687828
87	0xbc177acf	-0.009245588
88	0x3b64a519	0.0034888445
89	0x3c26f945	0.010191266
90	0x3c458da7	0.012057698
91	0x3b4f73bd	0.0031654679
92	0x3b23544b	0.0024922069
93	0xbbb36067	-0.0054741385
94	0x3c059ce7	0.008155084
95	0x3b0dbcbd	0.002162739
96	0x3b921e52	0.004459181
97	0x3b959019	0.004564297
98	0x3b4e4d7a	0.0031479285
99	0x3a9bb281	0.001187876
100	0xbba40707	-0.0050057205
101	0xbbb49a57	-0.005511563
102	0xbb959504	-0.004564883
103	0x3bbab7a2	0.0056981603
104	0x390c6770	0.00013389974
105	0x3b528a7a	0.0032125995
106	0x3c102367	0.008797503
107	0x3bd865ed	0.0066039474
108	0x3b64ed15	0.003493135
109	0xba7a789a	-0.0009554714
110	0xbbb91a1c	-0.0056488644
111	0x3b9ae5cc	0.004727101
112	0xbb62fba8	-0.0034634862
113	0xbbe854b7	-0.007090177
114	0x3bf52a52	0.0074818516
115	0xba8a4285	-0.0010548389
116	0x3bb3e6e9	0.005490173
117	0xbbe25f35	-0.006908322
118	0xbb4b0492	-0.0030978066
119	0x3b1b43d7	0.0023691559
120	0x3b369d95	0.0027864922
121	0xbc27334d	-0.010205102
122	0xbabe1b98	-0.0014504073
123	0x380dbf9a	3.3795463e-05
124	0x3b9f0b7e	0.004853665
125	0x3bca7051	0.00617794
126	0x3ba1ad40	0.004933983
127	0x3aeae627	0.0017921374

arith.constant24 f4 [64]
0	0x41a104b2	20.127293
1	0x41c6bda1	24.842592
2	0x41cd121e	25.633846
3	0x41b869e6	23.051708
4	0x41bcd25c	23.602715
5	0x41de8a69	27.817583
6	0x4198422c	19.03231
7	0x41b00d1e	22.006405
8	0x419f833e	19.939083
9	0x41ab754e	21.432278
10	0x41abd806	21.48048
11	0x41bc51dd	23.539972
12	0x41d3fbbd	26.49792
13	0x41a6826c	20.813683
14	0x41ca276c	25.269249
15	0x41baf923	23.371649
16	0x41ae6053	21.797033
17	0x41f1071c	30.128471
18	0x41a19871	20.199434
19	0x41c35df4	24.420876
20	0x4194f257	18.61833
21	0x41b1cd72	22.225315
22	0x41c61a0b	24.762716
23	0x41b3f6a2	22.495426
24	0x41c447c8	24.53505
25	0x41b0af0d	22.085474
26	0x41a1b58b	20.213644
27	0x41a174d1	20.18204
28	0x41c35ee5	24.421335
29	0x41b384bd	22.439814
30	0x41ce4abd	25.786493
31	0x41b57f19	22.68706
32	0x41b4a4ce	22.580471
33	0x41c5077b	24.628653
34	0x41a9756e	21.182339
35	0x41b08716	22.06596
36	0x41a9d8cb	21.230856
37	0x41bf38d8	23.902756
38	0x417ec36e	15.922712
39	0x41a564c8	20.67421
40	0x41c1a970	24.207733
41	0x41b042c9	22.03261
42	0x41b3b6b1	22.464205
43	0x41c22945	24.270151
44	0x418ecae3	17.849066
45	0x41bc70f4	23.555153
46	0x41e1b0c7	28.211317
47	0x418b1323	17.384344
48	0x41a4dbd0	20.60733
49	0x418cdd3b	17.608023
50	0x41b9e67e	23.237545
51	0x41e1a957	28.207685
52	0x41ca3756	25.27702
53	0x4187b435	16.962992
54	0x41b81a89	23.012957
55	0x41a95fcb	21.171774
56	0x41aec070	21.843964
57	0x419a87b9	19.31627
58	0x41ca4079	25.28148
59	0x41c961cd	25.172754
60	0x41643e46	14.265203
61	0x41d3440d	26.408228
62	0x41b67d48	22.811172
63	0x41a32f63	20.398138

arith.constant25 f4 [64]
0	0xc07bcca6	-3.9343657
1	0x3dfc5c7e	0.12322329
2	0x3f1e444b	0.61822957
3	0xc108b714	-8.544697
4	0xc0922555	-4.567057
5	0x400ce742	2.2016149
6	0xc01ad83e	-2.4194484
7	0xc0c25c41	-6.0737615
8	0xc0aeb1c8	-5.459202
9	0xc02d53bf	-2.7082365
10	0x3eee9aa6	0.46602362
11	0xbfe7b11a	-1.8100922
12	0xc00c918a	-2.196383
13	0xc0f1f80f	-7.5615306
14	0xbedcd518	-0.43131328
15	0xbf233fe0	-0.6376934
16	0xc0ec6987	-7.3878818
17	0x407071b9	3.756941
18	0xbfd3f44b	-1.6558927
19	0xc06c6e6e	-3.69424
20	0x3e1825f3	0.14858226
21	0xc06415a2	-3.5638204
22	0xbff5eee2	-1.9213526
23	0xbfc395fe	-1.5280149
24	0xc079d377	-3.9035318
25	0xc105a09d	-8.351712
26	0xc09b00a2	-4.8438272
27	0xc05608ae	-3.3442798
28	0xbe1b37a1	-0.1515794
29	0xbf32ec9b	-0.6989228
30	0x40200ed9	2.5009062
31	0xc02edd37	-2.732252
32	0xc0c9a16b	-6.3009543
33	0xc098f7f0	-4.780266
34	0x3fe61088	1.7973795
35	0x3ffc52af	1.9712733
36	0xc080b960	-4.022629
37	0xc084b52f	-4.147117
38	0xbf858363	-1.0430721
39	0xbe2dae03	-0.16960911
40	0xc0ce2326	-6.4417906
41	0xc027bb63	-2.6208122
42	0x3f47410e	0.7783364
43	0xc0980a79	-4.7512784
44	0xbfc5e99e	-1.5461919
45	0xbfba9a24	-1.457829
46	0x3fcb2645	1.5871054
47	0xbf8c8114	-1.0976892
48	0xc092bd63	-4.5856185
49	0x3f342881	0.70374304
50	0x3f4a3cd8	0.7899909
51	0xc080ac2f	-4.0210185
52	0xc0b6c354	-5.711344
53	0xc00857fe	-2.1303706
54	0xc01e808b	-2.4765956
55	0xbf9111d2	-1.1333563
56	0xbfe25432	-1.7681944
57	0xbf775177	-0.9660868
58	0xbf43d052	-0.76489747
59	0xbe11f304	-0.1425286
60	0xc0a3dba1	-5.12056
61	0xbf4ee2da	-0.808149
62	0xc03a8c3b	-2.914809
63	0xc0a4cfb4	-5.1503544

arith.constant26 f4 [1, 1, 64]
0	0x3c7689a7	0.015047467
1	0x3b6f09e8	0.003647441
2	0x3b61e073	0.0034466058
3	0x3d1f42f3	0.038882207
4	0x3d1673d1	0.036731545
5	0x3c801705	0.015635977
6	0x3be28d33	0.006913805
7	0x3c526224	0.012840781
8	0x3c9dab72	0.01924679
9	0x3d08b2ee	0.033373766
10	0x3c01298b	0.00788344
11	0x3d04d54e	0.032429986
12	0x3d14e974	0.03635545
13	0x3caf3dbf	0.021391748
14	0x3c41d1c4	0.011829797
15	0x3c0b99f8	0.008520596
16	0x3d0a6449	0.033787046
17	0x3a17e86e	0.00057948276
18	0x3c533077	0.012889973
19	0x3c551a08	0.013006695
20	0x3c80df2a	0.015731413
21	0x3c8024b1	0.015642496
22	0x3c85d7a2	0.016338173
23	0x3cb68568	0.02228041
24	0x3c89fa83	0.016843086
25	0x3d09d63c	0.033651575
26	0x3c330224	0.010925803
27	0x3bdb8a49	0.0066998345
28	0x3bbc9f40	0.0057562888
29	0x3be93e2e	0.007118008
30	0x3befcb21	0.007317916
31	0x3c84d807	0.016216291
32	0x3c895f06	0.016768944
33	0x3d0f0c83	0.03492404
34	0x3c7e541a	0.015522981
35	0x3c133d34	0.00898676
36	0x3ce00947	0.027348174
37	0x3c832ea2	0.016013447
38	0x3c65a118	0.0140154585
39	0x3c4a4bc4	0.0123471655
40	0x3ced4c00	0.028966904
41	0x3c8feb19	0.017568158
42	0x3aae113e	0.0013280285
43	0x3c3a54f4	0.0113727935
44	0xbbb08b0b	-0.005387669
45	0x3c5f3ee5	0.013625835
46	0xbbd7051b	-0.006561888
47	0x3bb5b5cb	0.005545353
48	0x3c49f266	0.012325859
49	0xbc2d8c02	-0.0105924625
50	0x3c0b1e08	0.008491047
51	0x3d85040c	0.064949125
52	0x3d22bc20	0.03973019
53	0x3ba4c905	0.005028846
54	0x3c7750ee	0.015094979
55	0x3c55bb31	0.013045118
56	0xbc085a68	-0.008322336
57	0x3bc86281	0.006115258
58	0x3b83a03c	0.004016904
59	0x3ca21399	0.019784736
60	0x3cb4ee48	0.022086278
61	0x3bb21615	0.0054347613
62	0x3ca6adec	0.020346604
63	0x3ce22a9c	0.027608208

arith.constant27 f4 [1, 1, 256]
0	0x3bc68086	0.0060578017
1	0xbb0200d8	-0.0019836929
2	0x3b00f9e3	0.0019680194
3	0x3b3f0bac	0.0029151244
4	0x3ae7a137	0.0017671947
5	0x3a4781b0	0.00076105725
6	0x3b064a6d	0.0020491139
7	0xbb80ce37	-0.0039308327
8	0x3bb44601	0.005501509
9	0xb9181efa	-0.0001450739
10	0x3a47740a	0.0007608539
11	0x3aa9f04b	0.001296529
12	0xba99d5dd	-0.001173671
13	0xbbab2e5e	-0.0052240333
14	0x3a5057df	0.0007947664
15	0xba756c0c	-0.00093621085
16	0xb906ff2e	-0.00012874298
17	0xb9d451af	-0.0004049665
18	0xbc1364fe	-0.008996246
19	0xb887666a	-6.456378e-05
20	0xbb0145a3	-0.0019725345
21	0x3b022964	0.0019861097
22	0x3c1080f5	0.008819808
23	0xbc1cd920	-0.009573251
24	0x3c5168f4	0.01278137
25	0x3bd87ea4	0.0066068936
26	0xbbcd730a	-0.0062698172
27	0x3aa0c4d0	0.0012265686
28	0x3a1dd1af	0.000602032
29	0xb91550a8	-0.00014239794
30	0xbb4f2c79	-0.00316122
31	0xba3ece28	-0.00072786445
32	0x3aa3d9ec	0.0012500859
33	0xbbb70125	-0.0055848532
34	0xbbb98468	-0.005661536
35	0x3c094b51	0.008379773
36	0xbb03cf7f	-0.002011269
37	0xbba57648	-0.0050495006
38	0x3ba547e8	0.0050439723
39	0xbc056296	-0.0081411805
40	0x3bec6642	0.0072143385
41	0x3b9f7708	0.0048664846
42	0x3bec5891	0.0072127064
43	0x3b404206	0.0029336228
44	0xb83737c1	-4.3682525e-05
45	0x3bc22057	0.0059242654
46	0xbbe02b55	-0.006841103
47	0xbba1bb41	-0.0049356525
48	0xbaa28232	-0.001239842
49	0x3ab93a12	0.0014131686
50	0xbb925366	-0.0044655083
51	0x3c4d7ac1	0.012541474
52	0xbb218366	-0.002464497
53	0xbb2e307d	-0.0026579194
54	0xbc4e7003	-0.012599948
55	0xbb21ad74	-0.0024670037
56	0xbc15a907	-0.009134538
57	0x3b1c9844	0.0023894468
58	0xbba401bf	-0.005005091
59	0x3b84eb53	0.004056373
60	0x3b3042ba	0.002689524
61	0xbbe0960c	-0.0068538245
62	0xbaf8c29c	-0.0018978897
63	0x3b5885f5	0.003303883
64	0x3b207ef8	0.0024489742
65	0xbbf96c00	-0.0076117516
66	0x3c10b733	0.008832741
67	0x3b06be80	0.0020560324
68	0x3bfcb6b2	0.0077122087
69	0x3bb95bc3	0.005656691
70	0xbbd20a74	-0.0064099375
71	0xbbf74770	-0.007546358
72	0x3bb25ae0	0.005442962
73	0x3bb6472e	0.0055626845
74	0xbbc36c08	-0.005963806
75	0x3b93f8f7	0.004515763
76	0xbbf51cd8	-0.007480245
77	0xbbbefe25	-0.005828636
78	0xba585214	-0.00082519767
79	0xbc00aa8b	-0.007853161
80	0xbba39f8e	-0.0049933856
81	0xbb224af1	-0.0024763907
82	0x3bd45687	0.0064800414
83	0x3b50b782	0.003184766
84	0x3b12cdd5	0.0022400517
85	0xbc3cd40f	-0.011525168
86	0x39bc1749	0.00035875503
87	0xba121f5a	-0.000557413
88	0x38b1fb44	8.4868196e-05
89	0x3c04e70e	0.008111728
90	0x3c1faa80	0.00974524
91	0x3b99804c	0.0046844836
92	0xbb47ff35	-0.0030517105
93	0xbacefbea	-0.0015791629
94	0xbaa57871	-0.0012624395
95	0xbae80618	-0.0017702011
96	0xbab5a846	-0.0013859353
97	0xbc00bd76	-0.007857671
98	0x3aa86d0a	0.0012849879
99	0x3ad0939a	0.0015913129
100	0x3b9f1f02	0.0048559913
101	0x3bfcd7ac	0.00771614
102	0xbb96d047	-0.0046024653
103	0x3b996e04	0.0046823043
104	0xbb7402cc	-0.0037233112
105	0xbbc1472c	-0.005898377
106	0xbae39de3	-0.001736578
107	0xbb4e578c	-0.0031485287
108	0xbc13972e	-0.009008212
109	0x3be5e670	0.0070159957
110	0xba4f1155	-0.0007899006
111	0xbbd5047d	-0.006500779
112	0xbc15ac9a	-0.00913539
113	0xbc09931e	-0.008396892
114	0x3bb00e79	0.005372819
115	0xbb91d89c	-0.0044508707
116	0xbc1d9695	-0.009618421
117	0xbb9d3c1b	-0.004798425
118	0xba698f96	-0.00089096406
119	0x3a827c2c	0.0009955219
120	0xb8f26ed6	-0.00011560104
121	0x393a3569	0.00017758239
122	0x3b8a0989	0.0042125625
123	0xbb8ffbb7	-0.0043940204
124	0xbb9246ec	-0.004464021
125	0x3ad618da	0.0016334311
126	0x3b0d42db	0.0021554742
127	0x3b933293	0.004492113
128	0x3c04febf	0.008117377
129	0x3b1e019c	0.0024109846
130	0xbc1c288a	-0.00953115
131	0xba163cab	-0.0005731086
132	0xbbfe304a	-0.0077572213
133	0xbae06506	-0.0017119951
134	0xbc3e607f	-0.011619686
135	0x3bd1ec27	0.0064063254
136	0xbaef4b62	-0.0018256719
137	0x3a558eb8	0.0008146572
138	0x3bfe5db2	0.007762634
139	0x3befd274	0.007318789
140	0x3b9eea3a	0.0048496993
141	0xbc077c7b	-0.008269425
142	0x3abd7407	0.0014454135
143	0xbbef8208	-0.007309202
144	0xbbcab45b	-0.006186051
145	0xbb6fb34a	-0.003657537
146	0xbbb0b68f	-0.0053928564
147	0x3b9550d5	0.004556755
148	0x3c2d1cff	0.010565995
149	0xbb068dfe	-0.0020531411
150	0x3b66a6dd	0.0035194673
151	0x3c1818ac	0.009283226
152	0xbbb57b9d	-0.0055384175
153	0xbab390ce	-0.0013699771
154	0x3ba71eb5	0.005100096
155	0x3b4afffb	0.003097533
156	0xbb03bf77	-0.0020103136
157	0x3bedde6b	0.0072591803
158	0xbb823b1f	-0.003974333
159	0x39b58ff3	0.0003463026
160	0xb98e3d52	-0.00027130038
161	0x3b69d915	0.003568237
162	0xbba1de79	-0.004939851
163	0x3bbecd3c	0.0058228057
164	0xbb4aecd3	-0.0030963912
165	0xbb72fc4a	-0.0037076646
166	0x3bdc29db	0.0067188567
167	0x3b1dc111	0.0024071375
168	0xbbb08b87	-0.0053877267
169	0xbac215a1	-0.0014807471
170	0x3b8c8785	0.004288616
171	0x39ea3532	0.00044671592
172	0xbc07ee7f	-0.008296608
173	0xbb6f0148	-0.003646927
174	0xbb9bbf9e	-0.004753067
175	0x3b49ac76	0.003077296
176	0x3bc192b7	0.0059073824
177	0xbc6a5ea0	-0.014304787
178	0x3adff594	0.0017086738
179	0x3b588a2e	0.0033041346
180	0x3b303bd5	0.0026891131
181	0xbbc7b9f0	-0.0060951635
182	0x3c3ae1c8	0.0114063695
183	0x3b062663	0.0020469658
184	0x3b6ede2d	0.0036448345
185	0x3b7e7c64	0.0038831467
186	0x3bbd10f9	0.0057698456
187	0xbc2c1764	-0.010503624
188	0xbc2d2434	-0.0105677135
189	0xbbfa4be0	-0.0076384395
190	0x3b04b94d	0.002025205
191	0x3a055d2e	0.0005087432
192	0x39fcdd40	0.0004823003
193	0xbbfeb99e	-0.007773592
194	0xb9bfb072	-0.0003656182
195	0x3b8af39d	0.0042404667
196	0x3c5d67ab	0.013513486
197	0xbc1046a5	-0.0088059055
198	0xb9d13ff4	-0.00039911235
199	0xbb2e169f	-0.0026563776
200	0x3c43ac92	0.011942999
201	0x397a1510	0.00023849704
202	0xb9f020b6	-0.0004580074
203	0xbba379f6	-0.004988904
204	0xbb11b8a1	-0.0022235292
205	0x3b4f6bb6	0.0031649894
206	0xbc890d8e	-0.016730096
207	0xbb1c8569	-0.002388323
208	0xbb5aa3d9	-0.003336182
209	0xbc27ed74	-0.010249484
210	0xbbd1e49c	-0.006405426
211	0x3c2d8584	0.010590915
212	0x3b30fa8d	0.0027004809
213	0x3b55a074	0.0032596858
214	0xbaa96193	-0.0012922756
215	0x3ac96017	0.001536372
216	0x3c03e404	0.008049969
217	0x3bdfb800	0.0068273544
218	0xbb8b773b	-0.0042561567
219	0x3bdc0fa1	0.0067157303
220	0x3c06ec2c	0.008235019
221	0x3bec33c0	0.0072083175
222	0xbba745ca	-0.005104755
223	0xbbf23aaa	-0.007392247
224	0xbb18cc1b	-0.0023315016
225	0xba8d6998	-0.0010788916
226	0x3b81e268	0.0039637573
227	0x3b3ad1f9	0.00285065
228	0x3b21fa86	0.0024715974
229	0xbb157d74	-0.0022810372
230	0x3c328d1e	0.010897903
231	0xb988a893	-0.0002606554
232	0xba3ef178	-0.00072839065
233	0xbc535d12	-0.012900608
234	0xbb9918d2	-0.0046721483
235	0xbc32cfe5	-0.010913824
236	0xbbfa3e6d	-0.0076368363
237	0xbc0a855e	-0.008454649
238	0xbadafd8a	-0.0016707641
239	0xbb984a97	-0.0046475637
240	0x3c196ca7	0.009364284
241	0xbba0936a	-0.0049003856
242	0xbaa496bc	-0.0012557129
243	0xbbc99809	-0.006152157
244	0x3a1059f1	0.00055065664
245	0xbbc64f77	-0.0060519534
246	0x3bd6d6c6	0.0065563647
247	0x3bd40877	0.0064707357
248	0xbb09e7d9	-0.0021042733
249	0x3b6495e6	0.0034879385
250	0xbb4d4684	-0.0031322548
251	0x3bb7fb4e	0.0056146747
252	0xbbeff77f	-0.007323205
253	0x3bb06612	0.0053832615
254	0xbc3bf55e	-0.011472074
255	0x3bfa77e6	0.0076436875

arith.constant28 f4 [1, 1, 256]
0	0x3f8445d9	1.0333816
1	0x3f82a5da	1.0206864
2	0x3f834777	1.0256184
3	0x3f8052f6	1.0025318
4	0x3f815024	1.0102582
5	0x3f81977e	1.0124357
6	0x3f828c30	1.0199032
7	0x3f81526d	1.0103279
8	0x3f816043	1.0107502
9	0x3f82a2d0	1.0205936
10	0x3f8169de	1.0110433
11	0x3f83cc35	1.0296694
12	0x3f838266	1.027417
13	0x3f81beb1	1.0136319
14	0x3f835f9a	1.026355
15	0x3f83fb51	1.0311071
16	0x3f826118	1.0185881
17	0x3f8289ee	1.0198343
18	0x3f828820	1.0197792
19	0x3f82db85	1.0223242
20	0x3f853269	1.0406009
21	0x3f81362a	1.0094655
22	0x3f8597fb	1.0437006
23	0x3f831538	1.024085
24	0x3f83f498	1.0309019
25	0x3f8482c7	1.035241
26	0x3f81b06a	1.0131962
27	0x3f837227	1.0269212
28	0x3f83873d	1.0275646
29	0x3f845db4	1.0341096
30	0x3f812f1c	1.0092502
31	0x3f823b2a	1.0174305
32	0x3f830768	1.0236635
33	0x3f862743	1.0480732
34	0x3f836e72	1.026808
35	0x3f84177a	1.0319664
36	0x3f845f37	1.0341557
37	0x3f83e35a	1.0303757
38	0x3f825d33	1.0184692
39	0x3f82726a	1.0191166
40	0x3f83da44	1.0300984
41	0x3f828a00	1.0198364
42	0x3f8335ff	1.0250853
43	0x3f802566	1.0011413
44	0x3f81e3d5	1.0147654
45	0x3f81873a	1.0119393
46	0x3f844fee	1.0336893
47	0x3f836324	1.026463
48	0x3f8244c3	1.0177234
49	0x3f814898	1.0100279
50	0x3f830579	1.0236045
51	0x3f84c847	1.037362
52	0x3f86ee99	1.0541564
53	0x3f81d9dd	1.0144612
54	0x3f826147	1.0185937
55	0x3f829dee	1.0204446
56	0x3f819320	1.0123024
57	0x3f8340aa	1.0254109
58	0x3f81ad32	1.013098
59	0x3f816247	1.0108117
60	0x3f832aaf	1.0247401
61	0x3f83e6e5	1.0304838
62	0x3f8285f1	1.0197126
63	0x3f84dfba	1.0380776
64	0x3f825e4e	1.018503
65	0x3f85e0bf	1.0459212
66	0x3f831f0e	1.0243852
67	0x3f844124	1.0332379
68	0x3f8347d0	1.025629
69	0x3f8358ea	1.026151
70	0x3f80fe9f	1.0077704
71	0x3f832c64	1.0247922
72	0x3f83233a	1.0245125
73	0x3f859d12	1.0438559
74	0x3f831cc5	1.0243155
75	0x3f841cc2	1.0321276
76	0x3f81f4a3	1.0152782
77	0x3f84de47	1.0380334
78	0x3f83dc66	1.0301635
79	0x3f8414e4	1.0318875
80	0x3f828e3a	1.0199654
81	0x3f830343	1.023537
82	0x3f832218	1.024478
83	0x3f8104f3	1.0079635
84	0x3f866aad	1.0501305
85	0x3f818132	1.0117552
86	0x3f8208f5	1.0158983
87	0x3f82a70b	1.0207227
88	0x3f82ceaa	1.0219319
89	0x3f8525b7	1.0402135
90	0x3f8229ef	1.0169047
91	0x3f8558fa	1.0417778
92	0x3f8348c8	1.0256586
93	0x3f860773	1.0471023
94	0x3f85a746	1.0441673
95	0x3f8272ec	1.0191321
96	0x3f84c288	1.0371866
97	0x3f83c5e6	1.0294769
98	0x3f842840	1.0324783
99	0x3f86ae94	1.0522027
100	0x3f82e3df	1.0225791
101	0x3f823827	1.0173386
102	0x3f826a88	1.0188761
103	0x3f83285f	1.0246695
104	0x3f813b04	1.0096135
105	0x3f857f4a	1.042947
106	0x3f83a5c2	1.028496
107	0x3f80e550	1.0069981
108	0x3f862dcf	1.048273
109	0x3f827efe	1.0195005
110	0x3f86f2f1	1.054289
111	0x3f82cb41	1.0218278
112	0x3f86f480	1.0543365
113	0x3f84af94	1.0366082
114	0x3f842693	1.0324272
115	0x3f7e97c4	0.99450326
116	0x3f841c38	1.0321112
117	0x3f809a0a	1.0047009
118	0x3f8186f4	1.011931
119	0x3f8105a3	1.0079845
120	0x3f8564fb	1.0421442
121	0x3f816e08	1.0111704
122	0x3f82d8c7	1.0222405
123	0x3f86591d	1.0495945
124	0x3f809661	1.0045892
125	0x3f82f98c	1.0232406
126	0x3f8218e2	1.0163844
127	0x3f8367be	1.0266035
128	0x3f843870	1.0329723
129	0x3f858b94	1.0433221
130	0x3f8406b1	1.0314542
131	0x3f8389f3	1.0276474
132	0x3f818602	1.0119021
133	0x3f834c0b	1.0257581
134	0x3f848784	1.0353856
135	0x3f83b595	1.028979
136	0x3f864d25	1.0492293
137	0x3f861859	1.047618
138	0x3f844632	1.0333922
139	0x3f84a96d	1.0364205
140	0x3f834286	1.0254676
141	0x3f836966	1.026654
142	0x3f83132f	1.0240229
143	0x3f82c182	1.0215304
144	0x3f846862	1.0344355
145	0x3f823fa8	1.0175676
146	0x3f844e19	1.0336334
147	0x3f839a54	1.0281472
148	0x3f863908	1.0486155
149	0x3f83bd73	1.029219
150	0x3f83611b	1.0264009
151	0x3f83d1f4	1.0298448
152	0x3f81a4d3	1.0128425
153	0x3f83543c	1.0260081
154	0x3f85f9a0	1.0466805
155	0x3f8292a1	1.0200998
156	0x3f8295be	1.0201948
157	0x3f847972	1.0349562
158	0x3f824036	1.0175846
159	0x3f84cb11	1.0374471
160	0x3f8434d5	1.0328623
161	0x3f83248c	1.0245528
162	0x3f81d497	1.0143002
163	0x3f836234	1.0264344
164	0x3f85dcb9	1.0457984
165	0x3f830571	1.0236036
166	0x3f82ecbc	1.0228496
167	0x3f861e44	1.0477986
168	0x3f808a27	1.0042161
169	0x3f8461f4	1.0342393
170	0x3f82bb12	1.0213339
171	0x3f82a038	1.0205145
172	0x3f85aed4	1.0443978
173	0x3f848608	1.0353403
174	0x3f874350	1.0567417
175	0x3f83d12c	1.0298209
176	0x3f83e6a7	1.0304765
177	0x3f837a74	1.0271745
178	0x3f81b65b	1.0133775
179	0x3f82f422	1.0230753
180	0x3f8303d1	1.023554
181	0x3f84ca69	1.0374271
182	0x3f8731e0	1.0562096
183	0x3f83f480	1.030899
184	0x3f85ecd2	1.0462897
185	0x3f82efb9	1.0229408
186	0x3f813c67	1.0096558
187	0x3f8152a3	1.0103344
188	0x3f82f4a2	1.0230906
189	0x3f82859e	1.0197027
190	0x3f822582	1.0167696
191	0x3f819fd1	1.0126897
192	0x3f830ac0	1.0237656
193	0x3f830040	1.0234451
194	0x3f83bedf	1.0292624
195	0x3f83b5d1	1.0289861
196	0x3f865c2d	1.049688
197	0x3f85a05f	1.0439566
198	0x3f83a529	1.0284778
199	0x3f818ada	1.0120499
200	0x3f80fdf2	1.0077498
201	0x3f804476	1.0020893
202	0x3f831993	1.024218
203	0x3f8406ac	1.0314536
204	0x3f838695	1.0275446
205	0x3f841f09	1.0321971
206	0x3f83547f	1.0260161
207	0x3f832e85	1.0248572
208	0x3f831c41	1.0242997
209	0x3f830e43	1.0238727
210	0x3f8130f4	1.0093064
211	0x3f80c5e7	1.0060395
212	0x3f828dc8	1.0199518
213	0x3f82d012	1.0219748
214	0x3f81f27e	1.0152128
215	0x3f831efc	1.0243831
216	0x3f837e79	1.0272971
217	0x3f80d14f	1.0063876
218	0x3f85a699	1.0441467
219	0x3f84800d	1.0351578
220	0x3f85caff	1.0452574
221	0x3f843df6	1.0331409
222	0x3f82b74e	1.021219
223	0x3f843128	1.0327501
224	0x3f8572f8	1.0425711
225	0x3f829d98	1.0204344
226	0x3f83d597	1.0299557
227	0x3f811136	1.0083377
228	0x3f83b3d6	1.0289257
229	0x3f833b78	1.0252523
230	0x3f83df43	1.0302509
231	0x3f82cd4b	1.02189
232	0x3f8282f6	1.0196216
233	0x3f8352be	1.0259626
234	0x3f86f40d	1.0543228
235	0x3f8131e5	1.0093352
236	0x3f83fa62	1.0310786
237	0x3f81814f	1.0117587
238	0x3f840912	1.0315268
239	0x3f830f64	1.0239072
240	0x3f830373	1.0235428
241	0x3f857b99	1.0428344
242	0x3f83cf58	1.0297651
243	0x3f834e91	1.0258352
244	0x3f85f852	1.0466406
245	0x3f83ceb3	1.0297455
246	0x3f80f5c5	1.0075003
247	0x3f831c43	1.0243
248	0x3f8316ea	1.0241368
249	0x3f83dc55	1.0301615
250	0x3f82d665	1.0221678
251	0x3f813fc0	1.009758
252	0x3f84854f	1.0353183
253	0x3f833f71	1.0253736
254	0x3f835b9b	1.0262331
255	0x3f81f624	1.0153241

arith.constant29 f4 [64]
0	0x00000000	0.0
1	0x00000000	0.0
2	0x00000000	0.0
3	0x00000000	0.0
4	0x00000000	0.0
5	0x00000000	0.0
6	0x00000000	0.0
7	0x00000000	0.0
8	0x00000000	0.0
9	0x00000000	0.0
10	0x00000000	0.0
11	0x00000000	0.0
12	0x00000000	0.0
13	0x00000000	0.0
14	0x00000000	0.0
15	0x00000000	0.0
16	0x00000000	0.0
17	0x00000000	0.0
18	0x00000000	0.0
19	0x00000000	0.0
20	0x00000000	0.0
21	0x00000000	0.0
22	0x00000000	0.0
23	0x00000000	0.0
24	0x00000000	0.0
25	0x00000000	0.0
26	0x00000000	0.0
27	0x00000000	0.0
28	0x00000000	0.0
29	0x00000000	0.0
30	0x00000000	0.0
31	0x00000000	0.0
32	0x00000000	0.0
33	0x00000000	0.0
34	0x00000000	0.0
35	0x00000000	0.0
36	0x00000000	0.0
37	0x00000000	0.0
38	0x00000000	0.0
39	0x00000000	0.0
40	0x00000000	0.0
41	0x00000000	0.0
42	0x00000000	0.0
43	0x00000000	0.0
44	0x00000000	0.0
45	0x00000000	0.0
46	0x00000000	0.0
47	0x00000000	0.0
48	0x00000000	0.0
49	0x00000000	0.0
50	0x00000000	0.0
51	0x00000000	0.0
52	0x00000000	0.0
53	0x00000000	0.0
54	0x00000000	0.0
55	0x00000000	0.0
56	0x00000000	0.0
57	0x00000000	0.0
58	0x00000000	0.0
59	0x00000000	0.0
60	0x00000000	0.0
61	0x00000000	0.0
62	0x00000000	0.0
63	0x00000000	0.0

tfl.pseudo_qconst i1 [256, 128]
0	0x68	104
1	0xe0	-32
2	0xf9	-7
3	0x01	1
4	0x04	4
5	0xc7	-57
6	0x53	83
7	0xcf	-49
8	0x16	22
9	0xcc	-52
10	0x31	49
11	0xa7	-89
12	0xd8	-40
13	0x74	116
14	0xd7	-41
15	0x64	100
16	0x6a	106
17	0x09	9
18	0xb2	-78
19	0xd3	-45
20	0xdb	-37
21	0x21	33
22	0xb3	-77
23	0xcd	-51
24	0x9d	-99
25	0x60	96
26	0x37	55
27	0x4e	78
28	0x71	113
29	0x16	22
30	0x4e	78
31	0x1d	29
32	0xe5	-27
33	0xbc	-68
34	0x22	34
35	0x3e	62
36	0xb3	-77
37	0x04	4
38	0xb5	-75
39	0xf7	-9
40	0x4c	76
41	0xb0	-80
42	0xf7	-9
43	0x64	100
44	0xbd	-67
45	0xe2	-30
46	0xb4	-76
47	0x70	112
48	0xe9	-23
49	0x55	85
50	0x7f	127
51	0xe7	-25
52	0x1d	29
53	0x5d	93
54	0xb4	-76
55	0x16	22
56	0x90	-112
57	0x9e	-98
58	0x8e	-114
59	0xff	-1
60	0x5c	92
61	0x1d	29
62	0xfd	-3
63	0x48	72
64	0x0d	13
65	0x42	66
66	0x68	104
67	0xbb	-69
68	0x46	70
69	0x08	8
70	0xe9	-23
71	0x68	104
72	0xf9	-7
73	0x70	112
74	0xe4	-28
75	0xf1	-15
76	0xcd	-51
77	0x0e	14
78	0x02	2
79	0x72	114
80	0x0e	14
81	0xde	-34
82	0x2c	44
83	0x3a	58
84	0x33	51
85	0x09	9
86	0xed	-19
87	0x0f	15
88	0xe3	-29
89	0xe8	-24
90	0x43	67
91	0x06	6
92	0x52	82
93	0x57	87
94	0x47	71
95	0x63	99
96	0x30	48
97	0x23	35
98	0x40	64
99	0xd1	-47
100	0x0b	11
101	0xeb	-21
102	0x2d	45
103	0x15	21
104	0x65	101
105	0x16	22
106	0x6c	108
107	0x66	102
108	0x41	65
109	0xa5	-91
110	0x40	64
111	0xf1	-15
112	0x32	50
113	0x65	101
114	0xe2	-30
115	0xb4	-76
116	0xef	-17
117	0xe5	-27
118	0xdb	-37
119	0xc2	-62
120	0xf3	-13
121	0x02	2
122	0x11	17
123	0xdb	-37
124	0xce	-50
125	0xe0	-32
126	0xf9	-7
127	0x22	34
128	0x26	38
129	0xb0	-80
130	0x6d	109
131	0x97	-105
132	0x53	83
133	0x94	-108
134	0x6c	108
135	0x1c	28
136	0x14	20
137	0x9a	-102
138	0x9c	-100
139	0xde	-34
140	0xe3	-29
141	0x5b	91
142	0x2a	42
143	0xdb	-37
144	0xb9	-71
145	0xf5	-11
146	0x0c	12
147	0x8d	-115
148	0xbd	-67
149	0x78	120
150	0x4b	75
151	0xaf	-81
152	0x11	17
153	0xeb	-21
154	0x2f	47
155	0x0c	12
156	0x63	99
157	0xd9	-39
158	0x0b	11
159	0x6b	107
160	0xd2	-46
161	0x5b	91
162	0xdc	-36
163	0xa1	-95
164	0x7e	126
165	0xbf	-65
166	0x8d	-115
167	0xf4	-12
168	0xf5	-11
169	0x44	68
170	0xd2	-46
171	0xca	-54
172	0xd9	-39
173	0x7f	127
174	0x11	17
175	0x1e	30
176	0xe7	-25
177	0xc6	-58
178	0x48	72
179	0xfe	-2
180	0x43	67
181	0x8d	-115
182	0x67	103
183	0x06	6
184	0x5a	90
185	0x55	85
186	0x95	-107
187	0x0b	11
188	0x6b	107
189	0xd3	-45
190	0x5d	93
191	0xee	-18
192	0x34	52
193	0xa7	-89
194	0x35	53
195	0x62	98
196	0xc9	-55
197	0x26	38
198	0x4b	75
199	0xdd	-35
200	0x52	82
201	0x53	83
202	0x02	2
203	0xeb	-21
204	0x62	98
205	0xf8	-8
206	0x11	17
207	0xcb	-53
208	0xbd	-67
209	0xd7	-41
210	0xef	-17
211	0xce	-50
212	0xe2	-30
213	0xec	-20
214	0xef	-17
215	0x26	38
216	0x19	25
217	0x67	103
218	0xb8	-72
219	0xed	-19
220	0x6f	111
221	0x3f	63
222	0xd7	-41
223	0x4b	75
224	0x2a	42
225	0x63	99
226	0x33	51
227	0xe2	-30
228	0x59	89
229	0x09	9
230	0xdb	-37
231	0x0d	13
232	0xa8	-88
233	0x30	48
234	0xf0	-16
235	0xea	-22
236	0xfc	-4
237	0xee	-18
238	0xa2	-94
239	0x96	-106
240	0x06	6
241	0x20	32
242	0xc8	-56
243	0xc2	-62
244	0x15	21
245	0xa4	-92
246	0x41	65
247	0xb4	-76
248	0xc9	-55
249	0xaf	-81
250	0x42	66
251	0xaf	-81
252	0x35	53
253	0xf4	-12
254	0xf9	-7
255	0xc2	-62
