app/src/main/assets/sign_language_model_no_attention.tflite (tflite, 357312 bytes, 15 tensors)

arith.constant10 f4 [15]
000000 7a 7f 36 bc f4 0e 3b bb 7c ab e6 3c 25 78 f3 bb
       -0.011138791 -0.0028542848 0.028157942 -0.007430094
000010 9b 64 4d bc 36 2d 8b bb ca 98 82 bb 3f fb 0f bc
       -0.012536193 -0.004247333 -0.003985499 -0.008787929
000020 bb 4a 99 3b d0 40 f7 bb db 13 9c 3b c7 27 1a 3c
       0.004678098 -0.007545568 0.004763109 0.009408898
000030 5f e2 d0 bc 3b 52 07 3c 59 36 61 3b
       -0.025498567 0.008259351 0.003436467

arith.constant11 f4 [256]
000000 46 bd a6 3c 8c 5f 2c 3d f3 a4 eb 3c d3 04 0a 3a
       0.020353924 0.042083308 0.028765177 0.0005265001
000010 8b 4d 60 3c 37 0d c3 3c e9 40 a2 39 4c 4d 9e 3c
       0.013690363 0.023810012 0.0003094741 0.019323967
000020 3a a8 18 3c 73 17 29 3d 10 09 09 3d 93 a4 de 3c
       0.009317452 0.04128213 0.03345591 0.027178084
000030 3f 7c 05 3d 1f fd 00 3c f8 b5 88 3c 38 a3 6d 3c
       0.032589193 0.007872849 0.016688332 0.014504246
000040 01 97 9f 3c ca 85 ae 3c 85 d7 8b 3c bc 01 b3 3c
       0.019481184 0.02130403 0.017070541 0.021851413
000050 ba ea 74 3d 3d ec 4c 3c 8e 5b 3f 3c e5 19 e3 3c
       0.059794165 0.0125074955 0.011679543 0.027722308
000060 e2 10 a8 b8 cf ae d6 3c cc 38 0a 3d 27 9d 2a 3c
       -8.014009e-05 0.026206402 0.033745572 0.010413445
000070 04 3a 36 3d ad b9 12 3d 1a 0d 2a 3d 58 2f b3 3c
       0.04448892 0.035821605 0.0415164 0.021873161
000080 6a 4f 2b 3d 6c 99 a9 3c c5 6a ea 3c dd 41 43 3d
       0.041823782 0.02070304 0.028615365 0.047670234
000090 fc cc b3 3c d0 61 be 3c 48 78 4f 3c 75 cb 5e 3d
       0.02194833 0.02324 0.012662955 0.05439325
0000a0 93 52 2a 3d 83 02 8e 3c 01 cb df 3b 0c 1f 05 3c
       0.041582655 0.017335182 0.00682962 0.008125078
0000b0 08 97 89 3c 7f d0 22 3d 5e 09 88 3c f6 02 c4 3c
       0.01679565 0.03974962 0.01660603 0.023927193
0000c0 39 c0 03 3d 53 93 bf 3c 02 32 80 3d 59 8f cf 3c
       0.03216574 0.02338568 0.06259538 0.025336908
0000d0 d8 fb 04 3d 92 b0 87 3c 16 ec 55 bb 4e 37 fd 3c
       0.03246674 0.016563687 -0.003264194 0.03091016
0000e0 48 d6 d8 3c 22 72 10 3d fd da 64 3d 86 58 14 3d
       0.026469365 0.035265096 0.055872906 0.036217235
0000f0 cd 7c ff 3c a4 85 82 3b 52 46 f1 3c 42 5d 99 3c
       0.03118744 0.0039832164 0.029452477 0.018721227
000100 83 2e 9f 3b 7b cf f9 bb 17 d3 d9 3b cd 8a 14 3c
       0.0048578396 -0.0076236106 0.0066474783 0.009066296
000110 d7 9b 21 3d 0c a6 8c 3c 63 3a 53 3d db ef a3 3c
       0.03945526 0.017169021 0.051569354 0.020011833
000120 34 8b fb 3c c2 6e a2 3c f0 19 7c 3c 06 68 d6 3c
       0.030706026 0.019828204 0.015387043 0.02617265
000130 1a 51 21 3d 92 84 dc 3c a9 fe 88 3c 0e cc 83 3d
       0.039383985 0.026918683 0.016722994 0.06435405
000140 d1 41 cb 3c 74 30 cb 3c c5 f6 3f 3d 5a 30 23 3d
       0.024811657 0.024803378 0.046866197 0.039841034
000150 e1 b8 21 3d b0 b1 d3 3c a8 d4 dd 3c 4b ce 65 3d
       0.039482955 0.025841564 0.027078941 0.05610494
000160 39 1e ab bb e2 d7 25 3d 8e 0c 24 3d e0 c1 8b 3c
       -0.0052221087 0.040489085 0.040051036 0.01706022
000170 05 03 1c 3c dd d8 cf 3c 5b 17 04 3d d9 38 f8 3c
       0.009522204 0.025371963 0.032248836 0.030300545
000180 64 ff a2 3c a8 1e b4 3c 50 fb 27 3d e9 29 10 3c
       0.01989717 0.021987274 0.041011155 0.008799055
000190 7f 5d e1 3c ec ee 9e 3c ba 52 1c 3d 00 09 80 3d
       0.027510403 0.019401036 0.03816483 0.062517166
0001a0 d7 72 29 3d 29 20 5a 3c 76 8f 40 3c f8 9a 31 3d
       0.041369285 0.013313332 0.011752954 0.04336068
0001b0 7a 00 fd 3c 82 e1 cf 3c e6 31 eb 3c c0 e6 8d 3c
       0.030884016 0.025376085 0.028710317 0.017321944
0001c0 f1 40 20 3c 51 db 4c 3c e4 0a 1e 3c c6 a7 01 3d
       0.009781108 0.012503461 0.009646151 0.03165414
0001d0 b1 2a 8a 3c 2e c0 b3 3c 8e 49 5c 3a ce a8 1d 3c
       0.01686606 0.021942224 0.00084032945 0.009622766
0001e0 d8 4a 80 3c 33 4b 81 3c 00 5b 3a 3c 01 30 31 3c
       0.015660688 0.015782928 0.011374235 0.010814668
0001f0 a5 c3 ee 3c 90 4e 9e 3c d3 91 8b 3c 2c 4e 37 3c
       0.029146025 0.01932457 0.017037308 0.011188071
000200 5f c4 ea 3c e3 c8 be 3b 32 ff 2a 3d 42 26 b4 3b
       0.02865809 0.0058222874 0.04174728 0.0054977247
000210 87 74 dd 3c fd 5b dc 3c 40 b2 d7 bb 12 ac a4 3c
       0.027033104 0.026899332 -0.0065825284 0.02010158
000220 73 ce f2 3c 91 b3 17 3d fb d6 9b 3c f1 28 17 3c
       0.029639458 0.037036482 0.01902341 0.00922607
000230 b9 02 f1 3c 81 80 a3 3c d0 72 25 3d 30 e7 c7 3c
       0.029420244 0.019958736 0.040392697 0.024402231
000240 ee d1 0f 3d fd d2 8d 3c 4f ab de 3c 0c 64 13 3c
       0.035112314 0.017312521 0.027181296 0.008996021
000250 9d 9d a9 3c 03 fc 60 3d 28 af 87 3c e2 e4 18 3d
       0.020705039 0.054927837 0.016563013 0.037327655
000260 0e c1 d3 3c a5 de ad 3c 7d c3 06 3d 37 24 5e 3c
       0.025848892 0.02122433 0.032901276 0.013558439
000270 96 d2 06 3d 53 f8 98 3c 6c 60 c3 3c ee 9e 9b 3c
       0.032915674 0.018673098 0.023849688 0.018996682
000280 26 8a d5 3c 9c c9 86 bb 89 76 c6 3c 5e a0 ff 3c
       0.02606685 -0.004113389 0.024226444 0.031204399
000290 08 af 3a 3d 67 53 67 3c ab a8 35 3c 9d 2f 3c 3c
       0.04557708 0.014119006 0.011087577 0.011485961
0002a0 d4 4c 8a 3c d5 c7 b6 3c 74 d4 b4 3b bf 2a 16 3b
       0.016882338 0.022312084 0.0055184904 0.0022913662
0002b0 b1 39 da 3c e8 31 a2 3c 60 96 a7 3c ab 09 4a 3c
       0.026638838 0.019799188 0.020457447 0.012331407
0002c0 a1 18 06 3d 60 83 4e 3c 25 29 58 3c 30 5d 11 3d
       0.03273833 0.012604564 0.013193403 0.03548926
0002d0 05 0b 25 3c bc 19 2b 3d e9 1b a7 3c c1 30 07 3d
       0.010073428 0.04177259 0.02039905 0.03300548
0002e0 12 0e 3d 3d b4 7d c3 3b 4e 0c bb 3c 5b c1 0a 3d
       0.046155997 0.0059659127 0.022833016 0.033875804
0002f0 cd 87 b6 3c 77 46 06 3c b8 a3 4f 3c 7d fb 4b 3d
       0.022281552 0.008195511 0.012673311 0.049800385
000300 d6 9c c6 3c 36 4d c0 3c 0c 6e dd 3b 74 e4 dc 3c
       0.024244707 0.023474317 0.0067575034 0.026964404
000310 5e aa 5f 3d 30 67 0d 3c e5 1b 23 3d d2 bf 40 3c
       0.054605834 0.008630559 0.039821524 0.0117644835
000320 94 ef 63 3d 9f 8c 02 3c 2f 08 41 3c 44 7a f0 ba
       0.0556484 0.007968097 0.011781736 -0.0018346985
000330 61 fd 24 3d 60 13 07 3d 61 7f 1b 3d 11 47 73 3b
       0.040280703 0.03297746 0.037963275 0.0037121216
000340 04 43 77 3c a3 da bb 3c b7 82 a3 3c 04 bb 03 3d
       0.015091661 0.022931403 0.01995979 0.032160774
000350 50 55 33 3c 5a ac c5 3b de a0 b9 3b c8 40 7d 3c
       0.010945633 0.006032509 0.005664929 0.01545734
000360 e8 e2 88 3c 89 67 c9 3c 3e d4 76 3d 54 8c 8f 3c
       0.01670976 0.024585502 0.060261004 0.017522968
000370 ba a1 96 3c 1b 42 c5 3c e5 21 27 3d 1e 56 af 3c
       0.018387664 0.024079373 0.04080381 0.021403369
000380 7a 02 54 3d e5 9b ad 3c 7c 1e 99 3c 7a 19 25 3d
       0.051760174 0.0211925 0.018691294 0.0403075
000390 fb f6 99 3b 0e b4 21 3d e6 c3 9d 3b 54 c2 fd 3c
       0.004698632 0.039478354 0.0048146127 0.030976452
0003a0 2a 7c b9 ba e2 a8 b2 3c b6 fd f9 3c 44 0e 4f 3d
       -0.0014151384 0.021809045 0.030516487 0.050550714
0003b0 06 bb 96 3c 79 22 5f 3b 87 21 d9 3c fa 8e c0 3c
       0.018399727 0.0034047647 0.026505245 0.023505677
0003c0 0d 1b 46 3d 1c 1e f7 3c ff fd d9 3c 0c ca 25 3d
       0.04836564 0.030165724 0.026610373 0.04047589
0003d0 9c 6f 01 3d 18 94 73 3c 12 9d 6f 3c 70 87 96 3c
       0.03160058 0.014866851 0.014624851 0.018375129
0003e0 75 83 30 3c 7d 1d bf 3b 0d 70 98 3c 13 f5 a1 3c
       0.010773529 0.0058323727 0.018608117 0.01977018
0003f0 61 77 47 3c a4 22 a9 3c a4 96 37 3d 3b d4 2d 3d
       0.012174458 0.0206464 0.044821396 0.042438727

arith.constant12 f4 [64]
000000 b3 01 97 41 9e 40 4d 41 14 53 75 41 41 eb 7f 41
       18.87583 12.828276 15.332783 15.994935
000010 8e c5 6b 41 7e 86 7d 41 77 4b 57 41 db 24 7a 41
       14.735731 15.845335 13.455924 15.633998
000020 bc f3 93 41 60 60 16 41 b2 99 8f 41 66 06 b1 41
       18.49401 9.398529 17.950047 22.128124
000030 c3 23 6d 41 e3 a4 49 41 d7 bf 42 41 cb e5 53 41
       14.821231 12.602756 12.171836 13.243602
000040 fa 8c 32 41 fb f8 48 41 45 d2 a9 41 cc b6 e8 41
       11.159418 12.560786 21.22767 29.089256
000050 64 f2 4a 41 e8 66 91 41 1a c0 4c 41 67 66 83 41
       12.684177 18.175247 12.7969 16.425001
000060 a5 3f 53 41 58 be 3d 41 ac 48 45 41 06 05 88 41
       13.203038 11.858971 12.330242 17.002453
000070 47 50 a1 41 25 17 22 41 1c dc 78 41 86 9b 4b 41
       20.164198 10.1306505 15.553738 12.72547
000080 7b 51 49 41 16 1c 16 41 1f 4b b0 41 ba 6b 2a 41
       12.582393 9.381857 22.03668 10.6513
000090 e5 c2 88 41 df 2a 85 41 5b 22 35 41 af cf 92 41
       17.095163 16.645933 11.320888 18.351408
0000a0 75 7a 7a 41 51 b7 a7 41 af c4 1c 41 08 c5 69 41
       15.654897 20.96451 9.798018 14.610603
0000b0 33 35 25 41 de 55 6a 41 b2 7a e1 41 1f 4e 98 41
       10.325488 14.645964 28.18491 19.038145
0000c0 02 5c 7f 41 c5 b2 ce 41 5d b2 84 41 df 2a 7b 41
       15.959963 25.83729 16.587091 15.697967
0000d0 50 eb 94 41 e2 a3 ca 41 46 e0 88 41 af 02 87 41
       18.614899 25.33002 17.109509 16.87631
0000e0 c2 37 b7 41 b4 93 7b 41 e9 07 98 41 cd 7e 92 41
       22.902225 15.72356 19.003862 18.311914
0000f0 33 1e 37 41 e0 8d 8e 41 77 02 7d 41 0e 05 c6 41
       11.444873 17.819275 15.813102 24.752468

arith.constant13 f4 [64]
000000 62 f9 0d c0 c0 2d 10 3d 6f 98 62 c0 77 2f 06 c0
       -2.218346 0.03519988 -3.5405538 -2.096647
000010 e7 a1 66 bf 28 30 be 3f 89 78 de bf 86 23 08 bf
       -0.90090793 1.4858446 -1.7380534 -0.53179204
000020 32 34 5b 3f b0 b0 ce bf ed 48 b7 bf ec 83 22 40
       0.8562652 -1.6147671 -1.431913 2.5393019
000030 a2 fb 02 c0 65 97 c1 bf 89 a0 fb bf c9 78 3d c0
       -2.0466084 -1.5124327 -1.9658366 -2.9604971
000040 04 4f b3 bf 18 df e3 bd 88 6b 10 40 53 0a 93 40
       -1.4008489 -0.11126536 2.2565632 4.5950103
000050 51 d4 0f c0 6d 37 0b bf 33 64 00 bf 14 c0 89 bf
       -2.2473338 -0.5438145 -0.5015289 -1.0761743
000060 9e a3 ee bf 12 12 c8 3e e1 bc e1 bf 1c 2d ba 3f
       -1.8643682 0.39076287 -1.7635766 1.4545016
000070 e6 f2 07 40 c6 c7 7a bf af 44 02 bf 0c e1 d0 bd
       2.1242003 -0.9796108 -0.5088605 -0.10199174
000080 71 f2 a7 bf ea 55 2a c0 ad dd 28 40 c5 c5 9a bf
       -1.3120862 -2.6614938 2.63853 -1.2091604
000090 0f 39 a1 3f f0 c6 55 bf 17 48 19 c0 9c 0a 21 c0
       1.2595538 -0.8350668 -2.395025 -2.5162725
0000a0 75 b1 9e be 09 ad 1d 3f 32 3a 6b bf 47 7b c3 3f
       -0.30994764 0.61592156 -0.91885674 1.5271996
0000b0 55 57 17 bf 8e 4b 18 bf d5 47 8e 40 12 d3 03 40
       -0.59117633 -0.5949029 4.4462686 2.0597577
0000c0 a9 4c 72 bf 49 f8 3a 40 bd 7c 36 be 19 bb 75 c0
       -0.94648224 2.9214041 -0.17821021 -3.8395445
0000d0 a8 5c ae 3f 0c cc 71 40 5c 02 5d c0 67 14 a1 bf
       1.3622026 3.778079 -3.453269 -1.2584351
0000e0 c3 53 ab 3f 0f ad 2e 3f 44 13 d5 bf 75 8c 00 40
       1.3384937 0.68232816 -1.6646504 2.0085728
0000f0 c7 8e cc bf 43 64 41 3e 6d e7 db bf 85 b7 6b 40
       -1.5981072 0.18885903 -1.718 3.6830761

arith.constant14 f4 [1, 1, 64]
000000 96 67 e9 3c 08 fc e8 3c 6a c4 c1 3c 04 b1 8e 3d
       0.028491776 0.02844049 0.023653228 0.06967357
000010 68 1d 84 3d bc 6e 3c bc d7 87 ad 3c 2c da a8 3b
       0.06450921 -0.0115010105 0.021182938 0.0051529612
000020 7b 17 a5 39 69 66 9e 3c 7d 4f 86 3d 58 9c 43 bb
       0.00031488747 0.019335942 0.0655813 -0.0029847827
000030 61 47 23 3d 90 13 5a 3c 96 70 04 3d bf 88 b4 3d
       0.039862994 0.013310328 0.032333933 0.08815145
000040 52 4e 12 3d 48 ca 8e 3c 33 16 58 bb 9c 1c ca bc
       0.035719223 0.01743044 -0.0032972216 -0.024671845
000050 7c 43 2e 3d 4c cf 76 3c f8 f5 ef 3c d7 d8 ad 3c
       0.042544827 0.015064072 0.029292092 0.021221561
000060 d0 99 0b 3d 3f 78 ed bb a7 57 86 3d ee 03 0e bc
       0.034082234 -0.0072470005 0.06559687 -0.008667929
000070 2b 03 8b bc c3 43 c4 3b c1 5e 07 3d af a6 e8 3b
       -0.016969284 0.005989523 0.03304935 0.0070999484
000080 fa 44 05 3d bd b4 6e 3d 43 80 69 bc a9 04 3e 3d
       0.032536484 0.058277834 -0.014251771 0.046391163
000090 3b af 28 3c b9 08 7b 3c e4 1f 96 3d 28 b3 83 3d
       0.010295684 0.015321904 0.073303014 0.06430656
0000a0 33 e8 aa 3c 2b 04 50 3c 60 60 09 3d 94 d2 d3 3a
       0.020862674 0.012696306 0.033539176 0.001616078
0000b0 3f a5 ae 3c 4f 6c d8 3c a9 65 5d bc d2 7c 53 3c
       0.02131903 0.026418833 -0.013513007 0.012908177
0000c0 24 a7 aa 3c 03 4a ee 3b 9e be c3 3c 09 8d 60 3d
       0.020831652 0.0072720065 0.023894604 0.054822
0000d0 be 7e f0 ba 3c 9f ea ba 71 a5 81 3d bb d3 46 3d
       -0.0018348319 -0.0017900239 0.063303836 0.048541766
0000e0 31 55 2c bb fd bf 17 3d d3 9f 45 3d 77 1a 98 3a
       -0.0026295895 0.03704833 0.048248123 0.0011604567
0000f0 54 2f aa 3c 18 ef 91 3c 7d a7 05 3d d1 2e e6 bb
       0.020774521 0.017814204 0.032630432 -0.007024624

arith.constant15 f4 [64]
000000 00 00 00 00 00 00 00 00 00 00 00 00 00 00 00 00
       0.0 0.0 0.0 0.0
000010 00 00 00 00 00 00 00 00 00 00 00 00 00 00 00 00
       0.0 0.0 0.0 0.0
000020 00 00 00 00 00 00 00 00 00 00 00 00 00 00 00 00
       0.0 0.0 0.0 0.0
000030 00 00 00 00 00 00 00 00 00 00 00 00 00 00 00 00
       0.0 0.0 0.0 0.0
000040 00 00 00 00 00 00 00 00 00 00 00 00 00 00 00 00
       0.0 0.0 0.0 0.0
000050 00 00 00 00 00 00 00 00 00 00 00 00 00 00 00 00
       0.0 0.0 0.0 0.0
000060 00 00 00 00 00 00 00 00 00 00 00 00 00 00 00 00
       0.0 0.0 0.0 0.0
000070 00 00 00 00 00 00 00 00 00 00 00 00 00 00 00 00
       0.0 0.0 0.0 0.0
000080 00 00 00 00 00 00 00 00 00 00 00 00 00 00 00 00
       0.0 0.0 0.0 0.0
000090 00 00 00 00 00 00 00 00 00 00 00 00 00 00 00 00
       0.0 0.0 0.0 0.0
0000a0 00 00 00 00 00 00 00 00 00 00 00 00 00 00 00 00
       0.0 0.0 0.0 0.0
0000b0 00 00 00 00 00 00 00 00 00 00 00 00 00 00 00 00
       0.0 0.0 0.0 0.0
0000c0 00 00 00 00 00 00 00 00 00 00 00 00 00 00 00 00
       0.0 0.0 0.0 0.0
0000d0 00 00 00 00 00 00 00 00 00 00 00 00 00 00 00 00
       0.0 0.0 0.0 0.0
0000e0 00 00 00 00 00 00 00 00 00 00 00 00 00 00 00 00
       0.0 0.0 0.0 0.0
0000f0 00 00 00 00 00 00 00 00 00 00 00 00 00 00 00 00
       0.0 0.0 0.0 0.0

tfl.pseudo_qconst i1 [64, 1, 3, 171]
000000 10 a6 0e 2a fa d2 07 d7 13 3d 1c 5d e7 e6 4f 37
       16 -90 14 42 -6 -46 7 -41 19 61 28 93 -25 -26 79 55
000010 e3 d8 f9 f8 6e cc 41 f4 53 b3 0d 34 59 08 2a 26
       -29 -40 -7 -8 110 -52 65 -12 83 -77 13 52 89 8 42 38
000020 19 1d 35 51 bf 3d 2a ca 8c c5 ff e2 cf 3e bc ed
       25 29 53 81 -65 61 42 -54 -116 -59 -1 -30 -49 62 -68 -19
000030 fc b8 db 70 0e d4 29 1e e5 47 3d 9e 0a 47 12 0a
       -4 -72 -37 112 14 -44 41 30 -27 71 61 -98 10 71 18 10
000040 cc 1d d7 c4 03 d6 bf 3c 13 bb ed 08 1d cc 2c ac
       -52 29 -41 -60 3 -42 -65 60 19 -69 -19 8 29 -52 44 -84
000050 3d 01 2d d5 82 c9 dd 01 c7 19 f5 f9 e0 f9 51 18
       61 1 45 -43 -126 -55 -35 1 -57 25 -11 -7 -32 -7 81 24
000060 e4 38 1e f5 cc ff fb 13 8c f8 fa a6 46 bb bf be
       -28 56 30 -11 -52 -1 -5 19 -116 -8 -6 -90 70 -69 -65 -66
000070 1d d5 25 c0 2b e7 d4 00 bf f5 59 5d c7 1a f3 c6
       29 -43 37 -64 43 -25 -44 0 -65 -11 89 93 -57 26 -13 -58
000080 ea ad d4 05 00 ff 1d fb c2 3d 0b c2 66 bd 43 5d
       -22 -83 -44 5 0 -1 29 -5 -62 61 11 -62 102 -67 67 93
000090 24 dc 3f d1 f8 1a 3a 2c 57 d4 39 09 c3 c6 13 b5
       36 -36 63 -47 -8 26 58 44 87 -44 57 9 -61 -58 19 -75
0000a0 b8 62 f2 ce cf fc 36 08 1b 27 da ac 43 1c 07 37
       -72 98 -14 -50 -49 -4 54 8 27 39 -38 -84 67 28 7 55
0000b0 da 42 b0 9a f7 c3 1a cd fb 53 fa 2e 53 32 b6 df
       -38 66 -80 -102 -9 -61 26 -51 -5 83 -6 46 83 50 -74 -33
0000c0 0a 29 dd c4 9e 18 d6 0a e2 a9 2a b8 1d fc 4b 28
       10 41 -35 -60 -98 24 -42 10 -30 -87 42 -72 29 -4 75 40
0000d0 38 ed 16 ac 3b 4f 52 f0 2e 02 d4 3b 9e 69 e5 12
       56 -19 22 -84 59 79 82 -16 46 2 -44 59 -98 105 -27 18
0000e0 2e f0 e3 da 63 3b cd a6 d7 0b a8 32 ae f9 dd 1e
       46 -16 -29 -38 99 59 -51 -90 -41 11 -88 50 -82 -7 -35 30
0000f0 10 3c e4 82 cb df f3 05 1e b1 15 e9 e0 03 e2 c4
       16 60 -28 -126 -53 -33 -13 5 30 -79 21 -23 -32 3 -30 -60

tfl.pseudo_qconst1 i1 [15, 256]
000000 dd a6 db e6 41 1c 25 62 6a a4 f0 01 02 17 0d d0
       -35 -90 -37 -26 65 28 37 98 106 -92 -16 1 2 23 13 -48
000010 dd ea dc b4 00 f2 c3 40 2b cb 91 d8 cd 38 d0 b7
       -35 -22 -36 -76 0 -14 -61 64 43 -53 -111 -40 -51 56 -48 -73
000020 fb cc 59 d1 5c 10 df bb 56 0b 30 f9 e0 d2 ed 3c
       -5 -52 89 -47 92 16 -33 -69 86 11 48 -7 -32 -46 -19 60
000030 07 31 ac e5 da 4d 5f 4e 2d 47 ea cc f3 bb aa ee
       7 49 -84 -27 -38 77 95 78 45 71 -22 -52 -13 -69 -86 -18
000040 a0 4c de 5c dd a4 bb a2 0f c6 06 2f d8 02 4d d9
       -96 76 -34 92 -35 -92 -69 -94 15 -58 6 47 -40 2 77 -39
000050 d7 c8 af 19 9a 58 f9 15 cd 1b 54 e1 3e 4a c4 53
       -41 -56 -81 25 -102 88 -7 21 -51 27 84 -31 62 74 -60 83
000060 46 ae ba ec 9b e7 7f 29 49 33 0b 56 cc 05 d9 0f
       70 -82 -70 -20 -101 -25 127 41 73 51 11 86 -52 5 -39 15
000070 54 ff 29 13 d4 ea 03 c6 21 b5 11 99 c1 3b 06 61
       84 -1 41 19 -44 -22 3 -58 33 -75 17 -103 -63 59 6 97
000080 00 11 ba 3c b1 ed c0 5b 32 ee 9c c3 4c 3b fb f9
       0 17 -70 60 -79 -19 -64 91 50 -18 -100 -61 76 59 -5 -7
000090 4e a4 03 0a c6 00 b4 cf 21 50 b7 02 bb a4 df 47
       78 -92 3 10 -58 0 -76 -49 33 80 -73 2 -69 -92 -33 71
0000a0 ae fc 5c a8 c2 8d ec 5a 05 e2 11 23 3b c8 1f a0
       -82 -4 92 -88 -62 -115 -20 90 5 -30 17 35 59 -56 31 -96
0000b0 e1 08 06 ed 5d b7 e8 99 d4 df 44 c2 be e3 fb c1
       -31 8 6 -19 93 -73 -24 -103 -44 -33 68 -62 -66 -29 -5 -63
0000c0 51 bf a2 2b ac 36 1a bf 1f c1 12 a6 15 04 53 c7
       81 -65 -94 43 -84 54 26 -65 31 -63 18 -90 21 4 83 -57
0000d0 e1 6d 1c 15 fa d4 34 f1 12 27 dc bd d3 9f 3f c6
       -31 109 28 21 -6 -44 52 -15 18 39 -36 -67 -45 -97 63 -58
0000e0 9b 05 bf 67 d2 4c c0 9d ea 3c ec c6 4a 21 24 38
       -101 5 -65 103 -46 76 -64 -99 -22 60 -20 -58 74 33 36 56
0000f0 4b 15 31 d9 10 fc 69 d4 bf bc cd 2a 66 38 9b 95
       75 21 49 -39 16 -4 105 -44 -65 -68 -51 42 102 56 -101 -107

tfl.pseudo_qconst2 i1 [256, 256]
000000 f1 25 f0 44 5e 2a d5 f4 68 e5 dd ca 0c 0a b5 5b
       -15 37 -16 68 94 42 -43 -12 104 -27 -35 -54 12 10 -75 91
000010 81 22 32 0e 47 d6 cd 5a de 23 0e 08 28 12 4f 1f
       -127 34 50 14 71 -42 -51 90 -34 35 14 8 40 18 79 31
000020 03 eb 06 32 16 0d 26 0c e9 0a 27 07 f8 0b 1a ff
       3 -21 6 50 22 13 38 12 -23 10 39 7 -8 11 26 -1
000030 ff 1b 02 1a ed f5 d3 13 e2 2f 1a 21 06 d4 19 0d
       -1 27 2 26 -19 -11 -45 19 -30 47 26 33 6 -44 25 13
000040 e1 16 0d f7 04 c8 5d c7 b1 eb fb 1a 02 ed 47 21
       -31 22 13 -9 4 -56 93 -57 -79 -21 -5 26 2 -19 71 33
000050 e0 05 1a fa 09 d0 fb 31 10 42 29 56 13 31 cb f9
       -32 5 26 -6 9 -48 -5 49 16 66 41 86 19 49 -53 -7
000060 18 57 25 02 0f 14 e9 10 1b e2 2b 5e f0 d1 b5 bc
       24 87 37 2 15 20 -23 16 27 -30 43 94 -16 -47 -75 -68
000070 f2 b9 0a 3d 25 b5 d7 23 f2 5d 9b 1b 0e 05 f1 e6
       -14 -71 10 61 37 -75 -41 35 -14 93 -101 27 14 5 -15 -26
000080 f0 f9 f8 3e 02 fd c6 16 55 ee 1c 11 e8 24 03 dc
       -16 -7 -8 62 2 -3 -58 22 85 -18 28 17 -24 36 3 -36
000090 2f 1f f2 00 14 35 ed 2e e9 41 c6 06 c7 f8 19 b2
       47 31 -14 0 20 53 -19 46 -23 65 -58 6 -57 -8 25 -78
0000a0 e1 b5 02 14 f0 0b af f2 1c 30 3e 1f 2d 34 d4 ec
       -31 -75 2 20 -16 11 -81 -14 28 48 62 31 45 52 -44 -20
0000b0 fa 0f f8 ee bd f1 0f f2 50 24 fd 2d 2d 0c f6 99
       -6 15 -8 -18 -67 -15 15 -14 80 36 -3 45 45 12 -10 -103
0000c0 ec bb 02 33 db 41 13 cc 21 12 fd 40 da 08 49 fd
       -20 -69 2 51 -37 65 19 -52 33 18 -3 64 -38 8 73 -3
0000d0 61 01 34 f7 05 28 f2 df de e3 1a 1f 0d 09 cb 1e
       97 1 52 -9 5 40 -14 -33 -34 -29 26 31 13 9 -53 30
0000e0 4b eb dd f4 01 2a ff 21 fa 00 f9 d9 f1 0a cf fe
       75 -21 -35 -12 1 42 -1 33 -6 0 -7 -39 -15 10 -49 -2
0000f0 11 db 27 04 56 f1 e6 e0 10 d1 68 12 e7 e9 15 fc
       17 -37 39 4 86 -15 -26 -32 16 -47 104 18 -25 -23 21 -4

arith.constant23 f4 [512]
000000 d1 0a 1c 3d 95 1b 08 3d 46 fc 5c 3d e8 73 2b 3d
       0.038096253 0.03322943 0.053951524 0.041858584
000010 03 29 d4 3c bf 5f 8d 3d 16 29 91 3d 09 ee 65 3d
       0.025898462 0.06903028 0.07087915 0.05613521
000020 34 07 60 3d a9 88 82 3d ab 0f 12 3d a5 b3 84 3d
       0.05469437 0.06373722 0.035659473 0.06479577
000030 a4 bf 92 3c 48 21 5b 3d db 44 8e 3c ad 19 28 3c
       0.017913647 0.053498536 0.017366817 0.010260028
000040 81 8b d3 3c 93 bc 6d 3d 04 61 30 3d 3c 7f 49 3d
       0.025823357 0.058041167 0.04306127 0.049193606
000050 c8 32 c6 3c 03 64 02 3d 5f c1 ff 3c e4 57 00 3d
       0.024194136 0.03183366 0.031220136 0.03133382
000060 2f 32 a7 3d 71 fe f5 3c bf 87 6e 3d 07 4d 0f 3d
       0.08163869 0.030028554 0.058234926 0.03498557
000070 03 e4 79 3d 72 6b 61 3d 83 e4 1d 3d e1 60 77 3c
       0.061008465 0.05503411 0.038548004 0.015098781
000080 41 0b 95 3c b1 5f 4f 3d 70 0a 83 3d 76 a4 a7 3d
       0.018193843 0.050628368 0.06398475 0.08185665
000090 a7 56 11 3d 4c b9 af 3c 4c 76 22 3d f5 d8 49 3d
       0.03548303 0.021450661 0.039663598 0.049279172
0000a0 e1 58 8b 3c 8a 0d 9b 3d bb 9d ae 3c 38 21 53 3c
       0.017010154 0.07570942 0.021315446 0.012886338
0000b0 a7 5c 3f 3d 1e d5 44 3d 04 4a 04 3d 4e ca 8c 3d
       0.04671922 0.048054807 0.03229715 0.06874524
0000c0 6b cb 58 3d 65 6a 5e 3d 7a c8 81 3d 25 45 5f 3d
       0.05292837 0.054300684 0.06337066 0.0545093
0000d0 da c2 49 3d d1 0a e7 bb cc fd 4d 3d e7 1a 29 3d
       0.04925809 -0.00705085 0.050290868 0.04128542
0000e0 8c e5 c8 3c be 5b 2d 3d 4b 51 cc 3c df b0 87 3d
       0.024523519 0.04232382 0.024941107 0.06625532
0000f0 35 c2 3e 3d 63 74 43 3d a1 4b de 3a 4e 79 80 3d
       0.04657193 0.047718417 0.0016959795 0.06273137
000100 5f 88 0d 3d 80 1a 01 3c 5c 77 9d ba ed d7 67 3c
       0.03455388 0.007879853 -0.0012013721 0.014150602
000110 4d 61 62 3d 7d 01 24 3d ec 2d 9a 3d 3b 18 90 3d
       0.055268575 0.04004048 0.0752829 0.070358716
000120 81 37 46 3d b0 fe 4d 3d 49 4e f1 3c 91 6b 0a 3d
       0.048392776 0.050291717 0.029456275 0.03379399
000130 4d d5 1e 3c 16 5f 4b 3d 40 e6 f9 3c 27 26 58 3c
       0.00969441 0.049651228 0.0305053 0.01319269
000140 18 5e 93 3d e0 fe 67 3d 1b 22 02 3d 8e df 2e 3d
       0.07195681 0.056639552 0.031770807 0.042693667
000150 50 d1 94 3c 81 a4 ec 3c 61 6f a5 3d c1 14 09 3d
       0.018166214 0.028887035 0.080778845 0.033467058
000160 a3 ca 6f 3c c5 cc 73 3d 15 6b 6f 3d 03 2c 4d 3b
       0.014635715 0.059521455 0.05845173 0.003130675
000170 63 0e 4d 3d 7b 58 34 3d 01 8d 92 3d 94 b0 b2 3c
       0.05006255 0.044029694 0.071558006 0.021812715
000180 36 52 6d 3d e0 03 71 3d f8 50 71 3d 01 65 a9 3c
       0.05793973 0.058841586 0.05891511 0.020678045
000190 20 30 4f 3d fc 7f 66 3c 0b 84 13 3d 20 65 52 3d
       0.050583005 0.0140686 0.036014598 0.05136597
0001a0 85 51 f0 3c c1 31 ae 3c 7a 07 09 3d 7a 3c 59 3d
       0.029335747 0.021263959 0.033454396 0.05303619
0001b0 fb 0b 87 3d fc 5e 5d 3d d4 5b 6d 3d 81 8c 48 3d
       0.06594082 0.054045662 0.057948902 0.04896212
0001c0 a7 4a ab 3c c8 3b 92 3d 26 d1 76 3d ca a8 3b 3d
       0.02090962 0.071403086 0.060258053 0.045815267
0001d0 eb b4 b9 3b 73 e9 b8 3c 9e fd 8c 3d 01 05 25 3c
       0.005667319 0.022572255 0.06884311 0.010071994
0001e0 b7 02 91 3c 21 b4 7b 3d 3b 2c 63 3d cb ad 70 3c
       0.01770149 0.06145108 0.055462103 0.014689873
0001f0 e1 23 05 3d 1e f3 35 3c 2f f2 09 3d b7 c7 70 3d
       0.03250492 0.011105327 0.03367823 0.058784213
000200 c3 d6 85 3f a0 08 83 3f 99 c1 82 3f 0b ac 81 3f
       1.0456165 1.0237007 1.0215331 1.0130628
000210 34 14 85 3f 54 0b 82 3f 07 a2 86 3f 5d c2 86 3f
       1.039679 1.0159707 1.0518197 1.0528065
000220 a6 0d 86 3f 12 85 87 3f 1f fe 87 3f 54 cc 86 3f
       1.0472915 1.0587485 1.0624427 1.0531106
000230 01 7d 7f 3f 74 f8 86 3f e3 8c 80 3f af 19 83 3f
       0.99800116 1.0544572 1.0042995 1.0242213
000240 87 ce 82 3f 2b d1 85 3f 4c d3 83 3f 37 9e 87 3f
       1.0219277 1.0454458 1.0298858 1.0595158
000250 ee 5b 81 3f ce eb 83 3f ef 77 84 3f de 85 84 3f
       1.010618 1.0306337 1.0349101 1.0353353
000260 9b 53 86 3f a1 11 7f 3f f1 4b 87 3f 5a df 81 3f
       1.0494264 0.99636275 1.057005 1.0146286
000270 0b 04 85 3f 94 e0 83 3f fd 0c 84 3f ca b0 82 3f
       1.0391859 1.0302911 1.0316464 1.0210202
000280 21 a5 82 3f cd 71 88 3f f0 7e 87 3f c1 36 86 3f
       1.0206643 1.0659729 1.0585613 1.048546
000290 90 a6 86 3f df 24 82 3f 1d 75 85 3f 43 f5 80 3f
       1.0519581 1.0167502 1.0426365 1.0074848
0002a0 f3 fb 81 3f d0 ca 86 3f 2f c1 84 3f b7 0c 81 3f
       1.0155014 1.0530643 1.0371455 1.0082005
0002b0 54 16 86 3f 26 a8 84 3f ed b8 82 3f 86 99 84 3f
       1.0475564 1.0363815 1.0212685 1.0359352
0002c0 74 66 84 3f cd b8 82 3f a2 97 85 3f 42 2f 86 3f
       1.0343766 1.0212647 1.04369 1.0483172
0002d0 d7 8f 86 3f 4a 90 7c 3f 84 21 83 3f 49 6a 87 3f
       1.0512646 0.9865767 1.0244603 1.0579311
0002e0 47 cd 85 3f e8 52 87 3f d9 b5 85 3f ed a9 86 3f
       1.0453271 1.0572176 1.044612 1.0520607
0002f0 32 52 86 3f 88 76 84 3f 55 f2 80 3f 22 37 87 3f
       1.0493834 1.0348673 1.0073954 1.05637
000300 b1 07 85 3f 9f 84 82 3f 0c 4d 84 3f 7b 84 82 3f
       1.0392972 1.0196723 1.0336013 1.019668
000310 c7 20 84 3f 20 62 85 3f 2e 7f 86 3f ce 8b 88 3f
       1.0322503 1.042057 1.0507562 1.0667665
000320 be 56 86 3f d4 09 88 3f e7 01 81 3f d3 30 85 3f
       1.0495222 1.0627999 1.0078706 1.0405525
000330 6c 21 82 3f 27 96 82 3f 01 54 85 3f cf df 83 3f
       1.016645 1.0202073 1.0416261 1.0302676
000340 88 9f 86 3f 63 12 83 3f 9c 45 80 3f 2a 84 87 3f
       1.0517435 1.0239986 1.0021243 1.0587208
000350 bc e6 83 3f bb d4 83 3f b0 49 89 3f db 9e 84 3f
       1.030479 1.0299295 1.0725613 1.0360979
000360 f8 c4 82 3f 57 a4 89 3f 7c 74 81 3f 07 ff 7d 3f
       1.021636 1.0753278 1.0113673 0.99217266
000370 1a 8e 85 3f 40 3c 86 3f 83 ce 84 3f 6c b3 81 3f
       1.0433991 1.0487137 1.0375522 1.013288
000380 49 10 84 3f 10 f4 83 3f 8b d7 83 3f 86 02 86 3f
       1.031747 1.0308857 1.0300153 1.046952
000390 07 7d 85 3f 9d 1d 81 3f e8 1d 86 3f 7b 2a 84 3f
       1.042878 1.0087162 1.0477877 1.0325464
0003a0 0b 9b 84 3f f8 25 84 3f 05 98 82 3f 0a 07 84 3f
       1.0359815 1.0324087 1.0202643 1.0314648
0003b0 ab ef 84 3f 42 be 85 3f bb f7 86 3f 0f 46 85 3f
       1.0385641 1.0448687 1.0544351 1.0412005
0003c0 56 cf 82 3f 64 4d 88 3f e9 8b 88 3f 61 49 84 3f
       1.0219524 1.0648618 1.0667697 1.0334893
0003d0 7a b9 81 3f 84 fb 85 3f ff 5e 88 3f 46 4c 81 3f
       1.0134728 1.0467381 1.065399 1.0101402
0003e0 9f 6e 82 3f 40 29 86 3f 05 5e 85 3f e9 ca 83 3f
       1.0190009 1.0481339 1.0419317 1.0296298
0003f0 8e 90 87 3f f5 2f 82 3f 91 a3 83 3f 5d d9 86 3f
       1.059099 1.0170885 1.0284292 1.0535084

tfl.pseudo_qconst3 i1 [512, 64]
000000 07 a7 5a fe df eb d0 26 bd b4 a3 d5 62 1f ad b2
       7 -89 90 -2 -33 -21 -48 38 -67 -76 -93 -43 98 31 -83 -78
000010 31 45 e3 0a d3 fc 30 bc 69 04 10 11 33 e5 aa e5
       49 69 -29 10 -45 -4 48 -68 105 4 16 17 51 -27 -86 -27
000020 3e 50 df 05 81 59 3b fd d1 d1 1e 25 08 fc e9 fd
       62 80 -33 5 -127 89 59 -3 -47 -47 30 37 8 -4 -23 -3
000030 12 df 5e 01 46 f7 8d b5 be 10 4c 39 1d ec cc 5e
       18 -33 94 1 70 -9 -115 -75 -66 16 76 57 29 -20 -52 94
000040 e1 eb 2b ba 36 d8 8e 25 3e dd 7f 65 01 4c ac cb
       -31 -21 43 -70 54 -40 -114 37 62 -35 127 101 1 76 -84 -53
000050 4d 94 e9 41 12 ba e9 3a 00 e6 2e 36 50 f3 13 b4
       77 -108 -23 65 18 -70 -23 58 0 -26 46 54 80 -13 19 -76
000060 52 b3 31 00 1b c9 83 dc e8 ed c3 38 f5 da 2b 5b
       82 -77 49 0 27 -55 -125 -36 -24 -19 -61 56 -11 -38 43 91
000070 d4 62 f1 28 c0 e6 e1 39 14 3e 15 f1 d0 fa d5 05
       -44 98 -15 40 -64 -26 -31 57 20 62 21 -15 -48 -6 -43 5
000080 0f d4 07 17 72 1f 37 81 ab 6f ba 34 3b bd c3 e8
       15 -44 7 23 114 31 55 -127 -85 111 -70 52 59 -67 -61 -24
000090 f5 cd 6e e7 30 45 4c 24 35 5c f8 0e ee 28 b2 62
       -11 -51 110 -25 48 69 76 36 53 92 -8 14 -18 40 -78 98
0000a0 6c 31 32 98 e4 53 f6 f1 db 06 32 b1 38 6d 77 0a
       108 49 50 -104 -28 83 -10 -15 -37 6 50 -79 56 109 119 10
0000b0 d7 31 b3 e1 a1 d7 ff ab e5 67 36 fc cf 4a bd 41
       -41 49 -77 -31 -95 -41 -1 -85 -27 103 54 -4 -49 74 -67 65
0000c0 d5 fa 1e 0b df 35 d9 40 f9 01 09 ea dc ed 26 11
       -43 -6 30 11 -33 53 -39 64 -7 1 9 -22 -36 -19 38 17
0000d0 58 38 2d d8 02 46 d5 1d 11 69 57 28 cc 4e 81 ce
       88 56 45 -40 2 70 -43 29 17 105 87 40 -52 78 -127 -50
0000e0 3d aa 5e 17 a0 0f ec 38 d9 e2 c2 c2 2c a7 cd 1a
       61 -86 94 23 -96 15 -20 56 -39 -30 -62 -62 44 -89 -51 26
0000f0 43 58 db eb ff 40 53 df 4e 2a f3 42 df 19 f1 c3
       67 88 -37 -21 -1 64 83 -33 78 42 -13 66 -33 25 -15 -61

tfl.pseudo_qconst4 i1 [512, 128]
000000 cc 29 04 3d 30 d4 ce 02 e7 fe 25 1b fb 39 e9 cd
       -52 41 4 61 48 -44 -50 2 -25 -2 37 27 -5 57 -23 -51
000010 05 d2 d1 19 f6 d8 31 06 cc 25 f6 d5 0d 2a 0f bf
       5 -46 -47 25 -10 -40 49 6 -52 37 -10 -43 13 42 15 -65
000020 d9 05 81 11 fc 1d 21 03 06 14 fd d3 13 29 e2 dd
       -39 5 -127 17 -4 29 33 3 6 20 -3 -45 19 41 -30 -35
000030 de 18 c7 26 d7 1a 3f d9 26 74 c2 f5 36 10 c7 f6
       -34 24 -57 38 -41 26 63 -39 38 116 -62 -11 54 16 -57 -10
000040 cf e4 34 ec e4 f6 30 0c 0e 1b cb 16 81 ef 1d d5
       -49 -28 52 -20 -28 -10 48 12 14 27 -53 22 -127 -17 29 -43
000050 e5 d4 6f 2b f5 ed 4d 18 e4 f2 00 1e bc 2d fe f9
       -27 -44 111 43 -11 -19 77 24 -28 -14 0 30 -68 45 -2 -7
000060 35 f6 e0 02 f7 27 18 00 3c 01 e6 d9 50 52 1d c3
       53 -10 -32 2 -9 39 24 0 60 1 -26 -39 80 82 29 -61
000070 ec 2d 0b ee 05 ec e6 05 9d ea 56 1f d5 00 09 ff
       -20 45 11 -18 5 -20 -26 5 -99 -22 86 31 -43 0 9 -1
000080 81 2f 1c 3d a8 c9 36 db 40 df 2a 29 df 08 1a 28
       -127 47 28 61 -88 -55 54 -37 64 -33 42 41 -33 8 26 40
000090 1b ef fd df 2c 37 ff 08 00 e9 33 fa 0c b8 ec d1
       27 -17 -3 -33 44 55 -1 8 0 -23 51 -6 12 -72 -20 -47
0000a0 1c c8 bc 18 ed e8 f1 1d a3 f3 38 cf 20 f5 33 05
       28 -56 -68 24 -19 -24 -15 29 -93 -13 56 -49 32 -11 51 5
0000b0 b8 fc 39 28 d7 41 05 1a f5 58 bd fe 4c dc ec e2
       -72 -4 57 40 -41 65 5 26 -11 88 -67 -2 76 -36 -20 -30
0000c0 e9 d5 23 f4 35 07 30 d2 cb 23 03 07 f8 c2 1c ab
       -23 -43 35 -12 53 7 48 -46 -53 35 3 7 -8 -62 28 -85
0000d0 eb ba 47 32 f1 e9 22 29 10 f6 11 ba b0 3d 33 cd
       -21 -70 71 50 -15 -23 34 41 16 -10 17 -70 -80 61 51 -51
0000e0 29 10 18 c6 e3 f9 0c ee 55 d8 3a ee cf 12 ba e4
       41 16 24 -58 -29 -7 12 -18 85 -40 58 -18 -49 18 -70 -28
0000f0 1a 6c 1b 0d 2f da 01 e9 eb 1d 00 e4 cc 15 08 1c
       26 108 27 13 47 -38 1 -23 -21 29 0 -28 -52 21 8 28

arith.constant27 f4 [512]
000000 7b dd a1 3c b9 ef 1b 3d 8d 1a 70 3d 02 69 69 3c
       0.01975893 0.038070414 0.05861907 0.014246227
000010 b7 6c 8d 3d f0 28 41 3d bf d2 55 3d 90 ab 84 3d
       0.06905501 0.04715818 0.052202936 0.064780354
000020 39 04 2f 3d 77 31 1c 3d 7f 25 29 3c ab 77 4d 3d
       0.042728636 0.03813311 0.010323881 0.050162952
000030 9e 46 13 3d 65 9f 32 3d f6 43 86 3d c0 c6 a3 3d
       0.035956018 0.04360904 0.06555931 0.07996893
000040 37 85 9c 3d d6 1e 8e 3c cb 10 43 3d 82 93 15 3d
       0.07642596 0.017348688 0.047623437 0.036517628
000050 0c b6 8e 3d 2e 60 06 3d b9 fc 92 3d df bf 79 3d
       0.069683164 0.032806568 0.07177109 0.060974
000060 58 c2 02 3d 34 2c fe 3c 14 f4 39 3d 25 49 df 3b
       0.031923622 0.031026937 0.045398787 0.0068141394
000070 74 8f 16 3d e3 d5 81 3d 2e d5 5d 3d 68 e2 00 3d
       0.0367579 0.06339624 0.054158382 0.031465918
000080 66 42 0b 3d fc 21 35 3d 60 d1 39 3c ab 54 c0 3d
       0.03399887 0.044221863 0.011341423 0.09391149
000090 ed 1c 1d 3d f0 86 fb 3c 73 dc f9 3c c5 d9 87 3d
       0.038357664 0.030703992 0.030500626 0.06633333
0000a0 10 64 46 3d b9 7d 88 3d f3 7f fe 3c c7 f2 21 3d
       0.04843527 0.06664605 0.03106687 0.03953817
0000b0 be 78 0d 3d 3c 86 be 3c f2 75 f5 3c 0f e5 8b 3d
       0.034538977 0.023257367 0.029963467 0.06830799
0000c0 2b 3c c4 3c e6 4d 8e 3d d0 7b 64 3d 63 14 12 3d
       0.023954472 0.06948452 0.05578214 0.035663974
0000d0 66 89 23 3d f0 95 26 3d c1 95 41 3d 3b 36 bc 3c
       0.039925955 0.040670335 0.047261957 0.022975078
0000e0 84 b0 b1 3d 8f 5f 51 3d 1c 6b 49 3d bc 9a 9a 3c
       0.08676246 0.051116522 0.049174413 0.018872611
0000f0 57 df 04 3d d3 74 14 3d d0 d6 dd 3c 56 44 26 3d
       0.032439556 0.036244225 0.02707997 0.040592514
000100 d6 a7 08 3d d4 72 f9 3c 66 63 d6 3c 8a ae 9b 3c
       0.033363186 0.030450262 0.026170444 0.019004125
000110 4d 33 fe 3c 3b 29 1f 3d 9f d8 88 3d 8d b5 81 3d
       0.031030321 0.03885768 0.06681942 0.06333456
000120 ad 9b 3c 3d 5d 8a 30 3d c2 7e a0 3c 86 ff c0 3d
       0.0460469 0.043100704 0.019591693 0.09423737
000130 e8 79 1d 3d 2e 90 78 3d be 93 59 3d 75 34 6d 3d
       0.038446337 0.060684375 0.053119414 0.057911355
000140 c2 9f 19 3d 89 86 31 3d fa 29 41 3d 4b 36 dd 3c
       0.037505873 0.043341193 0.047159173 0.027003428
000150 f2 9d 21 3d 24 93 52 3d ee 87 df 3c f1 ce 24 3d
       0.03945727 0.051409855 0.027286496 0.040236417
000160 41 24 3e 3d 37 2d 5b 3d 87 29 80 3c e5 48 7e 3d
       0.046421293 0.053509917 0.015644802 0.062081236
000170 ff 6a 73 3b 2e 8c 3f 3d a8 6c 55 3d 37 28 10 3d
       0.0037142632 0.046764545 0.052105576 0.035194602
000180 42 64 66 3d 52 3c 1b 3d 92 bc 3f 3d 76 0e ae 3c
       0.056247957 0.037899323 0.046810694 0.02124713
000190 fb 3d d7 3c 80 ea 1c 3d d8 1c 43 3c 83 2e 39 3d
       0.026274672 0.038309574 0.011908732 0.045210373
0001a0 50 8e ef 3c 4e 41 76 3d 56 da 4b 3d f1 b8 e2 3d
       0.029242665 0.060120873 0.04976877 0.11070431
0001b0 76 05 ad 3c 1b b9 4c 3d fc d2 3d 3d 66 64 44 3d
       0.021120768 0.049981218 0.04634379 0.04794731
0001c0 f8 ce 2c 3d 31 78 a9 3d e4 53 c4 3c 52 fa 3a 3d
       0.04218957 0.08274878 0.023965783 0.04564888
0001d0 f6 42 3e 3d eb 4d 51 3d d4 42 02 3d d1 38 56 3d
       0.046450578 0.0510997 0.031802014 0.052300278
0001e0 23 ef 0f 3d e5 5a ef 3c 16 38 93 3d e7 76 70 3d
       0.035140168 0.029218147 0.07188432 0.058707144
0001f0 89 14 1f 3d 45 c0 a7 3d c6 c3 b8 3d 5f 41 31 3d
       0.038837943 0.081909694 0.09021716 0.043275233
000200 d3 a9 82 3f cc 90 84 3f 9b 4a 88 3f 93 67 86 3f
       1.0208076 1.0356688 1.0647768 1.0500358
000210 f0 fc 83 3f 68 e6 85 3f 84 44 88 3f 11 0e 87 3f
       1.0311565 1.046094 1.0645909 1.0551168
000220 b5 c0 84 3f 43 2b 85 3f 9b 76 83 3f ab 4b 83 3f
       1.037131 1.0403827 1.027057 1.0257467
000230 6d f6 82 3f c0 73 84 3f 7a 12 86 3f cb 04 84 3f
       1.0231453 1.0347824 1.0474389 1.0313963
000240 1e 57 88 3f ef fb 80 3f 73 be 85 3f 53 eb 83 3f
       1.0651586 1.0076884 1.0448745 1.030619
000250 98 9f 85 3f b1 06 83 3f 5c e5 85 3f d8 df 82 3f
       1.0439329 1.0236417 1.046062 1.0224562
000260 f5 09 85 3f 9b 65 83 3f b7 f8 83 3f fe 2d 85 3f
       1.0393664 1.0265383 1.0310277 1.0404661
000270 66 e8 84 3f 90 c8 85 3f 68 c4 85 3f 0c 80 81 3f
       1.0383422 1.0451832 1.0450563 1.0117202
000280 d2 11 83 3f b8 8b 85 3f 47 8f 83 3f 6a bc 86 3f
       1.0239813 1.0433264 1.02781 1.052625
000290 eb 43 83 3f 9e 17 83 3f 42 26 84 3f 1a 9c 86 3f
       1.0255102 1.0241582 1.0324175 1.0516388
0002a0 46 68 86 3f ba 20 85 3f 05 c8 7e 3f 86 e4 84 3f
       1.0500572 1.0400612 0.99523956 1.038224
0002b0 21 75 83 3f 9c 59 83 3f 46 a4 81 3f 2a 1e 87 3f
       1.027012 1.0261722 1.0128257 1.055608
0002c0 be 16 82 3f 82 90 84 3f 52 2e 84 3f 2c 8d 84 3f
       1.016319 1.03566 1.0326636 1.0355582
0002d0 03 18 85 3f 8d 3a 86 3f a8 27 80 3f af 05 83 3f
       1.0397953 1.0486618 1.0012102 1.023611
0002e0 c9 70 85 3f 9d f9 83 3f cc 99 86 3f 80 5c 80 3f
       1.0425044 1.0310551 1.0515685 1.0028229
0002f0 a1 27 84 3f e3 e6 82 3f 95 d5 83 3f de 6a 84 3f
       1.0324594 1.0226711 1.0299555 1.0345113
000300 70 bd 84 3f 7b 7e 85 3f ce e9 82 3f 81 44 87 3f
       1.0370312 1.0429224 1.0227602 1.0567781
000310 29 42 83 3f a2 be 84 3f b3 94 85 3f 6c 8f 85 3f
       1.0254565 1.0370677 1.0436004 1.0434394
000320 9b 06 84 3f 59 6a 83 3f 32 c8 81 3f d1 ce 86 3f
       1.0314516 1.026683 1.013922 1.0531865
000330 b8 29 81 3f bc 21 85 3f 71 e4 85 3f db de 86 3f
       1.0090857 1.040092 1.046034 1.053676
000340 bf ec 83 3f 72 58 83 3f b7 bf 83 3f c6 a4 85 3f
       1.0306624 1.0261366 1.0292882 1.044091
000350 0b 09 83 3f f6 50 82 3f be 19 83 3f 9e e4 85 3f
       1.0237135 1.0180957 1.0242231 1.0460393
000360 e7 1f 83 3f 9b 3f 86 3f a4 38 81 3f 75 99 84 3f
       1.0244111 1.0488161 1.009541 1.0359331
000370 19 a3 81 3f f2 fd 82 3f df 98 85 3f 64 76 85 3f
       1.0127898 1.0233748 1.0437278 1.0426755
000380 21 cf 87 3f 47 df 83 3f 3d 30 83 3f 2e 71 84 3f
       1.0610086 1.0302514 1.0249096 1.034704
000390 5f b6 84 3f 30 a0 87 3f dc 13 83 3f 01 2a 84 3f
       1.0368155 1.059576 1.0240436 1.0325319
0003a0 f9 36 85 3f 0f 87 88 3f 03 6e 87 3f 9f 1f 89 3f
       1.0407401 1.0666217 1.0580448 1.0712775
0003b0 5c c8 83 3f 20 12 8b 3f fe 53 82 3f 37 2d 82 3f
       1.029552 1.0864906 1.0181882 1.0170048
0003c0 4c d5 87 3f 5e 32 87 3f 61 59 81 3f 00 b6 83 3f
       1.0611968 1.0562246 1.0105401 1.0289917
0003d0 2d 67 85 3f f5 88 83 3f 3b e8 82 3f 96 12 84 3f
       1.0422112 1.0276171 1.0227121 1.0318172
0003e0 68 a5 82 3f 78 3c 85 3f b2 0b 84 3f 18 c3 84 3f
       1.0206728 1.0409079 1.0316069 1.0372038
0003f0 0e 18 82 3f ae bc 86 3f 99 5a 88 3f 8c fb 84 3f
       1.0163591 1.052633 1.0652648 1.0389266

tfl.pseudo_qconst5 i1 [512, 64]
000000 50 de 35 b9 13 1b 06 25 e6 d4 68 a2 5a 5a 11 d4
       80 -34 53 -71 19 27 6 37 -26 -44 104 -94 90 90 17 -44
000010 ae f4 fb dc 3f 0f 59 2b 5d fe e2 3e 8a b4 6b 26
       -82 -12 -5 -36 63 15 89 43 93 -2 -30 62 -118 -76 107 38
000020 cd eb fa 12 dc 3d fc c8 a4 6c c6 ba 58 6b 29 e9
       -51 -21 -6 18 -36 61 -4 -56 -92 108 -58 -70 88 107 41 -23
000030 c4 81 c3 e1 ff 2c 28 b0 d1 d4 cb 60 74 6d f3 90
       -60 -127 -61 -31 -1 44 40 -80 -47 -44 -53 96 116 109 -13 -112
000040 b9 1b e0 68 be 46 54 f6 8b 08 81 5a 7d c8 21 4f
       -71 27 -32 104 -66 70 84 -10 -117 8 -127 90 125 -56 33 79
000050 66 cc a9 c1 a3 8d 67 3a 7f 1d 13 ff d5 2c b9 f0
       102 -52 -87 -63 -93 -115 103 58 127 29 19 -1 -43 44 -71 -16
000060 d7 e1 04 07 29 e0 0a 58 ea 7d b3 f5 15 6b 73 aa
       -41 -31 4 7 41 -32 10 88 -22 125 -77 -11 21 107 115 -86
000070 5e 93 17 88 6b 1d 03 0a cd bf c0 5a 0d 77 94 ef
       94 -109 23 -120 107 29 3 10 -51 -65 -64 90 13 119 -108 -17
000080 00 ad dd 14 81 92 49 c1 69 a9 58 fc dc b6 3e 44
       0 -83 -35 20 -127 -110 73 -63 105 -87 88 -4 -36 -74 62 68
000090 3e 8e fb 43 b3 f2 41 0b bc e7 07 78 c5 c2 1b c8
       62 -114 -5 67 -77 -14 65 11 -68 -25 7 120 -59 -62 27 -56
0000a0 1f 1b 04 ae b3 bc 05 54 12 9b e4 ed ca f4 fe e2
       31 27 4 -82 -77 -68 5 84 18 -101 -28 -19 -54 -12 -2 -30
0000b0 16 f1 40 78 46 a7 69 18 07 ab a5 aa c5 33 d7 1b
       22 -15 64 120 70 -89 105 24 7 -85 -91 -86 -59 51 -41 27
0000c0 b4 47 55 02 03 03 72 dc e3 1d 6e 38 3d dd d8 37
       -76 71 85 2 3 3 114 -36 -29 29 110 56 61 -35 -40 55
0000d0 0d ed 3e f4 0b cf c3 04 ce d5 e8 ef 27 f9 ba 32
       13 -19 62 -12 11 -49 -61 4 -50 -43 -24 -17 39 -7 -70 50
0000e0 23 3b 10 11 91 5b c0 26 fc d0 f6 c6 5b 65 58 d1
       35 59 16 17 -111 91 -64 38 -4 -48 -10 -58 91 101 88 -47
0000f0 2c fa ad c5 53 bb 67 d8 59 d7 43 e1 c6 3e 81 b4
       44 -6 -83 -59 83 -69 103 -40 89 -41 67 -31 -58 62 -127 -76

tfl.pseudo_qconst6 i1 [512, 128]
000000 d5 35 24 f2 e2 06 36 df c7 13 e6 ce 28 de 35 61
       -43 53 36 -14 -30 6 54 -33 -57 19 -26 -50 40 -34 53 97
000010 3d 30 27 d9 0a 1d 81 4f a9 e8 d6 ba 13 33 e2 26
       61 48 39 -39 10 29 -127 79 -87 -24 -42 -70 19 51 -30 38
000020 01 3b 54 4a f0 d6 1e 39 1f 5a 08 33 d9 dc db c5
       1 59 84 74 -16 -42 30 57 31 90 8 51 -39 -36 -37 -59
000030 36 3d c0 b3 2a dd 0d 00 b9 77 56 00 f1 12 31 22
       54 61 -64 -77 42 -35 13 0 -71 119 86 0 -15 18 49 34
000040 34 0a 3d c0 0b 01 08 f2 88 b4 dd 2b 24 30 0e 36
       52 10 61 -64 11 1 8 -14 -120 -76 -35 43 36 48 14 54
000050 00 39 8f 3d 97 1d 2d d7 0b e2 c9 ee fa 14 e5 4f
       0 57 -113 61 -105 29 45 -41 11 -30 -55 -18 -6 20 -27 79
000060 f6 56 f3 f1 d0 ae 32 19 03 b3 c0 2a 42 56 c9 fe
       -10 86 -13 -15 -48 -82 50 25 3 -77 -64 42 66 86 -55 -2
000070 22 95 03 06 cf 0d 00 9b 03 ba fb bf 46 d8 0d d9
       34 -107 3 6 -49 13 0 -101 3 -70 -5 -65 70 -40 13 -39
000080 d2 fa fc 17 3a 31 ab cc 42 ed 02 89 37 0c 1a e5
       -46 -6 -4 23 58 49 -85 -52 66 -19 2 -119 55 12 26 -27
000090 db f4 37 11 d3 0a 14 03 29 07 ec 13 32 1c 0c a8
       -37 -12 55 17 -45 10 20 3 41 7 -20 19 50 28 12 -88
0000a0 f5 4c 40 ff 02 0c fd e9 d6 b9 32 e2 e9 04 1b b3
       -11 76 64 -1 2 12 -3 -23 -42 -71 50 -30 -23 4 27 -77
0000b0 45 ea d2 38 c8 24 11 0f d1 ef ec f3 fc 2c fb 00
       69 -22 -46 56 -56 36 17 15 -47 -17 -20 -13 -4 44 -5 0
0000c0 ec 3c 1e 04 07 34 e6 ed 25 d3 fa 38 81 f0 d7 5c
       -20 60 30 4 7 52 -26 -19 37 -45 -6 56 -127 -16 -41 92
0000d0 fa 3a 35 e2 af 07 fc fe fd 11 27 48 27 fb fe 23
       -6 58 53 -30 -81 7 -4 -2 -3 17 39 72 39 -5 -2 35
0000e0 f6 28 5f 2e 05 ef 05 31 56 be 69 49 10 00 a1 e2
       -10 40 95 46 5 -17 5 49 86 -66 105 73 16 0 -95 -30
0000f0 3a 01 f6 e5 d7 f5 1f db 1b 38 13 ac ff ae e5 eb
       58 1 -10 -27 -41 -11 31 -37 27 56 19 -84 -1 -82 -27 -21
