sign_language_model2.tflite (tflite, 507976 bytes, 25 tensors)

arith.constant18 f4 [15]
000000 52 26 01 bc 23 dc 0d 3c 42 98 e8 3a 03 f9 80 bc
       -0.007882671 0.008658442 0.0017745572 -0.015743738
000010 f1 d9 18 bb 13 12 87 bc 81 eb 63 bb 78 38 02 bc
       -0.0023323263 -0.01648811 -0.0034777822 -0.0079480335
000020 cc e1 32 3b ae 5f de 3b e4 64 90 3b df 09 40 3b
       0.002729523 0.0067863083 0.0044065583 0.0029302759
000030 9d 5d bc bb ba f9 d2 3b 70 6d 0a 3b
       -0.0057484643 0.006438461 0.0021122359

arith.constant19 f4 [256]
000000 55 be 2f 3c 16 60 77 3c c8 e5 1b 3c 94 ab 90 3c
       0.010726531 0.015098592 0.009515233 0.01765994
000010 90 c0 f0 ba e3 20 97 3c a6 81 c8 3b c7 fc 93 3b
       -0.0018367935 0.018448299 0.006118971 0.0045162174
000020 e1 aa 9b 3b ac 7b 57 3c d6 28 59 3c ed b7 64 3c
       0.004750595 0.013152044 0.013254365 0.013959867
000030 af c6 be 3c 46 d5 89 bb 55 b8 d8 bb 09 8f e0 3b
       0.0232881 -0.0042063324 -0.006613771 0.0068529886
000040 d2 9b e4 3c 76 28 c3 3c a6 57 18 3c e9 49 20 3c
       0.027906332 0.023823004 0.009298241 0.009783247
000050 6a 9c 15 3c 75 00 f8 3c b2 67 63 3c 5c 9d 9f 3b
       0.00913153 0.030273655 0.013879703 0.0048710536
000060 f9 7d a4 3c 66 fe db 3c c8 5b 05 3d fe 88 5c 3b
       0.0200796 0.026854705 0.032558233 0.003365099
000070 36 c1 03 3d 04 6c 91 3c 5b 16 98 3c a3 0b 62 3c
       0.032166682 0.017751701 0.018565347 0.01379672
000080 fd 86 90 3c e7 35 97 b9 b3 cd 7a 3b 24 96 14 3c
       0.017642492 -0.00028841125 0.003826958 0.009068999
000090 fd de 22 3b 52 1f 8f 3b 89 c7 66 3c b9 18 b7 3c
       0.002485215 0.0043677473 0.014085659 0.022350656
0000a0 60 77 79 3a 15 be 54 3c f4 1e a2 3b 52 f8 15 3c
       0.00095163845 0.012984772 0.0049475376 0.009153442
0000b0 1d 12 4f 3c 25 40 90 3c de b3 65 3c ee 88 38 3c
       0.012638596 0.017608711 0.014019934 0.011263115
0000c0 28 06 64 3c 39 26 68 3c 42 ab b6 3c b1 8d 0b ba
       0.013917483 0.014169269 0.022298459 -0.0005323543
0000d0 79 70 af 3c 68 bd 55 3c 82 4c a1 3b 62 36 e6 3b
       0.021415936 0.013045646 0.0049224505 0.007025526
0000e0 f8 94 fe 3b a3 01 bb 3b c2 0a 4a 3c ee 4f 04 bb
       0.0077692233 0.005706982 0.012331666 -0.0020189243
0000f0 d4 e5 85 3c d0 34 01 38 66 41 31 3c 44 9f e2 b9
       0.016344942 3.0805182e-05 0.010818815 -0.0004322474
000100 f3 74 62 3c ed 73 78 3b 3d 69 47 3c a2 d1 34 3c
       0.013821828 0.0037910894 0.012171087 0.0110363085
000110 3b 07 54 3b 5c 31 a6 3c 4e 7e 94 bb e0 b2 4a 3c
       0.0032352943 0.020287208 -0.0045316583 0.012371749
000120 ce 12 a9 3a 1d 8d 89 3c 56 16 66 3c 49 56 fc 3c
       0.0012899281 0.01679092 0.014043411 0.030802863
000130 2c 02 05 3c 9c 4f bb 3c 05 72 96 3c 98 e8 a1 3c
       0.008118194 0.02286511 0.018364916 0.01976423
000140 a7 5f 83 3b 8a c5 16 3c 81 e0 51 3c fe ed 35 ba
       0.0040092054 0.00920237 0.012809874 -0.00069400657
000150 12 2a a3 3c 44 f7 b7 3b 64 b5 06 3c 64 2b b3 3c
       0.019917522 0.005614193 0.008221958 0.021871276
000160 9a 22 51 3c 28 89 b5 3c 1d d7 35 3c 3d e6 06 3c
       0.012764597 0.022160128 0.01109865 0.008233604
000170 60 6e 92 3c ef 8f 2d 3b 70 09 62 38 d3 1c 40 39
       0.017874897 0.0026483496 5.389139e-05 0.00018321285
000180 70 36 85 3c c4 a3 3f 3c 88 db 26 3c 4c 58 47 3b
       0.01626131 0.01169676 0.010184176 0.003041762
000190 1f 7e ee 3a fd 62 45 3c cf 48 8c 3b cb 68 3b 3c
       0.0018195546 0.012047526 0.0042811404 0.011438559
0001a0 b8 d7 c1 3b 1e b4 2c 3c 38 23 66 3c c9 1a 89 3c
       0.0059156083 0.01054099 0.014046483 0.016736405
0001b0 fc 37 8d 3c 99 b7 8b 3c 8a 36 e9 3b 8e 65 aa 3b
       0.01723861 0.01705532 0.0071170973 0.0052000945
0001c0 ca 53 c4 3b 01 a4 b9 3c b3 f1 cd 3b 17 0a d0 3b
       0.0059914337 0.022661211 0.0062849163 0.006348859
0001d0 37 4a f7 bb a5 00 80 3c 50 97 c0 bb e1 c3 32 3c
       -0.007546689 0.015625307 -0.005877413 0.010910959
0001e0 ea f1 05 3d 5c 00 3b 3c 89 c1 56 3c b0 ee 1f 3c
       0.03270141 0.01141366 0.013107666 0.009761497
0001f0 f1 cc 8f 3c 4b e4 cc 3c 0e c4 5d 3c cb a5 87 3b
       0.017553778 0.025011202 0.013535513 0.004139637
000200 7d 19 39 3c 0e e0 67 3c 70 3e 66 3c 96 88 a6 bb
       0.011297581 0.01415254 0.014052972 -0.0050822003
000210 49 51 79 3c 54 e5 c0 39 34 58 28 b9 dd f5 03 3c
       0.015217134 0.00036791957 -0.00016054587 0.008054224
000220 7f 16 a4 3b c5 64 a8 3c 3e 68 cd 3c 3d bc c7 3b
       0.0050075646 0.020555863 0.02507412 0.006095438
000230 86 9c 3a 3c 77 dd a6 bb d7 3d 75 3c 85 8a 29 3b
       0.011389857 -0.0050923186 0.014968357 0.0025869918
000240 2d 6f 29 3c 2d 22 94 3b 89 bd 44 3c ed bd 7e 3b
       0.010341448 0.0045206756 0.012008079 0.0038870529
000250 7e ad 9e bb 1f 1c c7 ba f8 52 e9 3b 9a 68 b3 3b
       -0.004842459 -0.0015190876 0.0071204863 0.005475116
000260 6e 6e 87 3c 8c 8e 94 3c 85 82 87 3c 46 a1 91 3c
       0.01653215 0.018134378 0.016541729 0.017777096
000270 22 ce b7 3a f1 0b 51 3c 5b 64 15 3c 5f 63 60 3c
       0.0014023224 0.012759195 0.009118165 0.013695567
000280 90 02 34 3b aa ba 82 3b c7 67 08 3d a9 43 85 3c
       0.0027467348 0.0039895372 0.033302095 0.016267614
000290 a1 a3 c4 3c 6f 97 f6 3b 66 d2 0c 3c f6 3d 47 3c
       0.024003806 0.0075253765 0.008595085 0.012160769
0002a0 cd 6d 52 3b 53 75 d0 3c a9 8d 16 3b d4 ff 0a 3c
       0.0032108903 0.02544657 0.002297262 0.008483846
0002b0 cc c9 b4 38 97 78 93 3c d3 c2 35 3c 05 8a 8e 3c
       8.6206564e-05 0.018001838 0.011093813 0.017399797
0002c0 53 60 9b bb 28 54 c1 b8 88 95 76 3c 66 88 fb 3c
       -0.0047417074 -9.2186325e-05 0.015050299 0.030704688
0002d0 bf 95 ab 3c 0a 2f 90 3b be b6 88 3c b4 08 a6 3c
       0.020945428 0.0044001387 0.0166887 0.020267822
0002e0 c3 88 88 3c 4d d6 20 bc 24 6c 0d 3c d2 ae e9 ba
       0.016666776 -0.009816718 0.00863174 -0.001782859
0002f0 7f 08 fb 3b fb 25 65 3c 5a 5f 23 3c ef 27 81 3c
       0.007660925 0.013986106 0.009971464 0.015766112
000300 72 04 e4 3a be e8 b7 3c 7f ce 46 3c 3c c6 40 3c
       0.0017396344 0.022449847 0.012134193 0.011766013
000310 e2 a2 6c 3c 1b 4e b1 3b 8f 93 7b 3c 72 b9 6a 3c
       0.014443131 0.005410922 0.015355005 0.01432644
000320 e5 9f bc 3b ae 98 14 3d eb 12 a2 39 96 d3 b5 39
       0.0057563656 0.03627842 0.00030913143 0.00034680654
000330 0e 0b 9b 3c 5f dd 54 3a 9b ca cf 3c 9e e7 54 3c
       0.01892617 0.0008120145 0.025365165 0.012994675
000340 57 e2 9a 3c 0b 57 a5 3b 17 d1 ae 3c 00 ef f1 3a
       0.018906755 0.0050457767 0.021339936 0.0018458068
000350 b7 a0 00 3c 75 df aa 3c 8f ee 01 3c f9 e6 b4 ba
       0.007850817 0.020858506 0.007930412 -0.0013801745
000360 45 99 6b 3c 70 1a d8 3b 8c 5a fe 3c 00 31 67 3b
       0.014379804 0.0065949485 0.031049035 0.003527701
000370 f5 91 ec 3b e7 4c 57 3c 0b f5 47 3c 98 c2 2d 3c
       0.007219548 0.013140894 0.012204419 0.010605477
000380 6a 8c 99 3c 39 01 24 bc 5b 43 10 3b f4 61 15 3c
       0.018743712 -0.010010057 0.0022012803 0.009117592
000390 42 ae a2 3b ea ce 97 3b 54 d2 a2 3c 16 e4 0f 3c
       0.004964621 0.0046328204 0.019875683 0.008782407
0003a0 c6 16 10 3c 76 0d 0a 3c 46 7b 7b 3c 10 c4 01 3c
       0.008794492 0.008426061 0.015349215 0.00792028
0003b0 b4 aa c1 3c f4 c0 30 3c ce 27 80 3b 43 0d 4a 3c
       0.023640968 0.010788191 0.003910995 0.012332263
0003c0 ef 7f 84 3c e3 9c f2 3b 5c e8 64 3c 6d 8c 5b 3c
       0.016174285 0.0074039563 0.013971414 0.013400179
0003d0 71 30 c9 3b 3d f4 39 3b 86 55 0d 3c 19 08 a9 3c
       0.006139808 0.0028374337 0.008626347 0.020633744
0003e0 c9 ce 0d 3c 07 8d 57 3b ed 3c b1 ba 0c 18 a1 3c
       0.008655258 0.0032890455 -0.0013522186 0.019664787
0003f0 70 31 5e 3c 52 65 57 3c da d8 3e bc 81 ea 92 3b
       0.0135615915 0.013146715 -0.011648381 0.0044835215

arith.constant20 f4 [256]
000000 b2 36 81 bb 48 66 e1 38 73 72 1f 3b f9 08 95 ba
       -0.003943288 0.000107478874 0.0024329692 -0.0011370472
000010 72 6c 64 3a e3 31 e9 bb d0 88 3f 3b 49 b6 f2 3b
       0.00087136694 -0.0071165427 0.0029225834 0.007406984
000020 a8 2e 3a ba 24 45 db bb f1 75 c0 3b 72 32 af bb
       -0.0007102289 -0.006691592 0.0058734347 -0.0053465897
000030 b3 84 e2 3b cd a4 28 3c b7 c3 a6 bb 59 ca b8 ba
       0.0069127916 0.010293198 -0.005089249 -0.001409839
000040 2c a4 0e 3c 46 c1 03 3b 66 76 9d 3a e9 62 35 ba
       0.008706134 0.0020104214 0.0012013435 -0.0006919341
000050 3b 44 2e bb 06 c3 0d bc ce 5b f0 3a 0f a9 b2 ba
       -0.0026590961 -0.008652454 0.0018337907 -0.0013630706
000060 dc 40 a1 bb 48 e4 62 bb ab 3c a1 bb 03 8e 90 39
       -0.004921062 -0.003462093 -0.0049205623 0.00027571627
000070 88 6c d0 ba 75 69 5e ba 4b 4d ac b9 84 9d eb ba
       -0.0015901485 -0.0008484342 -0.00032863984 -0.001797602
000080 47 55 d6 3b 15 ec 50 3a e4 9b 6c 3b 31 3a b3 ba
       0.0065409276 0.0007969749 0.003610366 -0.0013673959
000090 57 81 9c bb db 7c fb bb f8 8b 6b 3b 3f cb c8 bb
       -0.0047761607 -0.007674796 0.0035941582 -0.0061277444
0000a0 cd bc 46 3b a0 51 9e b9 47 aa 37 bb 2c 33 6e ba
       0.0030324936 -0.00030196924 -0.0028025077 -0.00090866047
0000b0 50 1e 75 ba b5 1c c0 ba a6 e1 c7 bb 9e d9 0f bb
       -0.0009350525 -0.0014656993 -0.0060998974 -0.0021949778
0000c0 72 b5 fd 3b 93 52 08 3c 99 1d 7f bb 4d a2 14 3c
       0.007742577 0.0083204685 -0.0038927554 0.009071899
0000d0 27 bd 06 bc 1d 9c da 3a e7 3a 69 3a 7e cf bc ba
       -0.008223808 0.0016678605 0.0008897022 -0.0014405099
0000e0 f0 bd f9 ba 94 c2 01 3c 4f b6 3b bb fb e4 e9 3b
       -0.0019053798 0.007919926 -0.00286426 0.0071378923
0000f0 8f c1 40 3a d1 08 80 3b 3e 5e 30 ba 1e 2c ab 3b
       0.0007353061 0.003907301 -0.00067279104 0.005223765
000100 07 c3 f4 b9 25 dc ff 39 a2 7f eb 39 67 43 eb 39
       -0.00046684613 0.0004880141 0.00044917787 0.00044872912
000110 b5 7e e3 39 fb f9 3f 3b 0e e7 c6 3b 53 00 bb bb
       0.00043391218 0.0029293287 0.0060700243 -0.0057068258
000120 b4 02 d9 bb c6 e1 8c 3b ec 36 08 bb 58 5d f2 ba
       -0.0066226367 0.004299375 -0.002078469 -0.0018490953
000130 d6 bb 3a 3b 04 3f 1e 3b 26 87 ea b8 6c f5 a6 3b
       0.0028493307 0.0024146447 -0.00011183163 0.0050951745
000140 3e af 41 3a f9 e2 03 3c 0f ca db 3b 22 9c 08 3a
       0.0007388479 0.00804972 0.006707437 0.0005211254
000150 ba 3d 00 bb 97 4f d7 bb e4 9c 8b 3b 53 8b 01 3c
       -0.0019568042 -0.006570767 0.004260646 0.007906753
000160 b3 96 7d b9 c0 a1 ce 3a fd c1 0f bc 3a 52 2d ba
       -0.000241841 0.0015764758 -0.008774278 -0.0006611679
000170 bb 00 b9 3b ac a2 e6 3b b1 16 96 3b 0e 3a 4f 3b
       0.005645839 0.007038435 0.0045803417 0.0031620297
000180 32 4b 81 ba 82 3d bf bb 29 f6 92 b9 86 81 d3 b9
       -0.0009864329 -0.0058361897 -0.00028030694 -0.0004034156
000190 fb 38 c3 ba 84 95 30 3b 75 56 87 3b df 72 9d 3a
       -0.0014894301 0.0026944587 0.0041301795 0.0012012384
0001a0 4b 5f b5 b9 a8 76 45 bb 61 5f be bb 8c 0a e6 b9
       -0.0003459401 -0.003013054 -0.00580971 -0.00043876877
0001b0 1c 58 c4 bb 2f 26 ba 3b 96 fd dd 3a bb fb 2c 3b
       -0.005991949 0.0056808214 0.0016936536 0.002639516
0001c0 66 50 4a 3b d3 e2 5e ba f0 63 41 bb dc c9 d8 ba
       0.0030870675 -0.00085024274 -0.002950903 -0.0016539651
0001d0 09 3b d2 bb 2a 14 a2 39 ee 6a b0 bb eb 18 b8 3a
       -0.006415729 0.0003091407 -0.0053838408 0.0014045512
0001e0 2d 60 b6 ba 3f 8c d1 ba 62 a8 25 bb 5f ef 30 3b
       -0.0013914161 -0.0015987231 -0.0025277366 0.0026998145
0001f0 62 5d a2 3b c1 db 03 bb 7e be 87 38 7c 5e 17 3a
       0.0049549798 -0.0020119997 6.4727836e-05 0.0005774272
000200 c0 3f f7 3b a2 41 01 3b 0b e7 80 bb 93 00 6b bb
       0.0075454414 0.0019722958 -0.0039337925 -0.0035858497
000210 b9 a0 a1 ba dc 22 a4 3b e2 0c b6 3b dc e4 89 b8
       -0.0012331224 0.0050090384 0.005555735 -6.5752974e-05
000220 22 61 b2 ba c9 ef 38 bc 82 17 09 3b 30 cf 8c ba
       -0.001360927 -0.011287638 0.0020918553 -0.0010742899
000230 44 1d 5c bb 46 2a bc 3a 84 1d 11 3c ba 5d 11 bc
       -0.003358678 0.001435586 0.008857135 -0.008872444
000240 0a b7 96 bb 98 1d c4 bb ad 98 b5 b9 db df 02 3c
       -0.0045994567 -0.005984973 -0.00034636763 0.007987942
000250 52 34 9b 3b b2 26 ed 3b fe a5 d2 bb 11 28 93 bb
       0.0047364617 0.007237279 -0.006428479 -0.0044908603
000260 31 b1 77 bb 41 7f 2a bc cd b5 8e bb 0e 90 dd 3b
       -0.0037794823 -0.010406316 -0.0043551684 0.0067615574
000270 5a cd 91 3b 24 62 87 3b d2 84 1b ba 8a b8 b2 3b
       0.0044495286 0.0041315723 -0.00059325725 0.0054541277
000280 99 78 e8 3b 03 ac 81 ba 7c 12 f1 ba 70 91 39 bc
       0.0070944545 -0.0009893182 -0.001839235 -0.011326179
000290 03 84 0d 3a d7 71 e7 bb cf 7c 21 bc dc 50 10 bc
       0.00053983944 -0.0070631313 -0.009856417 -0.008808341
0002a0 59 1a e8 bb aa ec 06 bb b8 04 de ba 7c 87 2f bb
       -0.007083219 -0.002058784 -0.0016938662 -0.0026783636
0002b0 42 2d d3 bb d9 6f 45 b9 83 16 5d ba f1 5c 48 bb
       -0.006444604 -0.0001882905 -0.00084338355 -0.0030572976
0002c0 f6 da 94 bb cd d1 34 bb ae 9c 5d ba 4d 45 27 ba
       -0.0045427037 -0.0027590871 -0.0008453828 -0.0006380871
0002d0 21 73 81 3b e0 a7 47 3b bb 78 d2 ba dd da 8b 3b
       0.003950492 0.0030465052 -0.0016057709 0.004268034
0002e0 87 f9 1f 3c b1 2b 67 3b 76 41 7f ba 2e f4 11 3b
       0.009764082 0.0035273845 -0.00097372325 0.0022270787
0002f0 5f 35 28 bb 97 04 3e 3b 22 bb ac 3b 4e ff 81 bb
       -0.0025666577 0.0028994435 0.0052713314 -0.0039672023
000300 38 74 ae 3a a4 57 db bb 6d 4b 8b bb 8a ab 13 3c
       0.0013309782 -0.006693797 -0.004250935 0.009013066
000310 9d 30 a7 bb b2 99 9a ba 51 6a 52 ba 77 ab 76 3b
       -0.0051022307 -0.0011795072 -0.00080267066 0.0037638822
000320 4b 0f 38 39 cc 22 f8 3a 30 5d a1 bb 03 a7 e7 3a
       0.00017553304 0.0018931269 -0.004924439 0.0017673675
000330 7a bc 8f 3a 75 3b fc 39 04 fd 03 3b 09 7b 8d 3b
       0.0010966205 0.00048109484 0.0020139823 0.0043176454
000340 c2 f2 85 bb 35 3d da 3a be 80 b3 3b 2f 9d 79 3b
       -0.004087777 0.0016650321 0.0054779937 0.0038088073
000350 1b 6d e6 bb 2b 01 19 bb c4 45 57 3b 68 fd 3d 3b
       -0.0070320494 -0.0023346643 0.003284798 0.0028990153
000360 44 f4 6b 3a ca 6e c6 39 25 06 87 3b 12 5a 88 3b
       0.0009000937 0.00037848047 0.0041206055 0.004161128
000370 54 75 ca bb 99 56 dd 3b 42 1c f7 3a 21 f0 0d 3b
       -0.0061785374 0.006754708 0.0018853026 0.002165802
000380 c9 9d 33 3a 96 a6 8c bb 08 f0 8f 39 c0 4b a5 ba
       0.000685182 -0.0042923195 0.00027453923 -0.0012611076
000390 e3 22 31 3b b7 fe 2a bb 9c 65 17 3c d4 14 ba bb
       0.002702885 -0.0026091763 0.009240534 -0.0056787524
0003a0 9f f8 6d bb 1b 29 e5 b9 bc 11 3b 3a 7c 72 74 3b
       -0.003631152 -0.0004370891 0.00071361265 0.0037299683
0003b0 95 f9 c9 3a 55 00 aa ba a8 dd 9a 3b d8 d1 19 3b
       0.0015409464 -0.001297007 0.0047261305 0.0023471024
0003c0 3a e6 08 3c 40 7d cb 3b bf 11 12 bc a9 60 4d bb
       0.008355672 0.0062099993 -0.008915364 -0.0031338132
0003d0 83 d8 5c bb fa 21 ec bb 9d 7c 8b bb 7b e0 5b bb
       -0.0033698387 -0.0072061988 -0.0042567984 -0.0033550549
0003e0 5d 40 0e 39 5b a0 70 3a 5d ce 86 ba 0e 25 a9 39
       0.00013566152 0.0009179168 -0.001028489 0.000322618
0003f0 60 f3 99 3b 06 66 71 bc 13 70 48 bb 3b f1 15 3a
       0.004698202 -0.014733797 -0.003058438 0.0005719845

arith.constant21 f4 [2, 64]
000000 76 45 5a 35 d9 15 7b 36 e1 7d 14 b7 24 f3 81 36
       8.131241e-07 3.7414632e-06 -8.850796e-06 3.872805e-06
000010 65 19 a1 36 5d 32 db 36 47 37 d9 34 76 2f 00 b7
       4.80113e-06 6.5325717e-06 4.045962e-07 -7.640445e-06
000020 47 02 25 37 c3 c6 59 36 cb 5c 8b b6 6b e7 39 b6
       9.835297e-06 3.2451214e-06 -4.1533253e-06 -2.7701851e-06
000030 6a 16 dc 35 9f 4d d0 36 fa 81 0c 36 5b 5b 04 b5
       1.6397801e-06 6.2079193e-06 2.0937282e-06 -4.930677e-07
000040 49 ab 84 36 73 87 ef b5 16 60 8f 36 d8 d6 b4 b6
       3.9538468e-06 -1.7846309e-06 4.272918e-06 -5.389429e-06
000050 9e 2c 20 b6 18 98 36 b6 61 cd 0f 35 fd 0a 9c b6
       -2.3867829e-06 -2.7208644e-06 5.3570517e-07 -4.6504415e-06
000060 4f 32 59 b5 8c 50 d7 b5 7e ea 2a b6 29 a7 a1 36
       -8.091201e-07 -1.604219e-06 -2.5468466e-06 4.817634e-06
000070 58 2c 42 b4 07 1a f1 b5 e0 72 3c 36 ab 9d 65 36
       -1.808379e-07 -1.7963474e-06 2.808105e-06 3.4215434e-06
000080 5b c3 02 b7 a6 e7 e1 36 ac 28 05 b6 43 16 17 b6
       -7.794089e-06 6.73249e-06 -1.9842219e-06 -2.2513711e-06
000090 4c 18 27 36 b1 c8 31 36 3f 8a ea b3 57 cc 5e 36
       2.4899082e-06 2.6491873e-06 -1.0921621e-07 3.319952e-06
0000a0 66 bd 94 b6 e4 50 76 36 f1 ad 0d b5 d1 1a 8f 36
       -4.4327926e-06 3.670394e-06 -5.277971e-07 4.264854e-06
0000b0 e6 d8 c8 b5 9c ca b9 34 11 3d 1c 36 45 ed 24 b7
       -1.4964287e-06 3.4606353e-07 2.3281357e-06 -9.830405e-06
0000c0 73 b0 7b b7 2f 3a f0 36 9c 59 58 b6 b6 5c b0 34
       -1.5001849e-05 7.159331e-06 -3.2238668e-06 3.285001e-07
0000d0 1d 57 dc b5 46 87 e1 36 43 17 f3 b6 86 09 93 36
       -1.6416631e-06 6.7212704e-06 -7.2446724e-06 4.38205e-06
0000e0 ac 96 3b b6 6b 42 c6 35 94 4c b0 35 80 f2 c4 36
       -2.7952874e-06 1.477148e-06 1.3135309e-06 5.869486e-06
0000f0 8a 08 4f b6 6f 2e 32 b4 82 02 90 b6 d7 99 7e b6
       -3.0850374e-06 -1.6594434e-07 -4.2918264e-06 -3.7938496e-06
000100 95 a9 97 b6 74 30 80 b6 4f d5 15 b5 9a f8 eb 36
       -4.5198926e-06 -3.820338e-06 -5.581723e-07 7.032487e-06
000110 bb e5 4d 36 47 8c 77 36 43 4b da 36 6b f3 08 36
       3.0681101e-06 3.688752e-06 6.505668e-06 2.0407267e-06
000120 ea 98 1a b4 87 7c 5b 35 01 94 9a b6 2a 02 09 37
       -1.4397997e-07 8.176507e-07 -4.6067876e-06 8.16634e-06
000130 2a df 4c 35 92 69 b4 36 a3 6b 29 b7 05 54 29 37
       7.632067e-07 5.376708e-06 -1.0098246e-05 1.0092747e-05
000140 b5 62 f7 b6 39 be 1c 37 a3 2e 62 b6 3a 49 3b 37
       -7.3726646e-06 9.342614e-06 -3.370377e-06 1.1163118e-05
000150 7b 12 74 37 19 a0 5e 36 d3 50 10 b6 17 f1 08 36
       1.4547836e-05 3.3173767e-06 -2.1504718e-06 2.0405912e-06
000160 4a d2 5a 37 d5 cc 3a 36 1a 10 04 b7 cb 63 ac 36
       1.3042774e-05 2.7835388e-06 -7.871562e-06 5.137617e-06
000170 cf d9 44 36 ca 9a 25 36 62 3f 60 b7 0b eb a7 36
       2.9333057e-06 2.4677015e-06 -1.3366198e-05 5.0043504e-06
000180 54 4a 0c 37 df 04 84 36 29 74 c8 b6 76 87 cc 34
       8.361956e-06 3.9344736e-06 -5.9739873e-06 3.8096522e-07
000190 4f dd 43 b6 d0 75 72 36 db b0 f7 b5 4a 83 da 35
       -2.9186083e-06 3.6129386e-06 -1.8454406e-06 1.6280476e-06
0001a0 ee 60 be b5 6c 26 9a 36 6c 6f 0d b7 c0 4c d9 36
       -1.4184313e-06 4.5940305e-06 -8.430197e-06 6.476039e-06
0001b0 89 40 e9 36 60 1f b0 35 cf 11 12 b6 78 37 cd b6
       6.951454e-06 1.3122153e-06 -2.1766061e-06 -6.1159335e-06
0001c0 73 4c f6 b5 80 ed 37 36 54 15 6d 36 0a c0 09 b7
       -1.8350678e-06 2.7407368e-06 3.5328167e-06 -8.210549e-06
0001d0 56 42 74 36 2b 48 65 b7 c4 05 28 b4 10 b6 47 b6
       3.6397446e-06 -1.3666267e-05 -1.5648317e-07 -2.9759285e-06
0001e0 8a 80 92 36 03 14 92 35 e7 6b 01 36 3a 5d dd b5
       4.366103e-06 1.0883672e-06 1.9285305e-06 -1.6492916e-06
0001f0 49 ff 52 37 aa 49 d1 35 e5 28 3c 37 58 be 2c b6
       1.2576414e-05 1.5593153e-06 1.1215195e-05 -2.5740792e-06

arith.constant22 f4 [2, 64]
000000 2d 9d d9 bd 2d 50 d6 3d 84 78 f0 bd c9 01 fc 3d
       -0.10625682 0.10464511 -0.117417365 0.12305028
000010 02 db 96 3d e7 d0 d7 3d e0 7f 16 bd 7b a3 e2 bd
       0.07365991 0.10537892 -0.036743045 -0.11066338
000020 66 cd a4 3d 88 4b e2 bd e5 6e 33 bd 4b 86 f0 bd
       0.08046989 -0.11049563 -0.04380693 -0.11744364
000030 8f 0c 88 3d 17 f6 a2 3d 3a 47 99 3c 57 14 e8 bd
       0.0664302 0.07957094 0.018710721 -0.113320045
000040 68 2e c4 bd 1f d0 f0 3d 8e 43 82 3c c8 62 ea bd
       -0.09579164 0.11758446 0.015901353 -0.11444622
000050 0e a7 ef bd ce 97 71 3d a8 ef e3 3d 60 31 f7 bd
       -0.11701785 0.058982663 0.11129695 -0.120699644
000060 5d 73 df 3d 4d 88 1f bd 42 3b c6 bd d2 1a f8 bd
       0.10910676 -0.038948346 -0.09679271 -0.121144906
000070 4f bd 9a bd dd fc f2 3d 19 37 ee 3d 08 10 d5 3d
       -0.07555639 0.11864636 0.11631603 0.10403448
000080 8f 7a e4 bd 61 9f f6 3d 9a 7e 28 bc ac 14 c6 3d
       -0.11156189 0.12042118 -0.01028409 0.096719116
000090 17 e4 e3 bd 85 e6 ae 3d b2 ab f3 bd f5 bf c7 3d
       -0.11127489 0.08540062 -0.11897983 0.0975341
0000a0 bb e5 f8 3d f4 59 bd 3b 28 fe c9 bc 7b c8 e4 bd
       0.121531926 0.0057785455 -0.024657324 -0.11171051
0000b0 2f 1a ee bd 02 18 ec 3d ea 77 f9 3d 3c e3 e7 bd
       -0.11626088 0.115280166 0.12181075 -0.113226384
0000c0 ac 0a 01 be 0a 00 ec 3d 8f 6b b0 bd 06 1f 04 be
       -0.12601727 0.11523445 -0.08614265 -0.1290246
0000d0 d3 b4 9f 3d ea 1d ed bd b0 22 eb bd 58 c2 e3 bd
       0.07798161 -0.11577971 -0.114812255 -0.111210525
0000e0 e8 c6 ef bd 2f 34 dc 3d 5a 7a 69 bd 31 df 96 3d
       -0.1170786 0.10752141 -0.05700145 0.07366789
0000f0 8d 35 de 3d f0 93 fe 3d 9a 6e f6 bd 6d 86 00 3e
       0.10850058 0.124305606 -0.12032814 0.1255128
000100 cc 1b 03 be 8e 5d bd 3d da da 0a 3e f9 d4 fc bd
       -0.12803572 0.0924636 0.13560048 -0.12345309
000110 e8 ac 05 3e 7b d9 01 3e c4 2b 03 be 37 e0 02 3e
       0.1305424 0.12680618 -0.12809664 0.12780844
000120 99 d1 13 3e 04 6b 05 3e ea 7d 04 be 17 54 06 3e
       0.14435424 0.13029104 -0.12938657 0.13118015
000130 0d b9 c4 bd 0d 56 ff 3d 12 ed 45 3d 92 7d 04 3e
       -0.09605608 0.12467585 0.04832179 0.12938526
000140 1f c1 ec 3d 40 a2 01 3e f3 b5 06 3e e7 fb 06 3e
       0.115602724 0.1265955 0.13155346 0.1318203
000150 75 6c 00 3e 7c 6b 01 3e 16 48 cf bd 6f 56 04 be
       0.12541373 0.12638658 -0.10121171 -0.12923597
000160 9b 31 0c 3e f7 1f ea 3d 13 f6 05 be c5 30 07 3e
       0.13690798 0.11431878 -0.13082151 0.13202198
000170 10 a9 f4 3d 27 f5 a7 3d 97 c6 f5 3d ee 13 0d 3e
       0.119463086 0.08201056 0.12000769 0.13777134
000180 0a 21 0d be c6 87 02 be e5 2a 10 be 3d a2 06 be
       -0.13782135 -0.12747106 -0.14078863 -0.13147826
000190 78 06 0e 3e ff 6e 09 be 84 61 04 3e 64 98 05 3e
       0.13869655 -0.13421248 0.12927824 0.13046414
0001a0 a1 bf e0 3d 59 d5 05 3e 0e 6b a3 b9 e2 2f 0a be
       0.1097405 0.13069667 -0.00031169545 -0.13494828
0001b0 fb 2d 06 3e 16 9c 03 be 51 87 09 be 47 22 09 3e
       0.13103478 -0.12852511 -0.13430525 0.13391982
0001c0 76 6c 00 be 0f bf 07 be 21 79 04 3e d7 50 12 be
       -0.12541375 -0.13256477 0.12936832 -0.1428865
0001d0 f7 8b 03 3e e0 4c ee bd 1a db f2 3d 55 81 05 be
       0.12846361 -0.116357565 0.118581966 -0.13037618
0001e0 ce 97 06 3e b0 c4 c8 3d 7f a2 13 3e c6 f3 06 3e
       0.13143846 0.0980314 0.14417456 0.1317893
0001f0 46 d7 04 be 37 a5 0a 3e 08 c9 01 3e 33 a8 04 3e
       -0.12972745 0.13539587 0.12674344 0.12954788

arith.constant23 f4 [2, 64]
000000 67 35 f8 b9 29 17 0e bc ae cb 72 3b 4c 1a 3d 3b
       -0.00047342034 -0.008672514 0.0037047672 0.0028854785
000010 97 b6 f2 ba f0 27 23 bb 00 35 7a 3b 20 d3 66 bb
       -0.0018517551 -0.002489563 0.0038178563 -0.0035221055
000020 62 40 08 3c 6a d6 14 3c 38 ee cf 3b c7 a9 ae 3b
       0.008316131 0.009084323 0.0063455366 0.0053302976
000030 c5 1e e7 b9 24 62 b9 ba 20 f3 36 3b ad ed 31 3a
       -0.00044082679 -0.0014143628 0.002791591 0.00067874306
000040 08 2f ee bb 6f d7 f2 bb f1 d3 89 3b 18 ca 33 3b
       -0.00726879 -0.0074109356 0.0042061736 0.002743369
000050 e3 5a 38 b9 6f 14 a6 bb 4f d1 b7 3b 5a 63 aa bb
       -0.00017581465 -0.005068354 0.0056096683 -0.005199832
000060 a6 0a 71 3a fb 85 c0 3b a2 80 ac 3b 73 4b 7d 3b
       0.0009195007 0.0058753467 0.0052643577 0.0038649708
000070 36 1d 3f 3c ce ec ad bb c0 49 20 3b 3c 98 48 3a
       0.011664679 -0.0053077703 0.002445802 0.0007652079
000080 79 25 ce bb 02 3e 75 ba 4a d0 1b 3a b9 02 60 ba
       -0.006291088 -0.0009355248 0.0005943818 -0.00085453276
000090 b8 2d 48 39 a6 74 87 3a 79 5d bc bb 23 9b 41 bb
       0.00019090518 0.0010334447 -0.0057484475 -0.0029541932
0000a0 80 73 00 3b 4e b5 9b bb 91 7e 80 3b 79 1b c1 3b
       0.0019600093 -0.004751838 0.003921338 0.0058931676
0000b0 b7 8b ef 3b 12 35 27 39 d1 d2 82 3b 17 b8 01 3c
       0.0073103565 0.00015946131 0.0039924164 0.007917426
0000c0 cc b3 d5 bb c7 36 70 39 ed cb 81 bb 85 c9 dd 3b
       -0.0065216776 0.0002290859 -0.0039610774 0.0067684078
0000d0 81 bb ba 39 22 2d a6 bb 9b 8f b1 3a ca 81 2c bc
       0.00035616386 -0.005071298 0.0013546826 -0.010528991
0000e0 6d 89 ab 3a e5 cf ae 3a e6 46 6d 3b d3 ee 90 3b
       0.0013087221 0.0013337104 0.003620559 0.0044230013
0000f0 97 c7 9b bb aa bd 17 3c 1b 18 09 3a 1c 75 ff 3b
       -0.0047540176 0.009261528 0.0005229727 0.007795943
000100 59 26 b8 b9 d8 ca 18 3c 92 dd 57 3a 7a 04 84 3b
       -0.00035123786 0.0093257055 0.00082346157 0.004028854
000110 30 ed c5 39 47 4c d5 3a 72 28 4a 3a 79 69 0d bb
       0.00037751487 0.0016273343 0.00077117153 -0.002157776
000120 0f 1b a5 ba c9 26 44 bb 3e 77 f3 3b 69 fe 61 3b
       -0.0012596565 -0.0029930344 0.0074299863 0.0034483916
000130 a1 84 ca 3b 5b bc 56 3b 31 9a 2c 39 71 33 db bb
       0.0061803614 0.0032766077 0.00016460639 -0.006689482
000140 bd 70 8d bb 5f 36 ad bb 22 10 7d bb 53 38 d5 3b
       -0.004316418 -0.0052860226 -0.0038614352 0.0065069585
000150 ce a5 4c bb 85 7a 96 39 32 30 39 bb bf 85 c1 3b
       -0.0031226757 0.00028701514 -0.0028257486 0.0059058364
000160 5c 75 40 3c 20 88 7d 3a 69 5a 84 3a f6 a5 09 3c
       0.011746731 0.0009671468 0.0010097745 0.008401385
000170 c9 b6 2c 3a fa 97 a4 3b 88 f0 96 bb cd d0 52 bb
       0.00065885164 0.005023 -0.0046063103 -0.0032167912
000180 c3 4d ab bb 2b 52 d7 3b a2 34 8b 3b 49 ed 96 bb
       -0.005227776 0.0065710745 0.0042482177 -0.0046059233
000190 22 e1 92 bb 00 88 be 3a 80 eb c0 3b 61 f0 1b bc
       -0.0044824043 0.0014536381 0.005887449 -0.00951776
0001a0 89 87 51 3b 25 94 49 ba 23 a5 0f 3c 7f 98 bf bb
       0.0031971654 -0.0007689617 0.008767399 -0.0058470364
0001b0 71 a1 84 3b 18 5e a2 bb ba 22 18 3c 02 a6 c2 bb
       0.0040475656 -0.0049550645 0.009285623 -0.0059402
0001c0 af a8 ef 3b c8 ff 6e ba 58 58 29 3c c8 54 94 3b
       0.00731381 -0.0009117094 0.010336004 0.0045267083
0001d0 b3 e3 c2 ba aa ab 38 bb fc 1b 83 3c ec f5 f0 3a
       -0.0014868885 -0.0028178492 0.016004555 0.0018383837
0001e0 ca 08 46 3a 5a 1c 93 3a c2 37 af bb bf 0b 85 3b
       0.000755441 0.0011223659 -0.005347223 0.004060238
0001f0 de 39 7e bb 02 26 31 3b e1 b4 08 3b 72 4f 6d ba
       -0.0038791816 0.002703071 0.0020859765 -0.0009052671

arith.constant24 f4 [64]
000000 69 dd bc 41 84 75 96 41 d9 5b 71 41 d7 df 86 41
       23.60811 18.80738 15.084924 16.859297
000010 64 5b 72 41 fa 95 cb 41 26 0b 9c 41 1d 6d 69 41
       15.147312 25.44823 19.505444 14.589139
000020 71 28 8a 41 2e a0 8b 41 fc 53 62 41 d2 4d 72 41
       17.269747 17.453213 14.145504 15.143999
000030 4c 26 21 41 cb af 83 41 53 ae 5b 41 ad e8 99 41
       10.07185 16.460836 13.73006 19.238611
000040 45 bf a2 41 7b 2e 8e 41 e0 bf 91 41 f4 78 8b 41
       20.343393 17.772696 18.218689 17.43406
000050 d2 99 8c 41 cd 12 81 41 21 08 7c 41 96 4a 8e 41
       17.575108 16.13418 15.751985 17.786419
000060 76 43 75 41 41 d3 86 41 b2 09 e1 41 39 4a 8f 41
       15.32897 16.853151 28.129734 17.911242
000070 f9 40 d3 41 55 37 4a 41 cb 0a 5d 41 fe 35 97 41
       26.406725 12.638509 13.815135 18.901363
000080 c9 1e a4 41 c8 ca 23 41 fa bd b2 41 f4 83 fc 40
       20.515032 10.237007 22.342762 7.8911076
000090 7f 1e a2 41 2f 97 9e 41 0d 53 8b 41 9a 00 6c 41
       20.26489 19.82382 17.415552 14.750147
0000a0 b7 0a 85 41 87 37 d2 41 f1 67 25 41 8b 63 8b 41
       16.630232 26.277113 10.337876 17.423605
0000b0 6e aa a1 41 66 09 75 41 8e 06 ba 41 8e 7c 89 41
       20.208218 15.314795 23.2532 17.185818
0000c0 7d 80 27 41 5a 04 49 41 c3 41 53 41 e9 c8 6a 41
       10.468869 12.563562 13.203555 14.67405
0000d0 8d 91 3f 41 b9 08 87 41 fc 4e ac 41 dc ff 2d 41
       11.973035 16.87926 21.538567 10.874966
0000e0 32 78 7f 41 80 9e 8d 41 d3 a5 6d 41 6f d6 9a 41
       15.966845 17.702393 14.852984 19.354704
0000f0 dd 13 85 41 9d 60 6e 41 18 79 80 41 b0 e8 61 41
       16.634699 14.898587 16.059128 14.119308

arith.constant25 f4 [64]
000000 17 30 41 40 7c 55 a4 bf 60 34 5a 3e 46 32 fa bd
       3.0185602 -1.2838588 0.21309042 -0.1221662
000010 e6 92 14 bf e2 c8 74 40 0c 7b c2 3e f7 43 27 c0
       -0.5803665 3.824761 0.37984502 -2.6135232
000020 7c 17 a4 3e f4 8f b2 3e 1f 05 32 c0 12 b8 06 bf
       0.32049167 0.34875453 -2.7815626 -0.5262462
000030 5e ff 13 c0 80 ec 83 3e 55 95 fd bf 4f 7a 46 3e
       -2.3124614 0.25766373 -1.9811198 0.19382595
000040 63 c3 c4 3e 26 a3 05 3e 8b 29 c6 3e a8 e8 71 bf
       0.38430318 0.13050517 0.3870357 -0.9449563
000050 b2 a8 ee 3e 74 4e e9 be bc e9 45 bf 29 02 f0 be
       0.4661308 -0.45567667 -0.77309775 -0.46876648
000060 e2 85 05 c0 d1 0c 38 3e 13 51 86 40 20 ae ee bd
       -2.0862966 0.17973639 4.1973968 -0.116543055
000070 75 cb 7b 40 82 10 f3 bf 75 6e ac bf 56 ad 67 bf
       3.934293 -1.8989413 -1.3471209 -0.90498865
000080 6a 98 b9 3f b9 cd 62 c0 45 1c 6a 3f aa d0 0e c0
       1.4499638 -3.5438063 0.91449386 -2.2314858
000090 ca 59 4e c0 98 83 f5 3f 97 3c 2d bf 29 ef 1d c0
       -3.2242303 1.9180784 -0.6767058 -2.4677222
0000a0 f9 de 03 3f 3f 4d 82 40 7f c2 90 bf 31 ff 0f c0
       0.51512104 4.0719295 -1.1309355 -2.2499506
0000b0 8d 8b 70 3f 87 ee f7 be d9 01 25 40 26 9e b2 bf
       0.9396294 -0.4842417 2.5782378 -1.3954513
0000c0 07 03 81 bf 03 9a a7 3e 44 d4 f5 be 46 a9 a6 3d
       -1.0079049 0.3273469 -0.48013508 0.08137755
0000d0 59 23 13 c0 c6 72 58 3f 45 02 45 40 a8 b9 44 c0
       -2.2990324 0.8455013 3.0782635 -3.0738316
0000e0 69 0e 28 bf 5c fc a7 3f 81 9a e5 be 9b 20 10 40
       -0.6564699 1.3123889 -0.4484444 2.25199
0000f0 20 bc 3c c0 53 d1 a7 bf 94 73 86 be 94 a8 81 c0
       -2.9489822 -1.3110756 -0.26260054 -4.0518284

arith.constant26 f4 [1, 1, 64]
000000 09 7b 72 bb 96 1b fa 3c c5 b6 d4 3b aa 4c 1c 3c
       -0.0036999604 0.030530732 0.0064915144 0.0095397625
000010 3e 10 83 3c 05 80 8c 3a 9f e7 2f 3c ca 02 83 3c
       0.015998956 0.0010719305 0.010736375 0.01599254
000020 66 91 d5 3c 91 4d 85 3c 2c 4a 4b 3d 82 d4 65 3c
       0.026070308 0.016272338 0.049631283 0.014027717
000030 93 93 33 3c f6 a8 00 3c e9 30 05 3d 72 98 36 3c
       0.010960477 0.007852783 0.032517347 0.011144744
000040 5a 6b 82 3c 40 a1 3f 3c 4c ad 8d b9 fd f6 13 3d
       0.01592033 0.01169616 -0.00027022732 0.03612422
000050 79 b4 5e 3c 39 00 84 3c d8 a2 03 3d ee 0c 8b 3b
       0.013592833 0.016113387 0.03213772 0.0042434847
000060 98 29 14 3d 8f 5b 74 3c e3 6c af 3b f3 60 90 3c
       0.03617248 0.014914407 0.0053535565 0.017624354
000070 c7 4f 65 bb 13 14 b2 3c 6a 31 cc 3c 80 08 ba 3c
       -0.0034990178 0.021738088 0.024925906 0.022709131
000080 ec 9d 16 3b 27 f6 12 3b 36 02 1c bb af 53 ee 3b
       0.0022982312 0.002242455 -0.0023805029 0.0072731595
000090 e6 d9 67 3d 16 c5 f2 ba f4 43 3f 3c 4e d3 90 3c
       0.05660429 -0.0018521871 0.011673916 0.017678883
0000a0 9f 81 16 3c be f5 be bb cd 07 ac 3c ef 1e 00 3d
       0.0091861775 -0.0058276346 0.020999813 0.0312795
0000b0 f4 bc 8c 3c 50 5c 85 ba 13 39 15 3b 70 36 e2 3c
       0.017179944 -0.0010174606 0.0022769615 0.027613848
0000c0 81 62 d3 3b 4b d8 f4 bc ef c9 88 ba bd 34 54 39
       0.0064509516 -0.029888293 -0.0010436157 0.00020237542
0000d0 a8 14 04 3d 92 15 54 3c 5a af f1 3a 9c e6 2b 3c
       0.03224626 0.012944596 0.00184391 0.010491993
0000e0 80 03 41 3d da 0d 12 bb 53 c9 aa 3c 3f 44 1d bc
       0.04712248 -0.0022286088 0.020847952 -0.009598791
0000f0 4b 6e 1e 3d d4 0d 15 3d 2d 87 0d 3d 96 7e e2 3c
       0.038679402 0.03639014 0.03455274 0.027648252

arith.constant27 f4 [1, 1, 256]
000000 72 ff 8a bc ec ea bb 3b d0 73 52 3b d8 25 82 3b
       -0.016967509 0.005734792 0.0032112487 0.0039717965
000010 00 5a 84 3b 8f 40 9f bb 18 26 9d 3b fa 3d 85 3b
       0.004039049 -0.004859991 0.004795801 0.004066226
000020 00 f4 60 3b dc 2f 5c bc 50 62 c4 3b c8 61 d2 bb
       0.0034325123 -0.013439145 0.005993165 -0.006420348
000030 1e b9 67 3c 8c 8d 6a 3c 91 3a 83 bc f7 81 22 3a
       0.0141432565 0.014315974 -0.016019138 0.0006199176
000040 92 c8 89 3c 3f 5d 34 3b c4 ad 12 3b 8f cf e8 3a
       0.016819272 0.00275214 0.0022381404 0.0017762053
000050 30 a7 16 bc 27 d4 91 bc 57 ea be 3a 23 66 6b bc
       -0.009195134 -0.017801357 0.0014565688 -0.014367613
000060 ad f5 c7 bb 07 30 57 3b 44 cb 65 bc e0 32 9c ba
       -0.006102285 0.0032835023 -0.014025513 -0.0011917017
000070 4e f3 e7 bb 68 34 62 ba 30 03 07 bb dc e9 20 bb
       -0.0070785647 -0.0008629025 -0.0020601265 -0.0024553454
000080 5b 89 05 3c 16 e6 8c 3a b3 83 8c 3b 80 01 11 bb
       0.008150424 0.0010749723 0.0042881607 -0.0022126138
000090 d8 e5 59 bb 58 21 b1 ba a3 7b fc 3b 04 44 91 bc
       -0.003324857 -0.0013513966 0.0077051683 -0.017732628
0000a0 e1 1b c0 3b 6b 94 ce 39 90 4e 6e bb 53 7e a7 bb
       0.0058626984 0.00039401962 -0.0036362745 -0.0051114946
0000b0 f9 c9 4a bb 88 ed 38 3c 8a 4f b6 bb 6f 28 11 bc
       -0.003094314 0.011287101 -0.005563681 -0.008859738
0000c0 58 9f af 3b 8d 04 a8 3c 57 54 1a bc 35 9e 51 3c
       0.0053595714 0.020509982 -0.009419522 0.012794067
0000d0 b2 ba 62 bc ee a2 76 bb e9 51 17 3c 7b 18 9b bc
       -0.013838457 -0.0037633735 0.0092358375 -0.018932572
0000e0 7a af 6f 3a eb db 42 3c c2 7c 55 bb 88 9a e6 b9
       0.00091432745 0.011893253 -0.0032575582 -0.00043984153
0000f0 f0 8a 64 3b 3d b3 00 3c fd a0 83 ba 02 2b f8 3b
       0.0034872852 0.007855234 -0.0010042485 0.0075734863
000100 93 9e 5e 3a d1 36 b6 3b 3d 8c b8 3b 58 52 c2 3b
       0.00084922573 0.005560734 0.005631952 0.0059302263
000110 4b 3e 72 bb 6b 19 3b 3c 81 7f 08 3b 1f 05 d2 ba
       -0.00369634 0.011419634 0.0020827951 -0.0016023255
000120 21 56 86 bc 55 0c 13 3c 7f 98 31 bc f8 9e c5 bb
       -0.016398491 0.008975108 -0.010839581 -0.0060309134
000130 ad dd 4b b9 17 f1 48 3c ef 4d 15 3b a2 74 ac 3b
       -0.0001944217 0.012264512 0.0022782048 0.005262927
000140 d3 98 78 3b 5f 14 87 3c c6 62 16 3c 9a 90 29 3b
       0.0037932887 0.016489206 0.009178823 0.0025873543
000150 ae 75 40 3b dd 5d 01 bc 9b 30 05 3c 2d 1a 57 3c
       0.0029367018 -0.007895914 0.008129264 0.013128799
000160 e7 b6 d8 3a d4 31 87 3b dc b7 3a bc 60 f1 f9 3b
       0.0016534001 0.004125813 -0.011396375 0.007627651
000170 b5 22 21 3c 06 5f 7b 3b ca ef b8 3a b2 a4 38 3b
       0.009834935 0.00383562 0.0014109549 0.0028174338
000180 ec 1a 05 bb 6c 11 e0 bb 5e 54 d5 ba 7f 85 09 bc
       -0.0020310236 -0.0068380143 -0.0016275754 -0.008393644
000190 76 bb c8 3a cd 9f a3 3b 05 2c 4a 3b ef c3 e9 ba
       0.0015314657 0.004993415 0.0030848992 -0.0017834882
0001a0 27 d5 86 ba c6 f5 01 bc 7e 09 1e bc d5 8e 08 bc
       -0.0010286913 -0.007932132 -0.009645818 -0.008334835
0001b0 76 a6 c5 bb 8f 8c 15 3c a2 af 0a bc 92 c3 85 3a
       -0.0060318066 0.00912775 -0.008464726 0.0010205379
0001c0 ec 4f a8 3b 16 bf a2 b9 1d be 88 bb e7 94 2a bc
       0.0051364806 -0.00031041418 -0.004173054 -0.010411478
0001d0 a4 01 4b bb 0e a2 a1 3b 3c f6 57 bc ce a0 c1 3b
       -0.003097632 0.0049326485 -0.013181265 0.005909062
0001e0 b7 1e e1 39 16 1a 66 bb 9c 42 2f ba 34 a9 1b 3c
       0.0004293823 -0.0035110763 -0.0006685646 0.00950079
0001f0 27 aa 1d bb e7 c7 b9 ba b6 fc 69 3b c9 40 0c 3a
       -0.0024057718 -0.0014173955 0.0035703606 0.000535023
000200 8b bc 6c 3c 1c 1f 6e 3b c2 3b 92 b9 09 41 62 bc
       0.014449249 0.003633446 -0.00027891813 -0.013809451
000210 d5 ad 82 bb 3a 69 27 3c 76 78 10 3c ea 06 ad bb
       -0.0039880075 0.010217959 0.008817783 -0.0052803652
000220 1e d6 82 b9 c3 ff b1 bc 85 3d 7b 3a 21 c2 1e bc
       -0.00024955062 -0.021728402 0.0009584057 -0.009689839
000230 fd ec 84 bb b3 2c 18 bc 97 52 71 3c 6b e4 93 bc
       -0.0040565715 -0.009288001 0.014729164 -0.018053254
000240 ee 85 65 bb 03 48 1e bc 77 32 cf bb 71 24 ac 3c
       -0.0035022455 -0.009660724 -0.0063231546 0.02101347
000250 9f 76 99 3b 10 68 e7 3b 6f c3 5b bc 99 ea cf bb
       0.00468333 0.0070619658 -0.013413294 -0.006345105
000260 18 40 2c bc f2 5c dd bc 3e 31 a4 bb b3 4e 90 3c
       -0.010513328 -0.027021859 -0.005010753 0.017615652
000270 4e d4 3d 3c be 26 3a 3c f1 27 d3 3a a8 4b 26 3b
       0.011586262 0.011361776 0.0016109926 0.0025374684
000280 b4 db b8 3a 1b c6 c2 bb f0 77 1b bc c8 05 b9 bc
       0.0014103563 -0.005944026 -0.009489045 -0.022585765
000290 72 10 bf bb d0 73 66 bc 29 3b 65 bb 75 94 95 bc
       -0.005830818 -0.014065698 -0.003497789 -0.018259266
0002a0 51 ab 44 bc 01 3d a2 3a 9a 80 1e bc c3 f9 5b 3b
       -0.012003736 0.00123778 -0.009674216 0.0033565618
0002b0 e8 1e 8a bc 42 23 5a bc 6b eb 87 3a dd dc 0b bc
       -0.01686044 -0.01331407 0.0010369843 -0.008536545
0002c0 66 7e 54 bc e2 61 1d bc 05 96 d7 3b 89 ad e8 3b
       -0.012969589 -0.009605857 0.006579163 0.007100765
0002d0 b3 94 8f 3b f0 5e 4b ba be 90 b5 bb ef b9 55 3c
       0.00438174 -0.0007757982 -0.0055409363 0.013044818
0002e0 17 eb a5 3c 0c f5 3f 3a 89 0c 8b bb d6 24 13 ba
       0.020253701 0.00073225866 -0.0042434377 -0.0005613094
0002f0 3c 6d 09 bc 71 c1 25 3c 77 85 0a 3c de 1e 45 3b
       -0.00838786 0.010116921 0.008454672 0.0030078213
000300 82 73 e6 3b 0d e8 2b bc e7 3e 12 bc bd f2 39 3c
       0.0070328126 -0.010492337 -0.00892613 0.011349377
000310 a5 53 53 bc 51 46 00 bc b5 58 0f bc 63 e3 2f 3c
       -0.01289836 -0.007829265 -0.008749177 0.010735366
000320 20 ec c1 3b 08 b8 eb ba 57 2f 8f 3a 5a 92 94 b9
       0.005918041 -0.0017983923 0.0010924143 -0.000283378
000330 16 72 06 3c 2f 69 27 bc 03 b1 0c 3b 87 15 cc b9
       0.008205911 -0.010217949 0.0021467812 -0.0003892595
000340 62 ff 74 bb 3c 6d c2 39 c8 ea 80 3c c3 79 36 3c
       -0.0037383665 0.0003708395 0.015736952 0.011137429
000350 0b a6 40 bc b9 e3 8b bb 45 fe ec 3b 64 7c 8c 3a
       -0.011758338 -0.00426909 0.0072324597 0.0010718224
000360 ff 81 0b bb e6 8c 36 3b e3 c6 e2 3b 3a e2 3e 3c
       -0.00212872 0.0027854978 0.006920682 0.011650616
000370 28 b4 13 bc 91 76 02 3c bc d7 61 bb c1 fd 15 3c
       -0.009015121 0.007962839 -0.0034460863 0.009154738
000380 4e 8b 7b b9 74 20 72 bc 58 f7 0d 3c 21 08 84 bb
       -0.0002398912 -0.014778245 0.008664928 -0.0040292894
000390 d5 76 87 3a 93 a9 e4 ba ae eb 5c 3c 26 e9 be bb
       0.0010335097 -0.0017445557 0.013483925 -0.0058261333
0003a0 d8 2d ca bb 11 ff 7d 3b 3d 44 8b 3a 18 5e 78 bb
       -0.006170016 0.0038756768 0.0010625195 -0.003789788
0003b0 6d 17 a4 3b 5c 55 5e bc 64 42 35 3c 12 86 0b 3b
       0.0050076754 -0.013570156 0.011063192 0.002128963
0003c0 33 18 9a 3c bf fb 41 3c 83 ac 05 bc 8f 79 90 bb
       0.018810367 0.011839806 -0.008158806 -0.004409022
0003d0 cb fb cb ba 6a 22 1a bc 3f b5 3d bc 86 1f 53 bc
       -0.0015562711 -0.009407619 -0.011578857 -0.012885934
0003e0 a0 15 a0 3b 90 eb 45 3b 85 3e 07 bc 4a 29 4c ba
       0.0048853904 0.003020022 -0.008254652 -0.0007788135
0003f0 96 b2 66 3c 3f 28 af bc fe e5 f8 bb 4a 85 2b 3b
       0.014080664 -0.021381496 -0.0075957766 0.0026171976

arith.constant28 f4 [1, 1, 256]
000000 4b 03 85 3f dd 8d 83 3f 45 97 86 3f dc e3 85 3f
       1.039163 1.0277668 1.0514914 1.0460162
000010 c8 7d 82 3f a3 34 85 3f bd 7c 83 3f 3f 9a 88 3f
       1.0194635 1.0406688 1.0272442 1.0672072
000020 0f 0a 85 3f e4 9b 81 3f 40 46 86 3f 05 23 85 3f
       1.0393695 1.0125699 1.0490189 1.0401312
000030 c5 7c 86 3f b5 57 89 3f 56 bd 83 3f e2 09 85 3f
       1.0506827 1.0729891 1.0292156 1.0393641
000040 a9 0f 86 3f 71 b9 83 3f f4 48 88 3f ee b7 86 3f
       1.0473529 1.0290967 1.0647264 1.0524881
000050 74 d3 87 3f bf f3 82 3f 40 9b 86 3f 53 a1 85 3f
       1.0611405 1.0230635 1.0516129 1.0439857
000060 c4 e1 87 3f 5c 0c 83 3f a0 44 8d 3f 0e b0 86 3f
       1.0615773 1.0238147 1.1036568 1.0522478
000070 26 27 84 3f 1d be 88 3f 95 d2 84 3f bc b1 83 3f
       1.0324447 1.0683018 1.0376765 1.0288615
000080 55 9e 85 3f a3 81 82 3f 0a f6 85 3f 88 28 87 3f
       1.0438944 1.0195812 1.046571 1.0559244
000090 59 c1 88 3f 20 86 8c 3f f5 6e 86 3f fb 81 84 3f
       1.0684005 1.0978432 1.0502611 1.0352167
0000a0 23 b1 83 3f d6 9d 82 3f aa c9 85 3f 43 51 87 3f
       1.0288433 1.0204418 1.0452168 1.0571674
0000b0 03 01 85 3f e7 59 85 3f e2 65 86 3f a4 09 85 3f
       1.0390934 1.0418061 1.0499842 1.0393567
0000c0 fa 23 82 3f 76 50 86 3f fa 99 82 3f da c8 86 3f
       1.0167229 1.0493305 1.020324 1.0530045
0000d0 26 c6 88 3f 88 ba 86 3f 43 5d 88 3f 6b 15 8c 3f
       1.068547 1.0525675 1.0653461 1.0944036
0000e0 c4 87 83 3f 93 9e 84 3f 00 b4 86 3f 8a e5 86 3f
       1.0275807 1.0360893 1.0523682 1.05388
0000f0 18 b8 83 3f 41 b5 86 3f 0b a0 86 3f fc 14 85 3f
       1.0290556 1.0524064 1.0517591 1.0397029
000100 32 30 82 3f 4d 2a 88 3f 0a 1e 87 3f 47 0b 83 3f
       1.0170958 1.0637909 1.0556042 1.0237817
000110 5e f0 87 3f d3 b0 83 3f 62 78 87 3f 3a 5c 87 3f
       1.0620229 1.0288337 1.0583613 1.057502
000120 72 0f 83 3f fa cc 83 3f e1 3a 83 3f 3c 65 85 3f
       1.0239089 1.0296929 1.0252343 1.0421519
000130 f6 03 84 3f ec e5 87 3f c3 2d 86 3f b4 ae 87 3f
       1.0313709 1.0617042 1.0482715 1.060019
000140 49 7e 87 3f 0f 75 85 3f 62 2b 85 3f dc 59 87 3f
       1.0585414 1.0426348 1.0403864 1.0574298
000150 e6 c6 85 3f f5 dd 86 3f 68 c9 85 3f c9 f5 87 3f
       1.0451324 1.0536486 1.0452089 1.0621883
000160 b3 6d 8a 3f 40 33 85 3f 8d 63 88 3f c4 19 84 3f
       1.0814728 1.0406265 1.065538 1.0320363
000170 e8 b3 86 3f 3d 3a 84 3f 92 fb 84 3f bd 9e 84 3f
       1.0523653 1.0330273 1.0389273 1.0360943
000180 f5 dd 84 3f 11 f7 82 3f fe 93 83 3f 3d c6 86 3f
       1.0380236 1.0231649 1.0279539 1.0529248
000190 6d b2 85 3f e1 c2 86 3f 40 56 87 3f 5a 13 87 3f
       1.0445076 1.0528222 1.0573196 1.0552781
0001a0 bc 56 84 3f c2 c9 84 3f f1 3a 88 3f 72 4c 89 3f
       1.0338969 1.0374072 1.0642987 1.0726454
0001b0 2e 15 87 3f a9 6e 85 3f 31 80 87 3f 8d c3 88 3f
       1.0553339 1.0424396 1.0585996 1.0684677
0001c0 ae 58 85 3f 21 11 8a 3f 04 c0 87 3f 22 f7 88 3f
       1.0417688 1.0786477 1.0605474 1.0700419
0001d0 b1 57 86 3f 6c 24 88 3f 62 45 84 3f df 4c 87 3f
       1.0495511 1.0636115 1.0333674 1.0570334
0001e0 80 fa 83 3f a8 05 83 3f d4 59 85 3f 39 3b 85 3f
       1.0310822 1.0236101 1.0418038 1.0408698
0001f0 e7 c3 8a 3f 6c 8f 86 3f 53 4c 84 3f 66 ec 82 3f
       1.0841035 1.0512519 1.0335792 1.0228393
000200 00 49 85 3f d7 27 84 3f c8 ec 88 3f 67 72 88 3f
       1.0412903 1.0324658 1.069726 1.0659913
000210 83 53 87 3f 43 33 87 3f 3a 81 83 3f df 7b 84 3f
       1.0572361 1.0562519 1.0273812 1.0350302
000220 97 45 87 3f 0f 5f 89 3f e4 05 88 3f b8 92 88 3f
       1.0568112 1.0732135 1.0626798 1.0669775
000230 61 b4 87 3f f7 07 84 3f 5a bb 84 3f 63 00 87 3f
       1.0601922 1.0314931 1.0369675 1.0546993
000240 5e 53 84 3f 21 8c 87 3f 7e 3a 85 3f ba da 88 3f
       1.0337942 1.0589639 1.0408475 1.069175
000250 ce 97 84 3f 7d 8e 84 3f 5c 6e 84 3f db 0e 89 3f
       1.0358827 1.0355984 1.0346179 1.0707659
000260 73 60 89 3f 57 86 86 3f a2 2b 86 3f a1 f9 82 3f
       1.0732559 1.0509747 1.0482066 1.0232431
000270 0d c8 87 3f bd b2 82 3f 51 c4 88 3f de 72 89 3f
       1.0607926 1.0210797 1.0684911 1.073818
000280 05 2b 85 3f 2a b9 86 3f f0 19 85 3f 7e 25 87 3f
       1.0403754 1.0525258 1.039854 1.0558317
000290 01 82 84 3f d5 79 82 3f 18 5e 8c 3f 3f d3 86 3f
       1.0352174 1.019343 1.0966215 1.0533217
0002a0 fb 0c 87 3f 40 18 83 3f ac f4 88 3f 7d 02 86 3f
       1.0550836 1.0241776 1.0699668 1.0469509
0002b0 04 bc 84 3f a5 31 82 3f 5f f6 84 3f 81 25 85 3f
       1.0369878 1.01714 1.0387686 1.040207
0002c0 5c e3 87 3f d6 a1 84 3f 50 44 84 3f 3e d8 8a 3f
       1.061626 1.0361888 1.0333347 1.0847242
0002d0 49 06 85 3f bc 01 86 3f 1c 60 85 3f 5d 95 85 3f
       1.0392543 1.0469279 1.0419955 1.0436207
0002e0 fc 58 86 3f 12 e6 84 3f 54 8d 83 3f e0 f2 84 3f
       1.0495906 1.0382712 1.0277505 1.038662
0002f0 47 16 87 3f 70 3c 86 3f 8d 97 85 3f c5 2e 86 3f
       1.0553674 1.0487194 1.0436875 1.0483023
000300 1c 3b 8b 3f 0a 19 85 3f 95 01 83 3f 6e bf 87 3f
       1.0877414 1.0398266 1.0234858 1.0605295
000310 93 81 86 3f 8f e0 89 3f 51 2a 87 3f f3 64 87 3f
       1.0508293 1.0771655 1.0559789 1.0577682
000320 a0 86 83 3f 7a 1b 87 3f 76 0b 89 3f 5a 68 83 3f
       1.0275459 1.055526 1.0706623 1.026622
000330 71 1c 84 3f a5 10 86 3f ab dd 87 3f ab 6a 89 3f
       1.032118 1.047383 1.0614523 1.0735677
000340 3b 98 85 3f 15 67 85 3f 34 d5 85 3f 85 ae 82 3f
       1.0437082 1.0422083 1.045569 1.0209509
000350 7f c1 85 3f 95 7e 87 3f 96 13 88 3f 91 5d 86 3f
       1.0449675 1.0585505 1.0630977 1.0497304
000360 54 5b 84 3f 34 f9 82 3f 7c fa 81 3f a9 f1 85 3f
       1.0340371 1.0232301 1.0154567 1.0464374
000370 6c 91 83 3f 3b 0e 86 3f 18 c1 85 3f d1 cc 86 3f
       1.0278754 1.0473093 1.0449553 1.0531255
000380 be c5 86 3f 86 6b 85 3f b0 22 88 3f 8c 54 86 3f
       1.0529096 1.0423439 1.0635586 1.0494552
000390 26 91 86 3f 81 43 83 3f 8a 8a 88 3f 71 f4 83 3f
       1.0513046 1.0254976 1.0667279 1.0308973
0003a0 e9 e6 85 3f d0 2e 82 3f 35 dd 86 3f ac 43 84 3f
       1.0461093 1.0170536 1.0536257 1.0333152
0003b0 c2 34 86 3f 2e 07 83 3f 69 2f 83 3f cd cb 85 3f
       1.048485 1.0236566 1.0248843 1.045282
0003c0 98 0b 85 3f 32 ce 81 3f cf 76 85 3f 83 7e 81 3f
       1.0394163 1.0141051 1.0426883 1.0116733
0003d0 13 2b 8c 3f d1 ff 8c 3f de 78 83 3f 7d f6 82 3f
       1.0950645 1.1015569 1.0271261 1.0231472
0003e0 f4 41 86 3f 8c 06 84 3f d8 eb 81 3f 56 11 82 3f
       1.0488877 1.0314498 1.0150099 1.016154
0003f0 0d 3b 8a 3f 1c 06 86 3f 9c 1b 84 3f ca 92 82 3f
       1.0799271 1.0470614 1.0320926 1.0201046

arith.constant29 f4 [64]
000000 00 00 00 00 00 00 00 00 00 00 00 00 00 00 00 00
       0.0 0.0 0.0 0.0
000010 00 00 00 00 00 00 00 00 00 00 00 00 00 00 00 00
       0.0 0.0 0.0 0.0
000020 00 00 00 00 00 00 00 00 00 00 00 00 00 00 00 00
       0.0 0.0 0.0 0.0
000030 00 00 00 00 00 00 00 00 00 00 00 00 00 00 00 00
       0.0 0.0 0.0 0.0
000040 00 00 00 00 00 00 00 00 00 00 00 00 00 00 00 00
       0.0 0.0 0.0 0.0
000050 00 00 00 00 00 00 00 00 00 00 00 00 00 00 00 00
       0.0 0.0 0.0 0.0
000060 00 00 00 00 00 00 00 00 00 00 00 00 00 00 00 00
       0.0 0.0 0.0 0.0
000070 00 00 00 00 00 00 00 00 00 00 00 00 00 00 00 00
       0.0 0.0 0.0 0.0
000080 00 00 00 00 00 00 00 00 00 00 00 00 00 00 00 00
       0.0 0.0 0.0 0.0
000090 00 00 00 00 00 00 00 00 00 00 00 00 00 00 00 00
       0.0 0.0 0.0 0.0
0000a0 00 00 00 00 00 00 00 00 00 00 00 00 00 00 00 00
       0.0 0.0 0.0 0.0
0000b0 00 00 00 00 00 00 00 00 00 00 00 00 00 00 00 00
       0.0 0.0 0.0 0.0
0000c0 00 00 00 00 00 00 00 00 00 00 00 00 00 00 00 00
       0.0 0.0 0.0 0.0
0000d0 00 00 00 00 00 00 00 00 00 00 00 00 00 00 00 00
       0.0 0.0 0.0 0.0
0000e0 00 00 00 00 00 00 00 00 00 00 00 00 00 00 00 00
       0.0 0.0 0.0 0.0
0000f0 00 00 00 00 00 00 00 00 00 00 00 00 00 00 00 00
       0.0 0.0 0.0 0.0

tfl.pseudo_qconst i1 [256, 128]
000000 2e ee 42 d3 90 95 e8 c8 58 2a 5c 8a b9 cd 99 f7
       46 -18 66 -45 -112 -107 -24 -56 88 42 92 -118 -71 -51 -103 -9
000010 02 48 20 d5 91 2e e1 e7 26 4f 23 66 df 09 5b 66
       2 72 32 -43 -111 46 -31 -25 38 79 35 102 -33 9 91 102
000020 ce 09 35 b8 57 ca cc 0a 92 ca fb 97 8b f0 0f b6
       -50 9 53 -72 87 -54 -52 10 -110 -54 -5 -105 -117 -16 15 -74
000030 1f b4 fd c8 3b e1 60 2e 0b 4e c2 e3 8f be 95 15
       31 -76 -3 -56 59 -31 96 46 11 78 -62 -29 -113 -66 -107 21
000040 c5 3b f0 f6 c2 28 af 99 90 94 bd 44 f1 bb 05 d7
       -59 59 -16 -10 -62 40 -81 -103 -112 -108 -67 68 -15 -69 5 -41
000050 31 28 fb 28 11 29 fa 3b fd 50 d6 ed 0f d3 54 37
       49 40 -5 40 17 41 -6 59 -3 80 -42 -19 15 -45 84 55
000060 71 b3 c8 a1 f3 e8 8d c9 47 3b 68 6e 81 22 3c 02
       113 -77 -56 -95 -13 -24 -115 -55 71 59 104 110 -127 34 60 2
000070 f5 99 75 61 0c 67 c6 50 da c1 af 08 34 42 45 1d
       -11 -103 117 97 12 103 -58 80 -38 -63 -81 8 52 66 69 29
000080 ff 40 a5 d9 fa b5 59 f4 eb ae a7 37 a3 e1 4d 25
       -1 64 -91 -39 -6 -75 89 -12 -21 -82 -89 55 -93 -31 77 37
000090 14 81 9d 2e ed 5b f2 ce 3b f7 35 b7 09 f5 09 be
       20 -127 -99 46 -19 91 -14 -50 59 -9 53 -73 9 -11 9 -66
0000a0 c0 d7 f2 65 f2 ff b1 a8 a2 e4 d7 c6 b9 9d 3e 16
       -64 -41 -14 101 -14 -1 -79 -88 -94 -28 -41 -58 -71 -99 62 22
0000b0 3c a3 d0 4a ac c3 2e f5 58 40 11 76 a5 be 5c dc
       60 -93 -48 74 -84 -61 46 -11 88 64 17 118 -91 -66 92 -36
0000c0 a0 57 c6 ac 2c 16 74 d7 3d 49 04 30 a6 2d f0 ac
       -96 87 -58 -84 44 22 116 -41 61 73 4 48 -90 45 -16 -84
0000d0 1d 21 22 a4 ae 2a d3 08 6f 68 5b b2 f0 18 13 08
       29 33 34 -92 -82 42 -45 8 111 104 91 -78 -16 24 19 8
0000e0 47 f6 49 b3 34 f0 2d 96 d5 19 c4 87 4e f6 a3 f7
       71 -10 73 -77 52 -16 45 -106 -43 25 -60 -121 78 -10 -93 -9
0000f0 a9 fc 12 0f 07 ad fe 9e 38 15 f7 41 35 06 50 c2
       -87 -4 18 15 7 -83 -2 -98 56 21 -9 65 53 6 80 -62

tfl.pseudo_qconst1 i1 [128, 256]
000000 00 4a d0 12 d3 29 37 3e ea 1a 1b 0c 09 ea 0f bd
       0 74 -48 18 -45 41 55 62 -22 26 27 12 9 -22 15 -67
000010 53 38 02 f6 16 01 ea 30 1c 16 e4 d4 f3 ee 22 43
       83 56 2 -10 22 1 -22 48 28 22 -28 -44 -13 -18 34 67
000020 2f 1d b3 1c 1d ff e5 2b e1 d8 f4 1f 1c 2e e2 e8
       47 29 -77 28 29 -1 -27 43 -31 -40 -12 31 28 46 -30 -24
000030 be e3 dd 51 31 21 ce c8 1d 39 db f4 ba d5 1a 45
       -66 -29 -35 81 49 33 -50 -56 29 57 -37 -12 -70 -43 26 69
000040 27 2d 3e 34 cd 0d 36 13 f5 fc b4 1f 0e e3 f2 df
       39 45 62 52 -51 13 54 19 -11 -4 -76 31 14 -29 -14 -33
000050 11 24 21 04 16 cf 27 f2 31 d3 21 fb 06 2b 20 b5
       17 36 33 4 22 -49 39 -14 49 -45 33 -5 6 43 32 -75
000060 0c ff f9 54 1b 0f d2 f9 1c 02 53 e3 ed c9 2e e9
       12 -1 -7 84 27 15 -46 -7 28 2 83 -29 -19 -55 46 -23
000070 e4 e9 fe 2b d8 02 cd de 0b e0 26 ee 63 29 ca c7
       -28 -23 -2 43 -40 2 -51 -34 11 -32 38 -18 99 41 -54 -57
000080 3e 03 24 75 d2 ff dd 25 16 de 13 c3 f9 00 36 dc
       62 3 36 117 -46 -1 -35 37 22 -34 19 -61 -7 0 54 -36
000090 da d5 17 33 e6 59 e9 4a f1 c3 d2 10 9d f2 16 dc
       -38 -43 23 51 -26 89 -23 74 -15 -61 -46 16 -99 -14 22 -36
0000a0 e7 d7 ae f4 0f f9 d2 e5 29 26 13 d3 eb 53 c3 f7
       -25 -41 -82 -12 15 -7 -46 -27 41 38 19 -45 -21 83 -61 -9
0000b0 ff c2 12 49 c8 36 ec d9 c8 c9 c7 3f 04 5e 00 1d
       -1 -62 18 73 -56 54 -20 -39 -56 -55 -57 63 4 94 0 29
0000c0 ce e7 c1 2a 3a a2 ed 06 20 36 2b 12 d6 07 b6 14
       -50 -25 -63 42 58 -94 -19 6 32 54 43 18 -42 7 -74 20
0000d0 fa ca d9 2d 41 e6 48 20 07 e3 f6 3a 15 c0 09 14
       -6 -54 -39 45 65 -26 72 32 7 -29 -10 58 21 -64 9 20
0000e0 f6 ad 40 df c6 dd f9 d8 fd 16 f2 ba 1d 1c 81 10
       -10 -83 64 -33 -58 -35 -7 -40 -3 22 -14 -70 29 28 -127 16
0000f0 c1 0c 23 14 c6 ea ee fc 06 24 2a fc 84 24 c2 43
       -63 12 35 20 -58 -22 -18 -4 6 36 42 -4 -124 36 -62 67
