sign_language_model_ad.tflite (tflite, 506616 bytes, 25 tensors)

arith.constant18 f4 [10]
-0.005143095 0.006199555 0.00028571472 -0.00020508657 0.0032665527 -0.0045214556 -0.0008860995 -0.0012986265
0.0030953723 -0.0029054824
00000000: 6887 a8bb a325 cb3b fbcb 9539 820c 57b9
00000010: a913 563b b828 94bb 2149 68ba ad36 aaba
00000020: bbdb 4a3b e869 3ebb

arith.constant19 f4 [256]
-0.002343661 -0.0005546288 0.0030500356 0.0048442865 -0.0012005436 0.0027097687 0.007282167 0.010928571
0.00047296492 0.008237864 0.0022534751 0.0025683418 0.0011621567 0.0067745247 0.00469907 -0.0011702557
0.006962174 0.0026824167 0.0056738025 0.00827646 0.0073867654 -0.0033375314 0.0046666767 0.007795604
0.010184679 -0.0010091957 0.0050908425 -0.0047652572 -0.0031244103 0.006069125 0.0043983613 0.00035017543
0.011765497 0.005698518 0.0027814596 0.006719008 -0.001069897 0.0054221097 0.0042389734 0.005801165
0.002908917 -0.0013671415 0.0048006424 0.012382769 0.017681869 0.0066035623 -0.0017202088 0.0006607726
0.0049117436 -0.0018624212 -0.008344086 0.012601567 -0.00052498345 0.0035496028 0.0034055738 0.0013964797
-0.00051205023 0.0060850596 0.008899002 -0.0017405016 0.0027866696 0.0036880057 0.010186694 0.00029016368
0.013625139 0.0013954875 0.0023215443 0.0010606776 -0.0012904316 0.0071721873 -0.0034520945 0.001869457
0.003088611 -0.0014829442 0.007545082 0.009807801 0.00262644 -0.0049551157 0.0033836002 0.0044775265
0.0022278135 0.010939339 0.0038487008 0.008475356 0.006429943 0.0020631317 0.0051646214 0.005834998
0.0045052483 0.0031078733 0.002091357 -0.0028613221 0.0028880741 0.00504696 0.008199473 0.0033261392
0.00039510333 0.0026427666 0.0038277823 0.0033748413 -0.0018477205 0.01157353 0.0028143388 0.0037495103
0.010662449 -0.005550435 0.009691401 0.0049255705 -0.0017196812 -0.00013109436 0.0026298023 0.0036110757
0.0022187738 0.009529241 0.014285626 0.007660359 -5.396723e-07 -0.0023589425 0.0063048005 0.004193926
0.001630374 0.005146899 0.004137278 -0.0005458136 0.0031065892 0.0007984007 0.000387064 0.0005311684
0.009360011 -0.0049123443 0.008699761 -0.0008341715 0.0040097833 0.0038174882 0.005528087 0.0008574472
0.004301511 0.0014552709 0.006368364 0.014267085 0.011400631 0.0036569033 0.0081816325 0.0001251018
-0.0039388193 -0.00050903903 -0.0013895452 -0.0015712822 0.012573949 0.0019556284 0.0044056354 0.002237967
0.008699875 0.0021466508 0.00343706 0.0036122778 0.0039278134 -0.0005862269 -0.00036478174 0.008133048
0.005385753 0.0011882485 0.0020427103 0.00093936315 -6.2332336e-05 0.0024281056 0.004045406 0.00044268667
-0.00017559456 -0.002611787 0.0042885635 -0.006738403 0.008551036 0.00082074746 0.006036659 -0.0005626275
0.012884311 -0.00077412964 0.00479391 0.0018471336 0.0072374525 0.0020014802 0.0047927676 0.001268933
0.004784152 0.0068703024 -0.0010335067 0.006637798 0.0057269232 0.010970022 0.0014944698 0.004810383
0.0041872994 0.002612995 -0.00090289145 0.012824419 0.0044143717 -0.0021661948 0.0024745143 0.00053479505
0.0023518961 0.014466336 -0.004164533 0.0063459263 0.00022352402 0.0013468019 0.0019911248 0.0042223544
-0.0018498724 0.0109863905 0.013701953 0.007138686 0.00012466725 0.0025610442 0.013327875 0.0074893427
0.0043577836 0.0004034133 0.001106014 -0.0011293711 -0.00037555426 0.0060639125 0.0041594193 -0.0029274914
-0.0011439557 0.007058114 0.00641884 0.008276881 0.00067884446 0.003159507 -0.004931907 0.0036983464
-0.0010500265 0.00773224 0.011281128 0.008797323 0.0020759206 -0.0024119003 0.0024063366 0.00032736515
0.0091989795 0.008398948 -0.0020029324 0.0041297534 -0.0023905782 -0.00091341377 0.0021983336 -4.725886e-05
0.00074344146 -0.0007078856 0.0060385 -0.0024488822 0.0023090753 0.007431989 -0.0065389266 -0.00042466648
00000000: 1b98 19bb 8264 11ba 1be3 473b d2bc 9e3b
00000010: 8f5b 9dba 6096 313b 3f9f ee3b c00d 333c
00000020: 47f8 f739 1bf8 063c 0aaf 133b a051 283b
00000030: 8253 983a d5fc dd3b a8fa 993b 4463 99ba
00000040: f322 e43b 7ccb 2f3b 4eeb b93b fd99 073c
00000050: ae0c f23b 7cba 5abb ecea 983b 4472 ff3b
00000060: a4dd 263c fd46 84ba 15d1 a63b e025 9cbb
00000070: e8c2 4cbb 83df c63b 2120 903b c097 b739
00000080: 12c4 403c a2ba ba3b 2649 363b 202b dc3b
00000090: c93b 8cba f4ab b13b 16e7 8a3b b317 be3b
000000a0: 87a3 3e3b a831 b3ba b54e 9d3b 19e1 4a3c
000000b0: 91d9 903c b262 d83b a178 e1ba b337 2d3a
000000c0: b1f2 a03b 7c1c f4ba a2b5 08bc ce76 4e3c
000000d0: 0b9f 09ba 74a0 683b 0c30 5f3b 150a b73a
000000e0: 1c3b 06ba 2e65 c73b 1fcd 113c 8b21 e4ba
000000f0: 8fa0 363b 78b2 713b 17e6 263c 1c21 9839
00000100: fa3b 5f3c cae8 b63a 0d25 183b 6f06 8b3a
00000110: b323 a9ba ab04 eb3b 893c 62bb 9108 f53a
00000120: 4b6a 4a3b 5a5f c2ba bc3c f73b e6b0 203c
00000130: 5a20 2c3b 865e a2bb 64bf 5d3b 37b8 923b
00000140: 8200 123b ea3a 333c 7c3a 7c3b 38dc 0a3c
00000150: 45b2 d23b 9b35 073b fc3b a93b 8333 bf3b
00000160: c3a0 933b 76ad 4b3b 260f 093b 0585 3bbb
00000170: d845 3d3b f860 a53b 1557 063c 5bfb 593b
00000180: df25 cf39 4432 2d3b 88db 7a3b 712c 5d3b
00000190: 362f f2ba e79e 3d3c c570 383b 58ba 753b
000001a0: 8db1 2e3c 6ce0 b5bb afc8 1e3c ae66 a13b
000001b0: ed66 e1ba 6076 09b9 c358 2c3b cca7 6c3b
000001c0: d968 113b 8920 1c3c 420e 6a3c c003 fb3b
000001d0: 00de 10b5 7d98 1abb 8098 ce3b 346d 893b
000001e0: 46b2 d53a 51a7 a83b 0192 873b ee14 0fba
000001f0: eb97 4b3b c44b 513a daee ca39 1c3e 0b3a
00000200: bb5a 193c bbf7 a0bb 7189 0e3c 4dac 5aba
00000210: 8064 833b d32e 7a3b f424 b53b 4fc6 603a
00000220: b1f3 8c3b cabe be3a b6ad d03b 7ec0 693c
00000230: b6c9 3a3c a8a8 6f3b 410c 063c c22d 0339
00000240: 3611 81bb 0871 05ba 6621 b6ba 7bf3 cdba
00000250: f702 4e3c 002a 003b 265d 903b dbaa 123b
00000260: ec89 0e3c d3ae 0c3b 4c40 613b f7bb 6c3b
00000270: e3b4 803b 05ad 19ba 2d40 bfb9 7a40 053c
00000280: f87a b03b 01bf 9b3a fede 053b 983f 763a
00000290: 6bb8 82b8 da20 1f3b 538f 843b 6618 e839
000002a0: ce1f 38b9 842a 2bbb 1487 8c3b d2cd dcbb
000002b0: a519 0c3c 6e27 573a 2acf c53b 4b7d 13ba
000002c0: b818 533c f6ee 4aba 3b16 9d3b 851b f23a
000002d0: 2728 ed3b 442b 033b a60c 9d3b 5352 a63a
000002e0: 60c4 9c3b 4620 e13b bb76 87ba e381 d93b
000002f0: eaa8 bb3b 9bbb 333c 16e2 c33a 6ba0 9d3b
00000300: 9d35 893b c83e 2b3b 05b0 6cba 831d 523c
00000310: 6fa6 903b b8f6 0dbb 762b 223b 7d31 0c3a
00000320: 4522 1a3b 3604 6d3c a376 88bb 7df1 cf3b
00000330: c661 6a39 2c87 b03a 887d 023b ad5b 8a3b
00000340: 6b77 f2ba 4300 343c 287e 603c a3eb e93b
00000350: 1cb9 0239 31d7 273b 295d 5a3c 2969 f53b
00000360: bdcb 8e3b 3781 d339 acf7 903a 6807 94ba
00000370: 0ae6 c4b9 c9b3 c63b bd4b 883b 28db 3fbb
00000380: c9f0 95ba c047 e73b 2255 d23b c19b 073c
00000390: 7bf4 313a bb0f 4f3b d69b a1bb f55f 723b
000003a0: 0ba1 89ba bb5e fd3b 7bd4 383c a622 103c
000003b0: 2b0c 083b f910 1ebb a1b3 1d3b 35a2 ab39
000003c0: 51b7 163c be9b 093c a143 03bb e252 873b
000003d0: 3fab 1cbb 2972 6fba eb11 103b d137 46b8
000003e0: 83e3 423a 6691 39ba 9cde c53b 6d7d 20bb
000003f0: db53 173b 0b88 f33b 7e44 d6bb c5a5 deb9

arith.constant20 f4 [256]
-0.0027093573 0.0005136903 0.005773142 -0.0006714531 -0.0011190899 0.006976741 -0.004985808 0.003375956
-0.0013457115 -0.0035627377 -0.0033495664 -0.00419893 -0.004500646 0.007034364 -0.00519885 0.0034102823
-0.00056822563 -0.0007919672 0.006084971 0.0010360607 0.0057906555 -0.0056196954 0.0031176494 0.0031021107
0.003523049 0.0027589635 -0.0019696176 -0.004765522 0.006578827 -0.0007774589 -0.0061876155 0.0009772251
-0.0042757913 0.0016373777 0.00071261596 0.00035920012 0.005247006 0.00032089383 0.0002549296 -0.0070706294
-0.0031645005 -0.0062676608 0.007439803 -0.0019549623 0.0004718195 -0.0016328408 0.005399296 -0.0015896705
-0.007814552 -0.0010861221 -0.0016381581 -0.00010996946 0.0038915332 0.0021641715 0.00083022995 -3.0609754e-05
-0.0015096981 -0.0061671333 -0.0056220926 0.0005499748 0.0027599067 -0.003331913 0.0009035217 -0.0056150793
0.0023589444 0.0012724379 -0.0020302557 0.0036096207 0.0014632135 -0.00083633343 0.0023648303 0.0037628105
-0.0011030881 -0.003834236 0.0011401215 -0.006622008 -0.0026364313 -0.0018118987 0.0029560248 -0.0020512014
0.007068675 -0.0006512326 -0.004778463 0.0013606832 -0.0014855227 0.006026112 -0.0034620385 -0.00016237576
-0.0014810935 -0.0018033771 0.0011377371 0.0013347279 -0.0019327916 0.0042773555 0.00089926575 0.0020069594
-0.006679848 -0.0018631325 0.004081141 0.0025377367 0.0018331535 -0.0017914867 0.0029399286 0.0028055522
0.0066668508 0.00031379028 -0.0019029595 -0.002100207 -0.0036861973 -0.0008465263 0.0053041154 -0.0012569556
0.0009677669 -0.0047978144 0.0016469905 -0.0010971862 0.002312423 0.0006790847 -0.0035421047 0.0032078433
-0.00048757525 0.0029822038 -0.002181151 0.0084736245 -0.0034966827 0.00052668125 0.0041211415 0.002491192
0.0025533491 -0.0030016445 0.0024053687 -0.0040932475 0.0008076943 -0.0014040929 -0.0041276887 0.0054686507
-0.007428244 0.0005998135 -0.005320307 -0.002079405 -0.0024192047 -0.009329253 -0.0015682598 0.0012620457
-0.0007120603 4.139232e-05 0.0029972845 0.0051241415 0.001726316 0.0037612617 0.002844243 0.00067242485
-0.0044675786 -0.0026626093 0.008960149 -0.0040634535 -0.00081489765 -0.002398626 -0.0012314813 0.0024827227
0.006138226 0.0051323483 -0.0045829373 -0.0013354482 -0.0023554743 0.0016854339 -0.005252292 0.007369277
0.0034070504 0.0011130235 0.00074054464 -0.0018390215 -0.002160644 0.00013694048 0.004703518 0.0029894589
0.0027353282 0.0070548123 0.0038389533 0.00034304673 -0.0030108108 -0.001465643 -0.0022706743 0.0018289186
0.004580385 0.00014561466 0.0032555838 0.0026419372 0.0036006323 0.001879143 -0.0031406938 -0.0013503167
-0.0056941677 -0.004360266 0.0052677267 0.00884806 -0.0021974437 -0.0061834403 -0.002183822 -0.0026817345
-0.0028521821 0.0004658105 -0.0012310349 -0.0012025455 -0.0025980962 0.0010602821 0.0019740758 -0.0009443182
0.0014726408 0.0020859845 -0.00090248097 0.0017036417 0.0023550536 0.003859889 0.0007803195 -0.00486509
-0.0033453833 0.0025843314 -0.00030526306 -0.0037204153 0.00011058648 0.0016993075 0.0039036747 -0.004734833
0.0004523308 -0.0034354585 -0.005932161 0.0016339711 -0.0026902023 0.0029256067 0.0018310392 -0.003796773
-0.002529209 -0.0012984624 -0.0013983359 -0.0017650373 -0.0027449732 -0.0008000498 -0.00068818475 0.005194609
0.0013715083 -0.0025489912 0.003010725 -0.008472723 0.004394628 -0.0063749836 0.002119104 0.00043844077
0.0070686596 6.591606e-05 -0.0005040245 -0.0015929952 0.0004727508 0.003196267 0.0031063166 -0.0021260572
00000000: 798f 31bb 2ca9 063a a02c bd3b 7404 30ba
00000010: 6dae 92ba 259d e43b fd5f a3bb 253f 5d3b
00000020: 9662 b0ba d27c 69bb 6684 5bbb 2e97 89bb
00000030: 287a 93bb 8680 e63b 1d5b aabb 0b7f 5f3b
00000040: faf4 14ba 059c 4fba 7064 c73b 6ecc 873a
00000050: 8abf bd3b 6c25 b8bb 7a51 4c3b c84c 4b3b
00000060: f4e2 663b bacf 343b b314 01bb 1928 9cbb
00000070: 3393 d73b 62ce 4bba 7bc1 cabb 3c16 803a
00000080: f01b 8cbb 479d d63a d9ce 3a3a 0653 bc39
00000090: 14ef ab3b a43d a839 12a8 8539 bdb0 e7bb
000000a0: 8263 4fbb f360 cdbb 97c9 f33b d31e 00bb
000000b0: 8b5e f739 0c05 d6ba 94ec b03b 7e5c d0ba
000000c0: 9b08 00bc 365c 8eba 77b7 d6ba 679f e6b8
000000d0: 1809 7f3b c6d4 0d3b caa3 593a f962 00b8
000000e0: 10e1 c5ba aa15 cabb 8839 b8bb 2f2c 103a
000000f0: 8ddf 343b 395c 5abb 51da 6c3a b3fe b7bb
00000100: 8598 1a3b eec7 a63a 0a0e 05bb 638f 6c3b
00000110: 4cc9 bf3a 633d 5bba 45fb 1a3b 7c99 763b
00000120: 7f95 90ba ce47 7bbb 2170 953a 6efd d8bb
00000130: fac7 2cbb 3b7d edba deb9 413b 736d 06bb
00000140: 58a0 e73b 7bb7 2aba a794 9cbb f458 b23a
00000150: dfb5 c2ba b176 c53b 5ee3 62bb 6943 2ab9
00000160: 4021 c2ba 4b5f ecba 1f20 953a 09f2 ae3a
00000170: b955 fdba 0f29 8c3b b4bc 6b3a 3187 033b
00000180: a0e2 dabb 5a34 f4ba 18bb 853b 2850 263b
00000190: 6d46 f03a 52d0 eaba d1ab 403b 5bdd 373b
000001a0: 9975 da3b 3884 a439 ba6c f9ba a0a3 09bb
000001b0: 2194 71bb 6be9 5dba 25ce ad3b 6ec0 a4ba
000001c0: bdb1 7d3a fc36 9dbb d5df d73a 76cf 8fba
000001d0: 058c 173b 9a04 323a a822 68bb ae3a 523b
000001e0: 3ea1 ffb9 1471 433b a4f1 0ebb f5d4 0a3c
000001f0: 9a28 65bb fb10 0a3a a40a 873b 4443 233b
00000200: 1756 273b 3db7 44bb 64a3 1d3b a620 86bb
00000210: 72bb 533a 8a09 b8ba 9041 87bb 5e32 b33b
00000220: a168 f3bb cd3c 1d3a f855 aebb a046 08bb
00000230: 858b 1ebb b9d9 18bc 118e cdba 3a6b a53a
00000240: 8fa9 3aba aa9c 2d38 176e 443b 6ae8 a73b
00000250: 8e45 e23a 807f 763b 7b66 3a3b ab45 303a
00000260: c464 92bb 2c7f 2ebb 97cd 123c b826 85bb
00000270: db9e 55ba 4432 1dbb a869 a1ba 2db5 223b
00000280: 2c23 c93b 422d a83b 772c 96bb 350a afba
00000290: 4d5e 1abb c7e9 dc3a 6b1b acbb fa79 f13b
000002a0: d248 5f3b dfe2 913a 1c21 423a 520b f1ba
000002b0: 9799 0dbb ae97 0f39 f81f 9a3b ccea 433b
000002c0: 3143 333b 0e2c e73b f396 7b3b f4da b339
000002d0: 0651 45bb d21a c0ba 98cf 14bb 53b8 ef3a
000002e0: 0e17 963b 23b0 1839 a25b 553b 5a24 2d3b
000002f0: 96f8 6b3b 934d f63a 19d4 4dbb 1cfd b0ba
00000300: 2496 babb 90e0 8ebb e59c ac3b 74f7 103c
00000310: fd02 10bb 759e cabb 741e 0fbb 0ac0 2fbb
00000320: adeb 3abb 0738 f439 ad5a a1ba bb9e 9dba
00000330: d244 2abb 2af9 8a3a 7f5f 013b 1f8c 77ba
00000340: a005 c13a 03b5 083b 7994 6cba bb4c df3a
00000350: 3e57 1a3b 31f6 7c3b 5b8e 4c3a 556b 9fbb
00000360: 383e 5bbb e35d 293b b70b a0b9 36d2 73bb
00000370: aaea e738 4cbb de3a cbd4 7f3b a826 9bbb
00000380: d026 ed39 6e25 61bb 9362 c2bb f92a d63a
00000390: 1b4e 30bb 89bb 3f3b 7bff ef3a 48d3 78bb
000003a0: 16c1 25bb 2b31 aaba 5e48 b7ba d358 e7ba
000003b0: 02e5 33bb 6fba 51ba 4c67 34ba 8a37 aa3b
000003c0: 2fc4 b33a fa0c 27bb 954f 453b 2dd1 0abc
000003d0: d000 903b 3de5 d0bb aae0 0a3b 86de e539
000003e0: 37a0 e73b 6a3c 8a38 8320 04ba 0dcc d0ba
000003f0: 8adb f739 7678 513b 5893 4b3b 5255 0bbb

arith.constant21 f4 [2, 64]
-1.1236248e-06 9.0527243e-07 -1.9242498e-06 -1.122639e-06 8.357752e-07 -9.95438e-07 1.0551353e-06 -1.0026508e-06
-5.0450694e-07 -6.1998503e-07 1.00481586e-07 -2.7840053e-06 1.5778513e-06 -1.8364343e-06 -2.4653975e-06 2.5754548e-06
-9.546894e-07 -1.6827282e-06 3.0282442e-06 -4.247218e-07 -7.2617814e-07 1.1995025e-06 2.3912849e-06 -4.0739366e-07
-1.7352349e-07 -1.0672774e-07 -5.9360525e-07 -8.319568e-07 1.3709549e-06 3.2160467e-06 1.1111034e-06 2.7501349e-06
1.1619644e-06 2.8725012e-07 -1.9026639e-07 -1.7890766e-06 -2.0048074e-06 -4.3242602e-07 1.2102648e-06 1.6484605e-06
6.587267e-07 8.7022244e-07 6.707064e-07 -2.4784103e-07 -1.394066e-06 -1.251099e-06 -1.9750064e-06 1.2921962e-06
2.426492e-06 -8.2070684e-08 -9.2889445e-07 4.4275004e-07 -3.729341e-07 -1.3551668e-06 -1.3746137e-06 2.2195495e-06
-1.376041e-06 -9.3690153e-07 6.2050367e-07 -2.6970183e-06 -6.531503e-07 1.1714159e-06 7.001759e-07 -2.149764e-07
-2.122267e-06 -1.0657468e-06 6.4687646e-07 -4.5102158e-07 -2.7056813e-06 1.964039e-06 6.713424e-07 5.4129333e-07
-3.5284282e-07 -7.036212e-07 1.2307275e-07 -2.4433902e-07 -1.1737728e-06 4.232903e-07 -7.598346e-07 -1.1066568e-06
-1.3180778e-06 1.065031e-06 1.4947911e-08 1.7043711e-06 -2.6002468e-08 -2.2627466e-06 5.59961e-07 -1.3351362e-06
-9.714015e-07 1.3050027e-06 2.5517048e-07 -2.8615676e-07 6.655749e-07 -1.1078798e-06 -1.1525394e-06 9.0194686e-07
-2.639922e-07 -1.5190528e-06 4.4450744e-07 9.093036e-07 -2.1789024e-06 -3.2688195e-07 2.8842584e-07 2.1172057e-06
-1.8436565e-06 -5.946634e-07 1.0031122e-06 2.3322207e-06 -1.5630347e-08 1.6888902e-06 2.272368e-06 8.993934e-09
9.737319e-07 -4.3850997e-07 -1.8858473e-06 -6.526015e-07 2.7185802e-06 -4.514318e-07 -8.1480465e-08 -8.128519e-07
-1.460544e-06 -3.1864167e-06 8.6826486e-07 -1.800911e-07 5.633654e-07 -2.0236972e-07 -2.3137005e-07 1.0460866e-06
00000000: 74cf 96b5 d901 7335 5c22 01b6 95ad 96b5
00000010: 095a 6035 fd9a 85b5 2c9e 8d35 d292 86b5
00000020: 746d 07b5 0c6d 26b5 56c8 d733 d9d4 3ab6
00000030: 8fc6 d335 677b f6b5 3573 25b6 fad5 2c36
00000040: e122 80b5 1ada e1b5 d738 4b36 5205 e4b4
00000050: 95ee 42b5 98fe a035 f679 2036 c2b7 dab4
00000060: c651 3ab4 3232 e5b3 3e58 1fb5 a353 5fb5
00000070: a701 b835 43d3 5736 3921 9535 f58e 3836
00000080: cbf4 9b35 5b37 9a34 074c 4cb4 3420 f0b5
00000090: 548a 06b6 2e28 e8b4 6270 a235 ac40 dd35
000000a0: 5bd3 3035 3b99 6935 980a 3435 030f 85b4
000000b0: be1b bbb5 6feb a7b5 5a8a 04b6 866f ad35
000000c0: d1d6 2236 d63e b0b3 2459 79b5 1ab3 ed34
000000d0: ac37 c8b4 2de3 b5b5 5e7f b8b5 92f3 1436
000000e0: 69b0 b8b5 627f 7bb5 b090 2635 6cfe 34b6
000000f0: 2654 2fb5 8b39 9d35 b9f3 3b35 43d4 66b4
00000100: 456c 0eb6 c80a 8fb5 03a5 2d35 ef23 f2b4
00000110: 4093 35b6 efcd 0336 4c36 3435 654d 1135
00000120: 596e bdb4 7be0 3cb5 fb25 0434 b32d 83b4
00000130: 878a 9db5 9340 e334 70f7 4bb5 7088 94b5
00000140: cfe8 b0b5 30f2 8e35 ce66 8032 bfc1 e435
00000150: 085c dfb2 b1d9 17b6 3a50 1635 ee32 b3b5
00000160: 1a61 82b5 8d27 af35 5dfe 8834 16a1 99b4
00000170: f5a9 3235 76b2 94b5 f4b0 9ab5 511d 7235
00000180: d0ba 8db4 42e2 cbb5 a3a4 ee34 de16 7435
00000190: 4239 12b6 507e afb4 f2d8 9a34 5115 0e36
000001a0: 8e73 f7b5 f5a0 1fb5 aca2 8635 3f83 1c36
000001b0: 7f43 86b2 d3ad e235 fc7e 1836 bd83 1a32
000001c0: 2cb1 8235 5a6c ebb4 381d fdb5 6f2e 2fb5
000001d0: da70 3636 505c f2b4 5cfa aeb3 c232 5ab5
000001e0: e907 c4b5 39d6 55b6 b512 6935 115f 41b4
000001f0: 2d3a 1735 f74a 59b4 846e 78b4 4367 8c35

arith.constant22 f4 [2, 64]
0.03213188 -0.041510392 0.017960764 0.010424219 -0.037249014 0.03200849 0.032802906 0.035148766
-0.01969376 -0.02831854 -0.035602067 0.039074585 0.001247923 0.043116726 -0.04986834 -0.0018595974
-0.029984422 0.026738236 0.03245445 0.038275745 0.007959186 0.030396862 -0.02066273 0.019847753
-0.023350028 0.040536933 0.019151604 -0.021956945 -0.037137333 0.03133599 -0.025483603 -0.004443627
0.008296891 0.021062147 -0.025288781 0.033140626 -0.027266083 -0.00735799 0.042581797 0.021131355
-0.03791036 0.049598824 -0.03990829 0.019945592 -0.031039229 -0.04709652 -0.034889944 0.030511044
0.034040563 0.034865066 -0.031540245 0.0051398543 0.042687677 -0.009720896 0.03836341 -0.034307722
0.036195353 0.032461517 0.019302208 0.002493456 -0.0348771 -0.032292955 0.03859723 0.030223925
0.050697234 0.04481266 -0.052944124 0.05186723 0.03711656 -0.050134283 -0.056519885 -0.05910216
-0.0034102995 -0.05705831 -0.050653446 -0.0546738 -0.058562048 -0.053535797 -0.055782963 -0.0125181265
-0.056883827 0.054292634 0.054561086 0.052116346 -0.05420895 0.05920816 0.05799153 -0.049352612
0.028734919 -0.05236357 -0.052477643 -0.051992822 -0.036853433 -0.058232654 0.055816792 -0.042012136
-0.053181544 0.0518971 0.05448149 0.049286496 0.0043841205 0.0501765 -0.05208398 -0.050021086
0.021557193 0.057762954 0.055824198 -0.06027935 0.056109913 -0.02827368 0.06539661 0.047697306
0.048000887 0.05808612 0.05452779 0.009985 -0.051990725 0.05717184 0.043282337 0.011844445
0.05476216 0.061823048 0.045228895 0.03355162 -0.053027965 0.059135176 0.05227151 0.032928653
00000000: b89c 033d cd06 2abd 7422 933c 58ca 2a3c
00000010: 6c92 18bd 561b 033d 575c 063d 27f8 0f3d
00000020: cf54 a1bc 48fc e7bc 79d3 11bd ac0c 203d
00000030: 5991 a33a 2a9b 303d bf42 4cbd bcbd f3ba
00000040: e4a1 f5bc 250a db3c f5ee 043d 07c7 1c3d
00000050: 3f67 023c d702 f93c e344 a9bc c197 a23c
00000060: 8f48 bfbc 0e0a 263d d3e3 9c3c 0ddf b3bc
00000070: 511d 18bd 2b5a 003d fdc2 d0bc d89b 91bb
00000080: afef 073c 868a ac3c 6b2a cfbc 77be 073d
00000090: 1f5d dfbc 4b1b f1bb 406a 2e3d aa1b ad3c
000000a0: e547 1bbd 2328 4b3d e076 23bd f064 a33c
000000b0: fb45 febc 48e8 40bd c2e8 0ebd 4cf2 f93c
000000c0: 1e6e 0b3d acce 0e3d 5830 01bd 396c a83b
000000d0: 46d9 2e3d 6544 1fbc f322 1d3d 4186 0cbd
000000e0: 9441 143d 5ef6 043d aa1f 9e3c 4069 233b
000000f0: 4adb 0ebd 9e45 04bd 2118 1e3d 2a98 f73c
00000100: e7a7 4f3d 7b8d 373d f0db 58bd bc72 543d
00000110: 8907 183d 9b59 4dbd 6581 67bd 1b15 72bd
00000120: 557f 5fbb f9b5 69bd fd79 4fbd a2f1 5fbd
00000130: c2de 6fbd 5a48 5bbd ad7c 64bd d418 4dbc
00000140: 04ff 68bd f461 5e3d 727b 5f3d f377 553d
00000150: 340a 5ebd 4184 723d 8788 6d3d f725 4abd
00000160: 7e65 eb3c 2f7b 56bd ccf2 56bd 6df6 54bd
00000170: a0f3 16bd 5d85 6ebd 26a0 643d eb14 2cbd
00000180: e4d4 59bd 0e92 543d fc27 5f3d a3e0 493d
00000190: aba8 8f3b e085 4d3d 0356 55bd e9e2 4cbd
000001a0: b698 b03c d998 6c3d eaa7 643d 7be7 76bd
000001b0: 82d3 653d 349e e7bc a8ee 853d 405e 433d
000001c0: 949c 443d b6eb 6d3d 8858 5f3d 2098 233c
000001d0: 3af4 54bd 052d 6a3d d248 313d 340f 423c
000001e0: 494e 603d 2a3a 7d3d ef41 393d 6c6d 093d
000001f0: da33 59bd ba37 723d a71a 563d 32e0 063d

arith.constant23 f4 [2, 64]
0.0017513772 0.001953282 0.0013147468 -0.0022217934 0.0014523886 0.0007495684 -0.00075577886 0.003799492
-0.0033743323 -0.0037285762 -0.00023837059 -0.00012826873 0.0030851413 0.0034554354 -0.0015470046 -0.0056450786
-0.0008487618 -0.00432532 0.005152249 0.0028630688 0.0038230657 -0.0017912298 -0.00054207764 -0.0039855395
0.0022453254 0.0011291192 0.00023091343 -0.0057230755 0.0019795506 0.0032549591 -0.0027546561 0.001093064
-0.0022865394 -0.0025625895 -0.003439815 -0.005958068 -0.001268419 -0.0034561162 -0.00017004201 0.0033282135
-0.0036465467 -0.0056832004 0.0035798007 -0.0041333856 -0.0021695383 -0.004030676 7.6534125e-05 -0.0044250907
-0.0044909413 -0.0014598755 0.0018489689 0.003225922 0.0010717015 -0.0003272065 -8.916247e-05 -0.0023783036
0.00153091 0.0024741946 0.00727778 -0.0020477169 -0.0049977973 -0.00090911565 0.00066725246 0.0003549512
-0.0033302335 0.0027213462 -0.0044162096 0.0035034863 -0.007616929 -0.0019936322 -0.00090135814 0.0006342304
0.0016303407 0.0029826828 -8.9962035e-05 -0.0004011879 0.0017690382 -0.00048251922 -0.0014241659 0.0035956136
0.0053601125 -0.0013439237 -0.00018644438 -0.002309333 -0.002831377 -0.00083417725 -0.0019593753 -0.000410854
0.0029047444 -0.0057904315 -0.002204524 -0.0022985544 0.004308731 -0.0009730143 0.004459648 -0.002485433
-0.0013235984 0.0040059127 0.00066747336 0.002159284 0.000973984 -0.0014979517 -0.0031128689 -0.0020845968
-0.00079942675 -0.0029353446 0.003066485 -0.0035489248 0.0031814838 -0.0044945087 -0.0041768886 0.002534811
0.005964735 0.0020745841 -0.001448153 6.682177e-05 -0.00076074054 -0.0041205673 -8.939243e-05 -0.0025836404
0.00012990144 0.0014274063 0.0017033346 -0.004854157 -0.0014421726 -0.0015338677 0.0068300525 -0.0014786558
00000000: 788e e53a a202 003b 9553 ac3a 829b 11bb
00000010: 135e be3a af7e 443a 761f 46ba e600 793b
00000020: e723 5dbb 215b 74bb 1ef3 79b9 e07f 06b9
00000030: 1530 4a3b 9674 623b dcc4 caba 5afa b8bb
00000040: 717f 5eba 6abb 8dbb 32d4 a83b 53a2 3b3b
00000050: 668c 7a3b b3c7 eaba 371a 0eba 2199 82bb
00000060: 4f26 133b f4fe 933a 5a21 7239 a388 bbbb
00000070: 59bb 013b 2751 553b 7687 34bb 2445 8f3a
00000080: c4d9 15bb 1ef1 27bb 856e 61bb e63b c3bb
00000090: 1441 a6ba 0280 62bb 4e4d 32b9 281e 5a3b
000000a0: e7fa 6ebb 243a babb 179b 6a3b 5a71 87bb
000000b0: d02e 0ebb c313 84bb f280 a038 5a00 91bb
000000c0: bf28 93bb 4b59 bfba 1a59 f23a fd69 533b
000000d0: 5678 8c3a ea8c abb9 bdfc bab8 50dd 1bbb
000000e0: d1a8 c83a 1926 223b 727a ee3b fd32 06bb
000000f0: 90c4 a3bb b851 6eba 8eea 2e3a be18 ba39
00000100: 0c40 5abb 9d58 323b dab5 90bb bf9a 653b
00000110: 6e97 f9bb 99a7 02bb 1f49 6cba 7b42 263a
00000120: 28b1 d53a 1d79 433b 00aa bcb8 8756 d2b9
00000130: 12df e73a a2fa fcb9 14ab baba 63a4 6b3b
00000140: e2a3 af3b 9926 b0ba 4880 43b9 2e58 17bb
00000150: a08e 39bb b0ac 5aba dd68 00bb e467 d7b9
00000160: 865d 3e3b a9bd bdbb c679 10bb 58a3 16bb
00000170: 4130 8d3b e211 7fba 3d22 923b a5e2 22bb
00000180: 987c adba 0844 833b 61f9 2e3a c682 0d3b
00000190: f652 7f3a eb56 c4ba 4601 4cbb bb9d 08bb
000001a0: 9f90 51ba e95e 40bb 15f7 483b 1495 68bb
000001b0: 7180 503b ac46 93bb 48de 88bb 121f 263b
000001c0: d373 c33b bff5 073b f4cf bdba aa22 8c38
000001d0: 6f6c 47ba d305 87bb 3278 bbb8 4b52 29bb
000001e0: 2736 0839 cf17 bb3a 6d42 df3a 9f0f 9fbb
000001f0: 4807 bdba 0f0c c9ba a2ce df3b 75cf c1ba

arith.constant24 f4 [64]
19.548517 19.402874 18.421787 22.379465 17.610176 13.685826 23.434858 18.142323
16.950144 20.478207 21.98694 21.26333 18.71296 20.81586 18.788645 21.857023
22.904202 20.80325 22.104826 21.21813 16.46309 18.753439 18.175846 18.4468
19.637817 16.268888 22.277895 22.525896 17.975836 20.718088 19.645966 20.282349
19.232948 16.740612 19.77835 16.87496 23.232798 16.559683 20.562267 17.35516
20.615156 20.80964 21.50114 19.209234 21.973545 20.366505 14.536926 16.267685
19.567446 19.294044 20.326916 21.322933 18.105907 18.564693 18.750864 18.015268
19.390545 22.079895 21.844372 16.920862 20.190542 22.15885 21.662676 22.191278
00000000: 5d63 9c41 1639 9b41 d25f 9341 2509 b341
00000010: a4e1 8c41 25f9 5a41 977a bb41 7a23 9141
00000020: e599 8741 5ed3 a341 41e5 af41 4d1b aa41
00000030: 24b4 9541 e286 a641 254f 9641 2fdb ae41
00000040: ce3b b741 0e6d a641 afd6 b041 bbbe a941
00000050: 69b4 8341 0b07 9641 2268 9141 0c93 9341
00000060: 401a 9d41 af26 8241 2139 b241 0935 b441
00000070: 83ce 8f41 a5be a541 f02a 9d41 4042 a241
00000080: 14dd 9941 c6ec 8541 103a 9e41 ebff 8641
00000090: c5dc b941 3b7a 8441 867f a441 5ed7 8a41
000000a0: d7eb a441 257a a641 5602 ac41 83ac 9941
000000b0: d2c9 af41 9aee a241 4097 6841 3824 8241
000000c0: 218a 9c41 345a 9a41 869d a241 5e95 aa41
000000d0: e6d8 9041 7e84 9441 c501 9641 451f 9041
000000e0: d61f 9b41 a0a3 b041 46c1 ae41 ed5d 8741
000000f0: 3b86 a141 5345 b141 294d ad41 bd87 b141

arith.constant25 f4 [64]
0.40870246 -2.2236817 -2.2991698 2.3968909 -1.1577854 -2.5193002 2.2125113 -0.12904473
1.2882937 -2.1434174 -0.9161436 2.063421 -5.6048727 -2.6503804 -0.57411367 0.04196839
2.2223668 -0.22544235 2.8450885 1.109009 -0.011637149 -4.3647747 -5.0346465 -2.5470665
-0.8565128 -0.06949579 1.1713266 1.9611713 -1.0163172 -0.8834035 -1.4036003 0.5001185
-5.2482815 0.59138167 -2.097999 -0.19110331 0.71518975 -2.145479 -0.16777375 -0.73565376
-3.5379474 0.9302846 1.7712898 1.57407 -0.2567436 0.49776685 -0.657425 -3.2443979
0.5216147 -0.9898373 -4.146899 -1.5381788 -1.1080614 -1.4641877 -1.4477495 -0.06951063
0.19215588 1.4335034 0.014377198 0.17395256 -0.22533605 2.3138633 1.9116731 -1.6277529
00000000: 7341 d13e cd50 0ec0 9925 13c0 a966 1940
00000010: 5032 94bf 373c 21c0 c999 0d40 4d24 04be
00000020: cfe6 a43f c02d 09c0 6388 6abf 170f 0440
00000030: 1e5b b3c0 d59f 29c0 1df9 12bf 0ce7 2b3d
00000040: 423b 0e40 5cda 66be ee15 3640 02f4 8d3f
00000050: bea9 3ebc 3cac 8bc0 d31b a1c0 2303 23c0
00000060: 6c44 5bbf cf53 8ebd 08ee 953f a907 fb3f
00000070: af16 82bf bb26 62bf 2da9 b3bf c407 003f
00000080: ecf1 a7c0 ca64 173f 9e45 06c0 96b0 43be
00000090: ad16 373f 874f 09c0 e2cc 2bbe ce53 3cbf
000000a0: bb6d 62c0 2227 6e3f a0b9 e23f 207b c93f
000000b0: e673 83be 4cdb fe3e 014d 28bf 37a4 4fc0
000000c0: 8a88 053f fa65 7dbf 66b3 84c0 0be3 c4bf
000000d0: f5d4 8dbf 816a bbbf db4f b9bf 975b 8ebd
000000e0: 83c4 443e 0a7d b73f 578e 6b3c 9f20 323e
000000f0: 7ebe 66be 5616 1440 b4b1 f43f 355a d0bf

arith.constant26 f4 [1, 1, 64]
0.017308898 -0.0050278874 0.01692306 0.0029634165 0.00043064952 0.019424427 0.009859162 0.012676549
0.0075869695 0.012098735 0.0016032312 0.0042881155 0.012197785 0.017380683 -0.0025877666 0.009877568
0.008014853 0.0022170527 0.00259983 0.00741314 0.0114799505 -0.0013150396 0.004529072 0.017120402
0.014734331 -0.001569113 0.016234942 -0.0035285107 0.023545587 0.013208174 0.025953386 0.010820962
0.01710759 0.016951794 -0.004712159 -0.005265107 0.0031646655 0.0015927467 0.005914698 0.01467735
0.030754117 0.0031010476 0.011671815 -0.005120988 -0.009194482 0.011570571 0.015162589 0.0033466872
-0.003419438 0.0011347438 0.014422751 0.014878445 0.023166204 0.011173186 0.004520126 0.008929889
0.0059808698 -0.011242112 0.026883516 0.017046208 0.008176551 -0.0015538137 0.0086106295 0.012620101
00000000: 64cb 8d3c fac0 a4bb 3ba2 8a3c e135 423b
00000010: cdc8 e139 fa1f 9f3c 5388 213c 4db1 4f3c
00000020: 1d9c f83b c639 463c 8323 d23a 5283 8c3b
00000030: 38d9 473c ef61 8e3c 8597 29bb 86d5 213c
00000040: bb50 033c f94b 113b e961 2a3b ede9 f23b
00000050: 6716 3c3c 685d acba 9c68 943b 1640 8c3c
00000060: 4368 713c b2aa cdba 24ff 843c 963e 67bb
00000070: ade2 c03c 1967 583c 329c d43c 674a 313c
00000080: 3725 8c3c 7dde 8a3c 7468 9abb eb86 acbb
00000090: 4766 4f3b b6c3 d03a 15d0 c13b 4579 703c
000000a0: 0ff0 fb3c f23a 4b3b 243b 3f3c f6cd a7bb
000000b0: 74a4 16bc 7e92 3d3c 826c 783c 1854 5b3b
000000c0: a618 60bb afbb 943a 674d 6c3c b9c4 733c
000000d0: 0dc7 bd3c bd0f 373c 911d 943b ab4e 123c
000000e0: 2cfb c33b d630 38bc d23a dc3c 7da4 8b3c
000000f0: f1f6 053c 56a9 cbba 9913 0d3c 8ac4 4e3c

arith.constant27 f4 [1, 1, 256]
-0.005969982 0.0009175642 0.007387015 -0.001500151 0.0007972479 0.0060596783 -0.006244582 0.0020009596
-0.0025201605 -0.0034949887 -0.004050272 -0.004986863 -0.005116483 0.0071451236 -0.002808062 0.0011523251
-0.000707315 -0.0020707112 0.005365394 0.0035766724 0.0066382647 -0.0068577975 0.00308579 0.0034466689
0.0047088126 0.0051396135 0.0008594503 -0.005221741 0.005886928 0.00037171165 -0.006434905 -0.0011229839
-0.0026409219 -0.00065215636 6.784708e-05 5.3112926e-05 0.0052077156 -0.0017862343 -0.0006328888 -0.008073131
-0.0016084093 -0.007361771 0.005230885 -0.0032034498 0.0019551127 -0.0003081571 0.006214106 -8.287442e-05
-0.008566911 -0.0011167885 -0.0012809592 0.002076531 0.0071940008 0.0038984478 0.0015711458 0.00010122779
-0.0027917337 -0.0064762165 -0.0056678588 0.0018170875 0.0034137631 -0.0044393367 4.9622446e-05 -0.008315321
0.0029210802 0.0032083208 -0.0022028508 0.0022844567 0.00064629177 0.00050092215 0.003252139 0.0046937745
0.00060315727 -0.002549028 0.001529635 -0.009422702 -0.002608034 -0.0015197527 0.0038747091 -0.0013367629
0.008227669 -0.002187824 -0.004183868 0.0033817163 -0.002190689 0.008753754 -0.0008802663 0.0026837334
0.00026896625 -0.00062638125 0.00084285805 0.002426828 -0.0026404765 0.004035207 0.00032528056 0.0025029096
-0.0059738676 -0.0033710792 0.0060574817 0.00329013 0.0017953826 -0.00044130557 0.003414944 0.0050507784
0.007693192 0.00090505765 -0.0015238026 -0.0036872653 -0.0060047167 0.00084613735 0.0055091656 -0.0008522704
0.0034893216 -0.0050782934 0.0015631432 -0.0019015082 0.002250467 0.0002741218 -0.0034174472 0.0041832547
0.00089030585 0.0038889286 -0.003592064 0.010356388 -0.005717444 0.001763013 0.0060259276 0.004574038
0.0024605077 -0.0054338486 0.004579983 -0.008028485 -0.00023149949 -0.0014277569 -0.004703708 0.008572739
-0.009442335 0.00021446559 -0.007207761 -0.0023260454 -0.0023947265 -0.010080211 -0.0023177988 0.002741212
-0.0020940055 -0.00045506677 0.0031118433 0.0063568074 0.0020387624 0.003069862 0.0050423043 -0.0010949859
-0.0052538877 -0.002312799 0.012697521 -0.00347424 -0.0015844958 -0.0036554406 0.000818312 0.0046184235
0.008966203 0.0064979647 -0.005907319 -0.0024419427 -0.0034773208 0.00063040893 -0.0057464563 0.010446028
0.0036075003 0.0012354136 -0.0018104871 -0.0030507431 -0.0054699024 -0.0006562553 0.006455101 0.004236034
0.0022134802 0.010776821 0.0025591084 0.0006006196 -0.0035075643 -0.001592925 -0.003983997 0.0009720212
0.0073943217 -0.000780395 0.0033520844 0.0063624014 0.00420301 0.0011369652 -0.0019158055 -0.0041894023
-0.00400354 -0.006375358 0.0055031776 0.010123097 -0.004696077 -0.010237463 -0.0014164639 -0.00062709895
-0.0037955137 0.0022968333 -0.0018541922 0.0011652586 -0.0044555333 0.0009885576 0.0009421521 -0.0008972304
0.0014063647 0.0031616252 -0.0011333833 0.0016028523 0.0035786284 0.0032317494 0.00073874154 -0.003997504
-0.0039735707 0.0042501367 0.0010895143 -0.0052361973 0.0013328067 0.00056551467 0.0040399507 -0.0066661923
0.0025864446 -0.0037192216 -0.007962229 0.001948267 -0.0009431698 0.005199082 0.0037008245 -0.006939053
-0.0013517877 -0.004298808 -0.0022373563 -0.0025563252 -0.003603593 -0.00043512584 0.0011672468 0.0061153253
0.0025523782 -0.0007831185 0.0007554717 -0.011023019 0.0041080527 -0.009049484 0.0038084972 0.00014901703
0.0062769256 5.7879402e-05 -0.0018696456 -0.0009837134 0.0024110656 0.0034951717 0.0030087025 -0.0022746492
00000000: d79f c3bb b188 703a c60e f23b b7a0 c4ba
00000010: 67fe 503a 4490 c63b 5a9f ccbb 8822 033b
00000020: 4729 25bb 2e0c 65bb 25b8 84bb d768 a3bb
00000030: 2ca8 a7bb a421 ea3b 7607 38bb 9d09 973a
00000040: 1b6b 39ba c5b4 07bb 30d0 af3b 9b66 6a3b
00000050: cd85 d93b 60b7 e0bb f73a 4a3b 82e1 613b
00000060: 624c 9a3b 346a a83b bc4c 613a 231b abbb
00000070: 22e7 c03b 4be2 c239 e5db d2bb 1631 93ba
00000080: 5113 2dbb 79f5 2aba 2049 8e38 92c5 5e38
00000090: 7ca5 aa3b 1420 eaba 73e8 25ba 2a45 04bc
000000a0: 43d1 d2ba 033b f1bb d867 ab3b f8f0 51bb
000000b0: 5921 003b 2590 a1b9 b39f cb3b decc adb8
000000c0: 3b5c 0cbc 3461 92ba dce5 a7ba 6916 083b
000000d0: a7bb eb3b 1a7d 7f3b e8ee cd3a 424a d438
000000e0: 85f5 36bb 7136 d4bb 72b9 b9bb 572b ee3a
000000f0: 71b9 5f3b db77 91bb b221 5038 fc3c 08bc
00000100: 986f 3f3b b142 523b b45d 10bb d3b6 153b
00000110: e86b 293a 5150 033a d721 553b 3cce 993b
00000120: 331d 1e3a 980d 27bb 097e c83a ad61 1abc
00000130: 8deb 2abb 7032 c7ba d5ee 7d3b 5236 afba
00000140: 58cd 063c 9961 0fbb d418 89bb c99f 5d3b
00000150: aa91 0fbb e86b 0f3c acc1 66ba 93e1 2f3b
00000160: 0a04 8d39 bc33 24ba 3ff3 5c3a 6b0b 1f3b
00000170: d80b 2dbb c539 843b 6b8a aa39 db07 243b
00000180: 6fc0 c3bb 53ed 5cbb d77d c63b 399f 573b
00000190: 0b53 eb3a 085f e7b9 41cd 5f3b 0081 a53b
000001a0: 2c17 fc3b 6441 6d3a 55ba c7ba 0ca6 71bb
000001b0: 37c3 c4bb 51cf 5d3a 3b86 b43b e66a 5fba
000001c0: 1aad 643b d067 a6bb 62e2 cc3a 073c f9ba
000001d0: 927c 133b 01b8 8f39 40f7 5fbb af13 893b
000001e0: 6a63 693a 65dd 7e3b d568 6bbb d7ad 293c
000001f0: 6559 bbbb e614 e73a 2575 c53b d0e1 953b
00000200: 7840 213b 6d0e b2bb af13 963b e889 03bc
00000210: acbe 72b9 9223 bbba 9021 9abb ac74 0c3c
00000220: 06b4 1abc 2be2 6039 152f ecbb 9170 18bb
00000230: d8f0 1cbb 7827 25bc 36e6 17bb e8a5 333b
00000240: 953b 09bb 0796 eeb9 11f0 4b3b c44c d03b
00000250: c29c 053b bd2f 493b ea39 a53b a185 8fba
00000260: ce28 acbb 5492 17bb 4309 503c 13b0 63bb
00000270: dbae cfba 1e90 6fbb fd83 563a 2556 973b
00000280: fbe6 123c e1ec d43b 2f92 c1bb 0009 20bb
00000290: c3e3 63bb 0742 253a c54c bcbb d125 2b3c
000002a0: d06b 6c3b 9aed a13a de4d edba faee 47bb
000002b0: de3c b3bb 8c08 2cba 5085 d33b 6ece 8a3b
000002c0: 0910 113b 4391 303c b7b6 273b e672 1d3a
000002d0: 2adf 65bb b2c9 d0ba 308c 82bb 3dcf 7e3a
000002e0: 114c f23b 6c93 4cba a5ae 5b3b b17b d03b
000002f0: 67b9 893b 3906 953a c41b fbba 4147 89bb
00000300: 2130 83bb 61e8 d0bb 0054 b43b 59db 253c
00000310: 8de1 99bb 08bb 27bc a4a8 b9ba e663 24ba
00000320: 27be 78bb 7886 163b 5e08 f3ba 97bb 983a
00000330: b9ff 91bb 7d92 813a c2fa 763a 1d34 6bba
00000340: c555 b83a 4533 4f3b 088e 94ba cc16 d23a
00000350: 6c87 6a3b c2cb 533b 1ba8 413a 7efd 82bb
00000360: ba34 82bb bb44 8b3b 09ce 8e3a 6894 abbb
00000370: 92b1 ae3a 0c3f 143a 9061 843b 1370 dabb
00000380: 5781 293b 2fbe 73bb 0274 02bc fe5c ff3a
00000390: 0e3f 77ba 105d aa3b 8889 723b ff60 e3bb
000003a0: 782e b1ba 04dd 8cbb 9ca0 12bb 0588 27bb
000003b0: 422a 6cbb 9a21 e4b9 4efe 983a 1163 c83b
000003c0: cd45 273b 314a 4dba d90a 463a e599 34bc
000003d0: d89c 863b 4944 14bc fb97 793b 7441 1c39
000003e0: abae cd3b 89c3 7238 e50e f5ba f2ef 80ba
000003f0: f802 1e3b 400f 653b a72d 453b 4812 15bb

arith.constant28 f4 [1, 1, 256]
1.0004089 1.0049853 0.99613726 1.0194522 1.0052195 1.0269988 0.9986338 1.004522
1.0075539 1.022247 1.0012406 1.0208738 1.0065631 1.0074905 1.0078143 0.99782205
1.0038065 1.0089258 1.0261312 1.02194 1.003541 1.0104858 1.0279527 1.0143077
1.021609 1.0142162 1.0167981 1.0184494 1.0068989 1.0177062 1.0074517 1.0053414
1.0048004 1.0141845 1.0193338 1.0036427 1.0017979 1.0044323 1.0092112 1.0001276
1.0028241 1.0019337 1.0055554 1.0018573 1.0074517 1.0092671 1.0133306 1.0273782
1.0098622 1.0060441 1.009656 1.0036464 1.0128988 1.0084617 1.009576 1.0140228
1.0099168 0.99858886 1.0009336 1.0051608 1.0118382 1.0231675 1.0131518 1.0167892
1.013307 1.0244092 1.0085453 1.0155884 1.009208 1.0158377 1.0146928 0.99696285
1.0199056 1.014153 1.0064138 1.0173261 1.0060939 1.0059983 1.011426 0.9924369
1.0268928 1.0018252 1.0028249 1.0420334 1.0048641 1.0127333 1.0059555 1.0198933
1.0013041 1.0171471 1.0080168 1.0047078 1.0119768 1.0155478 1.0088158 1.0102282
1.0120988 1.0210394 1.0088795 1.0151424 1.0085446 1.0015326 1.0095766 1.0094453
1.011804 1.0195787 1.0045855 1.0211993 1.0122914 1.023333 1.0136789 0.99908864
1.0159346 1.0077556 1.011693 1.0180464 1.0264618 1.0218102 1.0208515 1.0159724
1.0208886 1.0100591 1.0066936 1.0245441 1.0196793 1.0046637 1.0081049 1.0166408
1.0022099 1.0073799 1.0012406 1.0092416 1.025622 1.0123879 1.0110362 1.0234311
1.017554 1.0130119 1.015365 1.0079129 1.0148704 0.99979794 1.0146532 1.0076101
1.0101738 1.0269758 1.0055041 1.0102696 1.0028938 1.0199579 1.014839 1.0218343
1.0080246 0.99733317 1.0187384 1.0031009 1.0069214 1.0146929 1.028646 1.0105181
1.0141661 1.0113922 1.0094804 1.0079813 1.0154843 1.0041144 1.0029502 1.0179356
1.0100043 1.0179058 1.0167197 1.007934 1.0124612 0.9934259 0.99578905 1.0089794
1.0145984 1.0133312 1.0047165 1.0240428 1.008124 1.0194461 1.0141966 1.0040162
1.0134062 1.0028661 1.0141984 1.0251582 1.0008812 1.0284188 1.0203495 1.0150754
1.0217488 1.0098823 1.0114919 1.0157673 1.0173323 1.0106817 1.0030648 1.0082455
1.0007042 1.0201509 1.0150816 1.0017698 1.0084379 1.0200018 1.0177999 1.0169237
1.0195333 1.009714 1.0082914 1.0134641 1.0144585 1.0143433 1.014267 1.0077941
1.0116309 1.003524 1.0117308 1.0071765 1.0209863 1.016281 0.9948667 1.0185521
1.0119817 1.0041251 1.0127776 1.0192337 1.011101 1.0045998 1.0146321 1.010825
1.0028771 1.0132962 1.0191535 1.017929 1.0088998 1.0095801 1.0183659 1.0214274
1.0105304 1.0230418 1.0137309 1.0110229 1.0038509 1.012806 1.018234 1.0099237
1.0159906 1.00344 1.0289806 1.0131127 1.0154418 1.0030336 1.0118837 1.0107396
00000000: 660d 803f 5ca3 803f da02 7f3f 697d 823f
00000010: 08ab 803f b274 833f 77a6 7f3f 2d94 803f
00000020: 87f7 803f fdd8 823f a728 803f feab 823f
00000030: 0fd7 803f 73f5 803f 0f00 813f 4471 7f3f
00000040: bb7c 803f 7b24 813f 4458 833f eece 823f
00000050: 0874 803f 9957 813f f493 833f d6d4 813f
00000060: 15c4 823f d6d1 813f 7126 823f 8d5c 823f
00000070: 10e2 803f 3244 823f 2df4 803f 07af 803f
00000080: 4d9d 803f ccd0 813f 8879 823f 5d77 803f
00000090: ea3a 803f 3d91 803f d52d 813f 2e04 803f
000000a0: 8a5c 803f 5d3f 803f 0ab6 803f dc3c 803f
000000b0: 2df4 803f aa2f 813f d1b4 813f 2181 833f
000000c0: 2a43 813f 0ec6 803f 683c 813f 7c77 803f
000000d0: aba6 813f 4615 813f c939 813f 80cb 813f
000000e0: f444 813f 85a3 7f3f 981e 803f 1ca9 803f
000000f0: ea83 813f 27f7 823f f5ae 813f 2626 823f
00000100: 0bb4 813f d71f 833f 0318 813f cdfe 813f
00000110: ba2d 813f f806 823f 74e1 813f f538 7f3f
00000120: 448c 823f c4cf 813f 2bd2 803f be37 823f
00000130: afc7 803f 8dc4 803f 6876 813f 5810 7e3f
00000140: 3971 833f cf3b 803f 915c 803f 5a61 853f
00000150: 639f 803f 3fa1 813f 26c3 803f dd8b 823f
00000160: bc2a 803f e031 823f b206 813f 449a 803f
00000170: 7588 813f 78fd 813f e020 813f 284f 813f
00000180: 748c 813f 6bb1 823f f722 813f 30f0 813f
00000190: fd17 813f 3832 803f ce39 813f 8135 813f
000001a0: cb82 813f 8e81 823f 4296 803f a9b6 823f
000001b0: c492 813f 93fc 823f 3bc0 813f 46c4 7f3f
000001c0: 250a 823f 23fe 803f 287f 813f 584f 823f
000001d0: 1a63 833f adca 823f 43ab 823f 620b 823f
000001e0: 7aac 823f 9e49 813f 56db 803f 4324 833f
000001f0: da84 823f d298 803f 9509 813f 4921 823f
00000200: 6a48 803f d3f1 803f a728 803f d42e 813f
00000210: 9547 833f ed95 813f a269 813f caff 823f
00000220: 363f 823f 60aa 813f 7bf7 813f 4a03 813f
00000230: 46e7 813f c2f2 7f3f 28e0 813f 5ef9 803f
00000240: 604d 813f f173 833f 5cb4 803f 8450 813f
00000250: d35e 803f fb8d 823f 3fe6 813f 77cb 823f
00000260: f306 813f 3a51 7f3f 0566 823f 9c65 803f
00000270: cde2 803f 75e1 813f acaa 833f a858 813f
00000280: 32d0 813f 4d75 813f a736 813f 8805 813f
00000290: 64fb 813f d286 803f ac60 803f b74b 823f
000002a0: d247 813f bd4a 823f df23 823f fb03 813f
000002b0: 5498 813f 2951 7e3f 08ec 7e3f 3d26 813f
000002c0: 5cde 813f d6b4 813f 8d9a 803f d613 833f
000002d0: 350a 813f 367d 823f 32d1 813f 9a83 803f
000002e0: 4bb7 813f eb5d 803f 41d1 813f 6238 833f
000002f0: e01c 803f 3aa3 833f d09a 823f feed 813f
00000300: aac8 823f d343 813f 9178 813f aa04 823f
00000310: f237 823f 055e 813f 6d64 803f 300e 813f
00000320: 1317 803f 4e94 823f 32ee 813f fe39 803f
00000330: 7e14 813f 6b8f 823f 4447 823f 8e2a 823f
00000340: 1180 823f 4f3e 813f b10f 813f 31b9 813f
00000350: c7d9 813f 00d6 813f 80d3 813f 66ff 803f
00000360: 1f7d 813f 7973 803f 6580 813f 29eb 803f
00000370: aeaf 823f 7f15 823f 96af 7e3f ea5f 823f
00000380: 9e88 813f 2c87 803f b2a2 813f 4076 823f
00000390: c26b 813f ba96 803f 77df 813f b762 813f
000003a0: 475e 803f b1b3 813f 9f73 823f 7f4b 823f
000003b0: a123 813f ec39 813f d059 823f 22be 823f
000003c0: 0f59 813f 09f3 823f efc1 813f 3369 813f
000003d0: 307e 803f a1a3 813f 7e55 823f 2e45 813f
000003e0: fb0b 823f b970 803f a3b5 833f adad 813f
000003f0: fff9 813f 6863 803f 6885 813f ea5f 813f

arith.constant29 f4 [64]
0.0 0.0 0.0 0.0 0.0 0.0 0.0 0.0
0.0 0.0 0.0 0.0 0.0 0.0 0.0 0.0
0.0 0.0 0.0 0.0 0.0 0.0 0.0 0.0
0.0 0.0 0.0 0.0 0.0 0.0 0.0 0.0
0.0 0.0 0.0 0.0 0.0 0.0 0.0 0.0
0.0 0.0 0.0 0.0 0.0 0.0 0.0 0.0
0.0 0.0 0.0 0.0 0.0 0.0 0.0 0.0
0.0 0.0 0.0 0.0 0.0 0.0 0.0 0.0
00000000: 0000 0000 0000 0000 0000 0000 0000 0000
00000010: 0000 0000 0000 0000 0000 0000 0000 0000
00000020: 0000 0000 0000 0000 0000 0000 0000 0000
00000030: 0000 0000 0000 0000 0000 0000 0000 0000
00000040: 0000 0000 0000 0000 0000 0000 0000 0000
00000050: 0000 0000 0000 0000 0000 0000 0000 0000
00000060: 0000 0000 0000 0000 0000 0000 0000 0000
00000070: 0000 0000 0000 0000 0000 0000 0000 0000
00000080: 0000 0000 0000 0000 0000 0000 0000 0000
00000090: 0000 0000 0000 0000 0000 0000 0000 0000
000000a0: 0000 0000 0000 0000 0000 0000 0000 0000
000000b0: 0000 0000 0000 0000 0000 0000 0000 0000
000000c0: 0000 0000 0000 0000 0000 0000 0000 0000
000000d0: 0000 0000 0000 0000 0000 0000 0000 0000
000000e0: 0000 0000 0000 0000 0000 0000 0000 0000
000000f0: 0000 0000 0000 0000 0000 0000 0000 0000

tfl.pseudo_qconst i1 [256, 128]
-107 -88 -18 -84 -50 86 -45 60
-85 -25 6 6 -94 -69 65 76
77 6 -17 15 -94 -17 -7 43
-127 115 6 76 -40 48 -72 -19
-58 -107 43 115 111 -73 -2 -54
112 -117 -15 18 95 -106 -107 107
-14 85 36 85 -14 26 106 -32
-55 -22 47 92 -50 63 -49 55
-114 -81 -23 -1 -80 -29 -39 118
79 -31 -78 112 -4 -26 11 56
-90 -59 94 -79 2 -7 -15 -99
83 -12 82 -83 -31 -8 -6 -104
23 -51 -75 4 -56 2 -78 -45
-11 22 -106 -100 94 -16 77 67
112 -20 2 24 11 -77 -22 108
52 41 -78 -78 -47 67 -62 107
-114 -105 -113 6 96 111 56 -34
54 -57 15 97 -35 24 -103 17
-61 -102 -101 -14 101 -52 -43 5
78 -115 99 -15 32 112 50 97
-89 -105 -69 -68 -6 -104 -101 -27
108 -22 -108 -31 -48 -48 -106 -7
24 -63 -59 91 -119 97 22 -11
-38 16 67 -99 85 6 -42 -97
108 4 -79 -72 -72 40 -11 -24
-14 19 -110 22 -16 -36 -62 105
93 94 -14 25 -18 52 -57 -104
-70 105 -51 2 -83 -96 84 108
89 -55 -32 75 -19 -105 0 70
-94 127 -9 51 -76 101 53 52
106 56 24 30 -5 -74 30 -87
120 15 -74 92 -53 124 42 13
00000000: 95a8 eeac ce56 d33c abe7 0606 a2bb 414c
00000010: 4d06 ef0f a2ef f92b 8173 064c d830 b8ed
00000020: c695 2b73 6fb7 feca 708b f112 5f96 956b
00000030: f255 2455 f21a 6ae0 c9ea 2f5c ce3f cf37
00000040: 8eaf e9ff b0e3 d976 4fe1 b270 fce6 0b38
00000050: a6c5 5eb1 02f9 f19d 53f4 52ad e1f8 fa98
00000060: 17cd b504 c802 b2d3 f516 969c 5ef0 4d43
00000070: 70ec 0218 0bb3 ea6c 3429 b2b2 d143 c26b
00000080: 8e97 8f06 606f 38de 36c7 0f61 dd18 9911
00000090: c39a 9bf2 65cc d505 4e8d 63f1 2070 3261
000000a0: a797 bbbc fa98 9be5 6cea 94e1 d0d0 96f9
000000b0: 18c1 c55b 8961 16f5 da10 439d 5506 d69f
000000c0: 6c04 b1b8 b828 f5e8 f213 9216 f0dc c269
000000d0: 5d5e f219 ee34 c798 ba69 cd02 ada0 546c
000000e0: 59c9 e04b ed97 0046 a27f f733 b465 3534
000000f0: 6a38 181e fbb6 1ea9 780f b65c cb7c 2a0d

tfl.pseudo_qconst1 i1 [128, 256]
-20 57 -30 -52 -86 6 43 1
2 -86 4 -15 -29 -83 -30 31
-19 69 32 -40 -96 16 23 84
33 -81 60 -69 -62 -48 -59 40
-3 12 17 -39 53 -1 74 -87
-64 -77 -68 3 -12 14 -5 0
33 -62 16 -70 -95 -108 36 79
26 25 1 -31 -24 -97 19 -92
-24 15 74 46 -114 20 -3 62
-16 -11 45 -48 -78 -81 106 43
67 -67 -47 46 4 -127 -75 27
-40 21 -43 -15 -32 -71 -100 -73
51 -59 -26 37 51 -72 -12 3
29 -30 32 -75 -56 -18 59 45
5 -63 -27 70 -68 4 -12 -42
-39 0 -74 -7 111 -14 -47 71
-73 -48 -42 0 68 -92 10 -21
15 -7 -25 45 6 17 -102 -70
18 62 -43 54 -40 -17 77 43
11 5 44 79 -68 1 33 -77
24 20 28 11 56 86 -86 -2
24 -43 53 -43 101 28 9 86
15 70 47 84 -60 -29 48 -11
88 -39 101 21 75 -55 61 -74
66 -57 -18 -60 -48 64 -2 15
109 -7 -5 5 -1 -2 -39 7
-38 22 4 24 61 73 89 -54
37 23 53 -1 95 54 82 36
8 82 59 -101 43 -54 -72 -71
-63 -8 53 7 -2 -1 -42 -15
6 -23 14 -23 91 -33 -32 18
-82 -16 -71 -12 31 93 79 -3
00000000: ec39 e2cc aa06 2b01 02aa 04f1 e3ad e21f
00000010: ed45 20d8 a010 1754 21af 3cbb c2d0 c528
00000020: fd0c 11d9 35ff 4aa9 c0b3 bc03 f40e fb00
00000030: 21c2 10ba a194 244f 1a19 01e1 e89f 13a4
00000040: e80f 4a2e 8e14 fd3e f0f5 2dd0 b2af 6a2b
00000050: 43bd d12e 0481 b51b d815 d5f1 e0b9 9cb7
00000060: 33c5 e625 33b8 f403 1de2 20b5 c8ee 3b2d
00000070: 05c1 e546 bc04 f4d6 d900 b6f9 6ff2 d147
00000080: b7d0 d600 44a4 0aeb 0ff9 e72d 0611 9aba
00000090: 123e d536 d8ef 4d2b 0b05 2c4f bc01 21b3
000000a0: 1814 1c0b 3856 aafe 18d5 35d5 651c 0956
000000b0: 0f46 2f54 c4e3 30f5 58d9 6515 4bc9 3db6
000000c0: 42c7 eec4 d040 fe0f 6df9 fb05 fffe d907
000000d0: da16 0418 3d49 59ca 2517 35ff 5f36 5224
000000e0: 0852 3b9b 2bca b8b9 c1f8 3507 feff d6f1
000000f0: 06e9 0ee9 5bdf e012 aef0 b9f4 1f5d 4ffd

tfl.pseudo_qconst2 i1 [128, 256]
-41 50 20 6 25 39 38 -10
-19 -28 -21 -70 -26 2 -63 50
-65 21 3 8 -16 18 -28 78
8 -11 0 -4 -64 -15 41 76
1 40 -50 -51 -18 6 1 -69
-3 30 25 -37 -18 -1 20 -47
27 -23 14 -93 59 -7 -31 -10
31 -25 51 16 -61 -52 -17 -29
-70 -85 -80 41 -90 -1 -12 -33
-51 -28 7 -30 -29 1 -3 -8
-35 -64 85 58 -30 -68 -57 -1
-43 39 51 -1 -41 48 14 -1
89 -30 3 0 -2 44 -8 -101
21 -76 44 -19 -23 10 -71 -73
-62 74 29 27 -12 -83 14 -32
16 -5 16 16 -51 -106 50 -45
-3 7 -12 31 -48 -77 30 -48
37 64 31 78 -103 55 -66 -31
106 33 60 41 26 -67 47 25
41 -57 78 66 -5 -10 41 -49
-88 -48 17 -70 -77 99 -39 -51
-55 19 5 -89 -49 -2 90 57
-50 67 14 -9 5 -42 -77 52
44 70 83 -20 -5 40 49 18
27 -35 62 -59 -46 12 -106 66
67 22 16 -48 5 20 27 -24
36 -11 -18 -53 13 17 -34 4
53 119 -50 -45 -49 23 18 127
-22 38 -12 11 62 -44 -42 -110
88 -11 -33 13 -41 82 -70 -3
3 -81 -50 -7 65 -46 -60 -8
-46 -76 -10 -20 -14 5 -73 -92
00000000: d732 1406 1927 26f6 ede4 ebba e602 c132
00000010: bf15 0308 f012 e44e 08f5 00fc c0f1 294c
00000020: 0128 cecd ee06 01bb fd1e 19db eeff 14d1
00000030: 1be9 0ea3 3bf9 e1f6 1fe7 3310 c3cc efe3
00000040: baab b029 a6ff f4df cde4 07e2 e301 fdf8
00000050: ddc0 553a e2bc c7ff d527 33ff d730 0eff
00000060: 59e2 0300 fe2c f89b 15b4 2ced e90a b9b7
00000070: c24a 1d1b f4ad 0ee0 10fb 1010 cd96 32d3
00000080: fd07 f41f d0b3 1ed0 2540 1f4e 9937 bee1
00000090: 6a21 3c29 1abd 2f19 29c7 4e42 fbf6 29cf
000000a0: a8d0 11ba b363 d9cd c913 05a7 cffe 5a39
000000b0: ce43 0ef7 05d6 b334 2c46 53ec fb28 3112
000000c0: 1bdd 3ec5 d20c 9642 4316 10d0 0514 1be8
000000d0: 24f5 eecb 0d11 de04 3577 ced3 cf17 127f
000000e0: ea26 f40b 3ed4 d692 58f5 df0d d752 bafd
000000f0: 03af cef9 41d2 c4f8 d2b4 f6ec f205 b7a4

tfl.pseudo_qconst3 i1 [128, 256]
-10 25 41 -59 50 75 4 -102
60 54 -39 -15 -99 -52 50 56
-61 -21 59 37 67 57 5 63
28 -15 6 47 -34 -45 32 28
-63 14 -127 -113 -102 13 114 4
93 1 -23 41 95 45 -88 -35
45 -86 64 8 46 14 76 -17
-37 49 44 5 16 -18 -42 14
92 -111 -11 -49 -39 -60 48 23
-114 13 29 16 -56 29 21 -42
-107 -67 -74 -15 24 -64 35 7
-43 -10 10 -61 32 1 -60 0
-98 -80 -36 -73 54 33 -40 84
57 -104 1 -119 -27 -35 -100 55
-28 -10 71 76 77 -20 37 43
39 57 25 -3 -5 13 -15 60
-2 -68 -2 97 -30 18 -22 -48
-70 1 30 -4 14 28 -63 -82
-1 -5 12 -12 -84 5 93 -76
-12 104 70 -20 -81 32 63 -30
-94 -41 4 3 3 21 32 -37
65 -23 30 -63 106 -57 -46 40
50 45 29 -44 18 17 -49 25
77 -36 -65 3 20 16 -2 -47
43 9 -59 -44 12 80 50 36
25 74 -41 -72 18 -10 16 -66
-81 -56 36 -5 9 -44 30 -7
92 -25 41 -12 14 -14 2 62
-42 40 88 -39 -26 6 -51 14
-24 76 13 -28 70 -75 55 36
-32 71 -22 44 -22 14 -22 9
-83 -79 -91 -7 -43 -7 -12 2
00000000: f619 29c5 324b 049a 3c36 d9f1 9dcc 3238
00000010: c3eb 3b25 4339 053f 1cf1 062f ded3 201c
00000020: c10e 818f 9a0d 7204 5d01 e929 5f2d a8dd
00000030: 2daa 4008 2e0e 4cef db31 2c05 10ee d60e
00000040: 5c91 f5cf d9c4 3017 8e0d 1d10 c81d 15d6
00000050: 95bd b6f1 18c0 2307 d5f6 0ac3 2001 c400
00000060: 9eb0 dcb7 3621 d854 3998 0189 e5dd 9c37
00000070: e4f6 474c 4dec 252b 2739 19fd fb0d f13c
00000080: febc fe61 e212 ead0 ba01 1efc 0e1c c1ae
00000090: fffb 0cf4 ac05 5db4 f468 46ec af20 3fe2
000000a0: a2d7 0403 0315 20db 41e9 1ec1 6ac7 d228
000000b0: 322d 1dd4 1211 cf19 4ddc bf03 1410 fed1
000000c0: 2b09 c5d4 0c50 3224 194a d7b8 12f6 10be
000000d0: afc8 24fb 09d4 1ef9 5ce7 29f4 0ef2 023e
000000e0: d628 58d9 e606 cd0e e84c 0de4 46b5 3724
000000f0: e047 ea2c ea0e ea09 adb1 a5f9 d5f9 f402

tfl.pseudo_qconst4 i1 [64, 1, 3, 171]
54 33 -34 -1 -82 -2 37 -29
-94 92 62 65 13 -38 -46 -94
33 22 -79 -76 -21 -18 5 -82
-50 53 9 -73 -19 -36 74 24
92 9 22 -38 -26 -8 3 -17
-77 -12 11 -56 76 18 6 24
2 46 102 -4 90 31 36 -20
-22 37 104 95 -80 -28 -46 86
3 -81 -70 80 31 4 19 39
40 16 -25 -75 24 51 -75 -52
-42 0 26 -34 47 7 -32 -20
-88 -33 -42 -54 22 37 -60 35
-9 71 17 55 -55 60 -36 73
61 76 -61 -43 34 82 34 78
-95 -100 46 -16 -127 -26 -89 39
-102 12 39 85 -5 -94 -70 -97
-55 32 88 -84 -12 4 52 19
80 70 -10 55 27 -14 81 -42
8 -81 28 -83 -50 21 65 -39
-22 39 -21 54 -11 -91 39 -55
22 -4 -27 -79 -43 -10 -16 -22
-34 21 -57 46 2 -23 -19 87
-2 19 -88 20 -40 -17 -28 -80
-11 2 -82 57 -46 -14 90 -42
-73 74 3 95 -52 51 53 -56
92 -75 115 -50 41 88 -106 21
100 -88 -56 -92 -62 -66 -65 38
48 13 -20 48 29 -58 35 -25
-5 -65 127 10 58 115 -46 62
52 -54 -94 43 76 94 -70 33
21 -91 -14 9 -49 -18 4 77
19 -59 6 -94 -46 77 -25 45
00000000: 3621 deff aefe 25e3 a25c 3e41 0dda d2a2
00000010: 2116 b1b4 ebee 05ae ce35 09b7 eddc 4a18
00000020: 5c09 16da e6f8 03ef b3f4 0bc8 4c12 0618
00000030: 022e 66fc 5a1f 24ec ea25 685f b0e4 d256
00000040: 03af ba50 1f04 1327 2810 e7b5 1833 b5cc
00000050: d600 1ade 2f07 e0ec a8df d6ca 1625 c423
00000060: f747 1137 c93c dc49 3d4c c3d5 2252 224e
00000070: a19c 2ef0 81e6 a727 9a0c 2755 fba2 ba9f
00000080: c920 58ac f404 3413 5046 f637 1bf2 51d6
00000090: 08af 1cad ce15 41d9 ea27 eb36 f5a5 27c9
000000a0: 16fc e5b1 d5f6 f0ea de15 c72e 02e9 ed57
000000b0: fe13 a814 d8ef e4b0 f502 ae39 d2f2 5ad6
000000c0: b74a 035f cc33 35c8 5cb5 73ce 2958 9615
000000d0: 64a8 c8a4 c2be bf26 300d ec30 1dc6 23e7
000000e0: fbbf 7f0a 3a73 d23e 34ca a22b 4c5e ba21
000000f0: 15a5 f209 cfee 044d 13c5 06a2 d24d e72d
